backend/models/lstm_AAPL.pth (torch, 206420 bytes, 9 tensors)

lstm.weight_ih_l0 f4 [256, 1]
000000 91 d2 62 3d a2 5b e7 3d 0c 64 16 bd 4f 81 02 bd
       0.055376593 0.112967744 -0.036716506 -0.0318616
000010 5b 59 33 3d c5 98 a6 3d 44 5f 4c 3d f9 2c 12 3e
       0.043786388 0.08134607 0.04989554 0.14274968
000020 40 57 b1 3d 2d 2d c8 3d 83 b4 10 3d ce 9b f0 3c
       0.0865922 0.097742416 0.0353284 0.029371168
000030 0c 78 80 bc c4 30 a5 3d 89 b5 74 3d 09 ed d6 3d
       -0.015682243 0.08065942 0.059743438 0.104944296
000040 b6 4f be 3c b3 39 e1 bb 29 66 10 be 8e bb e1 bb
       0.023231369 -0.0068733334 -0.14101471 -0.0068888133
000050 c7 7a 98 3d 9d d9 b0 bc 38 e2 c0 3d 86 9f 74 3d
       0.07445293 -0.021588141 0.09418148 0.059722446
000060 85 a9 f7 bd 11 74 16 3e fc 03 13 be 7f 32 86 3d
       -0.1209288 0.14692713 -0.14356989 0.065526
000070 e2 4f f7 bd ca ca 8f 3d 74 c5 f1 3b 92 fc 48 3c
       -0.12075783 0.07021101 0.0073782746 0.012267249
000080 3a dd 1d 3d f3 ff 81 bd 64 2a 6d 3d 7c a6 b1 bd
       0.038541056 -0.063476466 0.057901755 -0.086743325
000090 e1 2e 9d 3d 1f 45 57 3c a1 16 9c 3d dc 65 c9 bc
       0.07674957 0.013139038 0.076215036 -0.024584703
0000a0 5c 82 03 3d a5 f1 db 3d 3b b1 0c bd 5a 8b 5d 3d
       0.032106742 0.107394494 -0.034348708 0.054087974
0000b0 65 98 2d 3c 35 3e 3e 3e 69 8a 87 3d e3 8d ad 3c
       0.010595416 0.18578418 0.066181965 0.02118582
0000c0 09 8d b6 3d 5e d0 f6 3d 6b 83 12 bd b2 02 58 3c
       0.08913619 0.12051462 -0.03576986 0.013184236
0000d0 ba d1 54 3d 74 69 98 3c c7 a8 a1 bd 77 cf 90 3d
       0.051957823 0.018604971 -0.0789352 0.07070821
0000e0 77 5e 4c 3e 35 f6 c9 3c bd 22 01 3d 7f 0f e2 3d
       0.1995791 0.024653533 0.03152727 0.11038112
0000f0 36 87 37 3d b7 35 8e 3c 6e 9f 9e bd ed 74 14 3e
       0.04480668 0.017359598 -0.077452525 0.14497729
000100 ad cf aa bd 54 d4 24 bd 8e e9 82 bd 0b f9 b5 bc
       -0.08340392 -0.040241554 -0.06392203 -0.02221348
000110 ec ae 19 3e b9 11 c1 3d 3c ac 28 39 36 85 22 3e
       0.15008134 0.094272085 0.00016085891 0.15871128
000120 cb 63 d5 3d 0a b3 9a 3d 3f 33 fc 3d 7a 93 c1 bd
       0.104194246 0.0755368 0.12314462 -0.09451957
000130 e8 5f 5e 3d 1a bd ee bc 95 6a 60 bd b7 e2 35 3e
       0.054290682 -0.029142905 -0.054789145 0.17762266
000140 21 dd 03 be 8e c5 ac 3d 83 6e 9b bd 92 37 b0 bc
       -0.12877323 0.08436118 -0.07589438 -0.021510873
000150 83 30 cf 3c d4 bf e3 3d a0 56 f5 3d dc 6f f8 3d
       0.025291687 0.11120573 0.11979413 0.121307105
000160 a1 cd 60 bd 40 de 0c 3e e0 6e ae bd a3 83 09 3e
       -0.054883603 0.13756657 -0.085172415 0.13429122
000170 0b f6 f1 3c 02 14 ad 3d 5e 12 4d 3d 19 97 c7 bc
       0.029536268 0.08451082 0.050066344 -0.024364041
000180 bb 12 2e 3e 0e f2 c2 3c 6d 09 e8 3d dc 3d 24 bd
       0.16999333 0.023797061 0.11329923 -0.040098056
000190 e2 12 73 3d c6 f6 1c 3e e7 0d 68 3d a5 99 cd 3d
       0.05934418 0.15328512 0.056653883 0.10039071
0001a0 a8 2c 2b 3d 2f a4 ba 3d 82 3c 28 bd f4 1b 1b 3e
       0.041790634 0.09113347 -0.04107333 0.15147382
0001b0 f4 20 d7 bd 3e 14 dc 3d 0f 43 48 bc b2 fb cc 3d
       -0.10504332 0.107460484 -0.012223019 0.100089446
0001c0 3e 2f da bc 68 ea fd 3c 90 df ff bc cb fb 14 3c
       -0.026633855 0.030995563 -0.031234533 0.009093235
0001d0 57 bd 8a 3d 95 9f 86 3d eb 78 da bc 34 43 4e bd
       0.06774395 0.065734066 -0.026668986 -0.05035706
0001e0 48 e1 37 3e d0 01 86 bc 01 d4 4a 3d 7d a7 ce bc
       0.17957032 -0.016358286 0.04951859 -0.025226349
0001f0 48 29 80 3d 41 49 c7 3d 9f 1b ae 3d 57 e4 29 3e
       0.06257874 0.09730769 0.08501362 0.16591011
000200 8f 48 b7 3c 9c 7f 2d bd 86 6e 0d bd ce f3 24 be
       0.022373466 -0.042358026 -0.03452923 -0.16108629
000210 f6 fe 17 be 93 77 c5 3d 2f 0a 01 3e 2b 33 26 be
       -0.14843354 0.096419476 0.12601541 -0.16230457
000220 0e ef 26 3e 41 a2 88 bd 53 35 bb bd 08 5a fa 3c
       0.1630213 -0.066715725 -0.0914103 0.030560508
000230 ff e3 92 3c 8d 8b d7 bd 1d 5b d2 3d 22 f6 32 be
       0.017930983 -0.10524664 0.10271285 -0.17476705
000240 c9 bb 9c bd b7 5a 75 bd f1 c0 96 bd f3 ac d1 bd
       -0.07653005 -0.059900966 -0.073610194 -0.102380656
000250 68 12 e2 bd 59 6d 07 3e 6a 44 89 3d 0d 8b e6 3c
       -0.11038667 0.13225307 0.06702502 0.028142476
000260 d6 6d ab 3c 69 69 78 bd b1 c8 8c 3d 80 89 40 3e
       0.020926397 -0.060647402 0.06874216 0.18802452
000270 03 9b a0 bd 57 8d 6a bd 0d a4 26 be 6b 96 e2 3d
       -0.07842066 -0.0572637 -0.16273518 0.11063846
000280 d3 fc 2d 3e 55 7a 00 be 44 32 a3 bd 1d 70 79 3d
       0.16990976 -0.12546666 -0.07968572 0.060897935
000290 8c 74 de bc f1 ef be 3d 34 bb 3a 3e 24 d4 b5 3c
       -0.027155183 0.09323109 0.18235475 0.022195883
0002a0 03 87 27 3e 40 59 07 be cb 6a 5a bd 97 09 cf 3d
       0.16360097 -0.1321764 -0.053324502 0.10109251
0002b0 f3 cd 19 bd 4b 1d b8 3d cf 90 b8 bd de dd b3 bd
       -0.037549924 0.08989962 -0.09011995 -0.08782552
0002c0 b2 d7 6d 3c e9 6c 63 bd d4 9c 04 be 94 41 b2 3d
       0.014516758 -0.055523787 -0.1295045 0.08703914
0002d0 8e c1 98 bc bc df 0a 3e 93 19 db 3c 14 15 c8 3c
       -0.018646982 0.1356191 0.026745593 0.024424113
0002e0 cb a3 1e 3e 46 a9 05 3d 7a 1f 45 3e f4 65 c4 bd
       0.1549217 0.032632135 0.19250289 -0.095897585
0002f0 6e 29 b6 3d 88 72 a5 3d 67 64 41 3d 0d 6a f8 bd
       0.08894621 0.08078486 0.04721489 -0.121296026
000300 11 c5 20 bd 14 81 d1 bc 4c f2 23 3d fc 57 b2 bc
       -0.039250437 -0.025574245 0.040025994 -0.02177047
000310 3d f1 2e 3e 5c 80 33 3b 91 e1 99 3c 0f 10 a1 3d
       0.17084213 0.002738974 0.018784316 0.07864391
000320 db 3d 43 3d f1 be 24 3e 43 77 7f 3d 9e 45 42 bd
       0.04766641 0.16088463 0.062369596 -0.047429673
000330 0c cf 1d 3d aa 39 32 3e b3 b8 80 bd 32 07 52 bd
       0.038527533 0.1740481 -0.062852286 -0.051276393
000340 08 4c de 3d ac f9 03 3e f2 f9 4f bd 27 96 4f 3d
       0.108543456 0.12888211 -0.050775476 0.050680306
000350 07 8d 25 3b f5 83 1c bc 67 9c 9f bd 74 90 f5 3d
       0.002526106 -0.009552945 -0.07793503 0.11990443
000360 38 22 81 3c e3 c8 87 bd 29 82 39 be 41 7b 62 bd
       0.015763387 -0.06630113 -0.18116058 -0.055293325
000370 3a 54 7f bc 92 1b 51 3e 6b 4e 6f bd 79 38 3f 3e
       -0.015584046 0.20420673 -0.058424395 0.18673886
000380 ba 54 c7 3d 1d 60 f7 bc 43 14 92 3d 72 c0 ca 3d
       0.09732957 -0.030197198 0.07132771 0.09899987
000390 a2 67 5f 3c b5 98 8e 3d 3b ed bb 3d 2f 58 ac 3c
       0.013635548 0.0696272 0.091761075 0.021038143
0003a0 48 22 8c 3d e1 d4 36 3e 60 69 1d 3d 7c 00 62 bc
       0.06842476 0.17854644 0.03843057 -0.013794061
0003b0 80 8f 6c bd 47 36 e0 3d 8e 1d 8e 3d 98 c9 06 bc
       -0.05775404 0.109478526 0.06939231 -0.008226775
0003c0 20 01 09 3e bf ed b0 3d 42 10 2c 3e a2 9d f4 3d
       0.13379335 0.086390965 0.16803077 0.119441286
0003d0 f8 6e be bd 33 f4 9f 3d c1 b7 f3 bc be 4e 2a bc
       -0.09298509 0.07810249 -0.029750707 -0.01039475
0003e0 a7 03 ec 3d 4b cc 03 3e 48 2b 7c 3d 02 b9 0f 3e
       0.11524134 0.128709 0.061564714 0.14035419
0003f0 b4 e7 1d bd fd 52 1a 3e 67 32 85 3d f8 c6 18 3e
       -0.038551047 0.1507072 0.06503754 0.1491965

lstm.weight_hh_l0 f4 [256, 64]
000000 7a 01 bf bc 5c bb ec 3d 1c 41 0f 3d f0 fe 98 3d
       -0.023316134 0.115591735 0.034974203 0.074705005
000010 0e 15 05 bd cf 42 d6 3d be c2 21 3c 32 d7 21 ba
       -0.032490782 0.104619615 0.00987309 -0.0006173729
000020 f7 9e a0 3d 8b d9 c1 bd a1 00 07 bd 17 c3 a1 3d
       0.0784282 -0.09465321 -0.032959584 0.078985386
000030 1c 5a 1c 3d 5f fc 90 3d df 45 9d bd 86 fb 1e bb
       0.038171872 0.07079386 -0.076793425 -0.0024258806
000040 96 d7 81 bd ca 63 f7 3d 61 d1 07 3e bc 4e 09 be
       -0.06339948 0.1207958 0.13263465 -0.13408941
000050 71 70 85 bc 59 2c ff bd db 2e 72 3d 4f a8 05 3e
       -0.016288968 -0.124596305 0.059126716 0.13052486
000060 d6 f0 e9 3d 18 58 3d 3d 74 e5 18 bd a9 9b e7 b8
       0.11422889 0.04622659 -0.0373282 -0.00011043932
000070 d2 97 e3 bc 0f d5 e9 bc a3 c7 c6 bd 8a c6 89 bd
       -0.027782355 -0.028543977 -0.097060464 -0.067273214
000080 22 27 b3 bd 11 bb 08 3d c9 a2 cf bd de 4e b3 3b
       -0.08747698 0.033381525 -0.10138471 0.005472048
000090 31 d1 cd bd 83 74 65 3b ea 14 99 bc 7d 3e 40 bd
       -0.10049666 0.0035012073 -0.01868673 -0.046934593
0000a0 e1 47 b4 bd 8c d5 99 bc 9e c5 02 bd 5f af 33 bd
       -0.08802772 -0.018778585 -0.031926744 -0.04386842
0000b0 16 e0 c1 bd 20 25 ff 3d 46 54 09 bd 10 7b 8d bd
       -0.09466569 0.12458253 -0.033527635 -0.06908238
0000c0 0c 21 91 3c 52 85 52 bc cb 8b 2f bd 47 fc 0f 3e
       0.017715953 -0.012849169 -0.042857926 0.1406108
0000d0 4d 3e 8d 3c e0 33 85 bc e1 47 6f 3d 51 fe 11 3e
       0.017241621 -0.016260087 0.05841816 0.1425717
0000e0 89 3c b3 bd 9e 12 de 3c 12 c9 e9 3d 98 96 74 bd
       -0.087517805 0.027108487 0.11415304 -0.05971393
0000f0 a4 d8 26 3e 8a 4e 4c 3d 17 8f cc bd 08 5e 23 3c
       0.1629358 0.04987959 -0.0998823 0.009971149
000100 09 18 8c 3c 6a 38 ae 3d 64 37 db bd ad 3d e3 bd
       0.017101305 0.08506854 -0.10703924 -0.11095748
000110 ec dd cd bc 54 ac 6b bd ac 7e 04 3d 8a b3 99 bd
       -0.025130235 -0.05753739 0.032347366 -0.075049475
000120 74 0c 6e 3c 13 f2 d8 bc 39 6e 48 bd 65 7c 73 bd
       0.014529336 -0.026482617 -0.04893324 -0.059444804
000130 d2 1b b7 3d 26 2f ae bc 98 ba f9 3c d2 04 ce bd
       0.08940853 -0.021262717 0.030484483 -0.10059513
000140 7a 88 d1 3c 30 11 16 bd a8 42 e3 bd ff 5f 07 be
       0.025577772 -0.036637485 -0.11096698 -0.13220213
000150 5e 79 6d bb 2d 58 81 bd d0 69 00 bc 73 27 af 3d
       -0.003623567 -0.06315646 -0.007837728 0.08552446
000160 12 c8 18 bd f9 f2 f4 ba 6c 61 03 3e 79 ab a0 bd
       -0.037300177 -0.0018688134 0.12830132 -0.07845206
000170 a6 62 42 3c 2f 53 3e 3d 2d 06 4b 3d e9 49 95 3b
       0.01186434 0.04646605 0.049566437 0.00455593
000180 54 57 c1 3c 91 75 f9 ba 37 b9 09 bd 48 18 93 3c
       0.023601212 -0.001903223 -0.0336239 0.017955914
000190 cd 95 43 bd d5 fd f9 3d dc e7 6c bc c0 0d 87 bd
       -0.047750283 0.12206618 -0.014459576 -0.065944195
0001a0 08 8a fc bc c5 85 a9 bd a9 6f f9 3d 41 c1 28 3c
       -0.030827537 -0.08277468 0.121795006 0.010299982
0001b0 b6 ed bc 3d 74 e9 bd bd 2f f9 00 3d 72 1b 35 3d
       0.09225027 -0.09273043 0.03148764 0.044215627
0001c0 89 2d c6 3d 9f 4c d4 bd d2 2d e1 3d 61 db e7 bd
       0.09676654 -0.10366177 0.10995068 -0.1132114
0001d0 4e 2a 16 bd e4 00 e6 3d 23 b7 4a 3d 7e 56 93 bd
       -0.03666144 0.112306386 0.04949106 -0.071942315
0001e0 2a 65 90 3d f0 d2 1b bc 7b da 85 3d 94 08 c1 3d
       0.070505455 -0.009510741 0.065358125 0.09425464
0001f0 26 80 0e 3d 47 29 01 3e 9a 61 b7 bd aa 83 69 3d
       0.03479018 0.12613402 -0.08954163 0.05701033
000200 81 43 c1 bd c3 41 a1 3d 63 1a 84 3c 08 2c 1b be
       -0.094367035 0.07873871 0.016125863 -0.15153515
000210 25 bb db bc 23 7b 4c 3d 23 6e fd bc 07 38 76 bd
       -0.026822636 0.04992212 -0.030936306 -0.060112026
000220 6d 46 9f 3d bc f8 d8 3d 63 36 3d bc f9 4b b3 3d
       0.077771045 0.10594317 -0.011548611 0.08754725
000230 4e 96 b5 3d 5a cd 44 3d 91 0e b8 bd e3 64 ee bc
       0.08866559 0.0480474 -0.08987153 -0.02910084
000240 f3 4f ae 3d 73 93 e6 ba 04 2e cd bd ad 92 9e bd
       0.08511343 -0.0017591551 -0.100185424 -0.0774282
000250 c6 86 ea 3d 0d 49 15 bc 82 bc 05 bd 9b ce c2 bd
       0.11451487 -0.009111655 -0.03265048 -0.09512063
000260 24 18 98 bd 0b 5b 6e 3d 89 0b 07 bd f9 bc bb bc
       -0.074264795 0.058192294 -0.032969985 -0.022917258
000270 03 8e ac 3b f0 1d 7c 3b bb ef b2 bd 03 ab af 3d
       0.0052659526 0.0038469993 -0.08737131 0.0857754
000280 ec ad 94 ba f7 49 cd 3d 61 5c 94 3d f1 73 00 3e
       -0.0011343337 0.10023873 0.072441824 0.12544228
000290 4f 76 09 bd 61 29 4e 3b 9b eb 90 bd 2e 8b 04 be
       -0.033560093 0.003145777 -0.07076188 -0.12943718
0002a0 af c1 b0 3d 2b 8e 14 bd 51 df ae 3c b1 be c6 3d
       0.08630692 -0.036268394 0.02134672 0.0970434
0002b0 00 24 ea bc 10 64 bd bd 53 e7 a5 bd 50 57 a6 bd
       -0.02858162 -0.09247601 -0.08100762 -0.08122122
0002c0 24 7f 88 3d ed 20 2b 3c 3d 54 72 3d e1 a2 c7 3d
       0.06664875 0.010444862 0.059162367 0.097478636
0002d0 a1 c2 96 bc 6a 3d 04 3d 9e de b1 bd b1 02 69 3d
       -0.018403353 0.03228513 -0.08685039 0.056887332
0002e0 ec c0 76 bd c3 25 72 3d 79 6b 55 3b 2a ba dc 3d
       -0.06024258 0.059118044 0.003256528 0.107776955
0002f0 31 5a ca bc 9b 7b ac bd 2c 18 ae 3c 23 9f 0a 3d
       -0.02470121 -0.08422013 0.02125176 0.03384317
000300 90 d7 9b bd 4a 57 e4 bd dc af 91 3d c0 66 b6 3d
       -0.07609475 -0.111494616 0.07113621 0.08906317
000310 50 ba 14 3d 4b 75 25 bd 1f 52 a3 bc 37 d5 d9 bc
       0.036310494 -0.040395062 -0.01993662 -0.026590927
000320 62 1c bf bb c6 3f b6 bd c5 a6 98 3c 1d 3a 1b be
       -0.005832241 -0.088988826 0.01863421 -0.15158887
000330 3a a4 01 be 03 a0 db bd 89 3d b6 bd 26 f3 8d bd
       -0.12660304 -0.10723879 -0.08898456 -0.069311425
000340 20 b5 f5 3d bc d6 a6 bd ae eb 49 3e 76 03 2d 3e
       0.119974375 -0.08146426 0.19718811 0.16895851
000350 58 e9 aa 3d 9d 82 0c 3e d0 7a b5 bd 36 16 4a bd
       0.08345288 0.137217 -0.08861315 -0.04933759
000360 0e b2 3d 3c 21 cb d9 3d 7e 31 a1 be b9 0a 0f 3e
       0.011578096 0.10634447 -0.31483072 0.13968934
000370 97 fa c2 3c 93 72 39 bd f1 5f dc 3d 6b 24 af bc
       0.023801131 -0.045275282 0.10760487 -0.02137967
000380 45 47 9c bd 6f d0 1d 3d 3d a5 2c be 3e 92 8e 3d
       -0.07630781 0.038528856 -0.16859908 0.06961487
000390 ae 4a d1 bc 37 cd e0 bc 49 f0 c0 3d 36 46 22 be
       -0.025548305 -0.027441604 0.09420831 -0.15847096
0003a0 4d 1b 95 3d 5e ef 73 bd 84 be d4 3d 03 f6 c9 3d
       0.07280598 -0.05955445 0.103879005 0.09861376
0003b0 04 e1 ed 3c a9 31 3e 3e 8f 6d 20 3c 74 3a 05 3d
       0.02903796 0.18573631 0.009791746 0.03252645
0003c0 8b b3 ef 3d f3 e5 8a bd 73 05 5c bc 4f 57 8d bb
       0.11704167 -0.067821406 -0.013429034 -0.0043133865
0003d0 de 61 45 3c e2 f0 26 3d 44 47 84 bd 72 7a 54 3e
       0.012047259 0.040757068 -0.06458905 0.20749834
0003e0 fc cb f2 3d b2 69 05 3e 33 16 e8 3d 25 b8 fa 3c
       0.11855313 0.13028601 0.11332359 0.030605385
0003f0 37 ab eb 3d 2c 4d 5d 3d 0a a4 9e 3d 2d 04 d8 bd
       0.11507266 0.054028675 0.07746132 -0.105476715

lstm.bias_ih_l0 f4 [256]
000000 ac aa 42 3d 88 6e 4a bd 2b f1 0c bd 6e 68 b1 3c
       0.047526047 -0.049421817 -0.034409683 0.021656241
000010 6a 51 d0 ba a2 21 98 3d 25 28 15 bd bd 06 cb 3d
       -0.0015893404 0.0742829 -0.036415238 0.099133946
000020 2e d0 93 bb 97 dc 09 3e ea 9b fb bb 15 dd ac 3d
       -0.004510901 0.13463055 -0.0076784985 0.084406056
000030 96 ee b8 3d 2c c4 1d 3c 19 bd e7 bd 3a 1b 28 3a
       0.09029882 0.009629291 -0.113153644 0.00064127485
000040 01 84 00 3e 53 7b cd bd 2b 3e ce bd b6 1b a2 bd
       0.12550355 -0.10033288 -0.10070451 -0.07915442
000050 e4 79 58 bd 16 70 c1 3b c6 8f c9 bd 56 d9 25 3d
       -0.05285062 0.0059032543 -0.09841876 0.04049047
000060 bd ac a1 3d e6 7a c8 3d fc 60 51 3d f7 1c 3b 3e
       0.07894275 0.09789066 0.051117882 0.18272768
000070 2e 4a 79 bd 4c 6e 73 bd c9 c4 4b 3d 1b 9d 13 3d
       -0.06086176 -0.05943136 0.049748216 0.0360385
000080 0e 0a 88 3c 6a d2 f1 3d de f0 27 3b a5 7f be 3d
       0.016606357 0.118077114 0.0025625746 0.0930169
000090 9a a3 9b 3b aa f0 b6 bc 2a 43 1a bc e4 fc b0 bd
       0.0047497274 -0.022331554 -0.009415427 -0.08641985
0000a0 8e f2 12 3d 0c 28 0b bc ce f2 fd bc 69 fb 55 bd
       0.03587585 -0.008493435 -0.030999567 -0.052241717
0000b0 75 3e 77 bd 65 1c 49 3d 62 21 ed bc 7f af 5c 3d
       -0.060362298 0.049099345 -0.028946582 0.053878304
0000c0 f6 af dc bd b9 50 cd 3d 20 6f 06 bc 71 51 4c 3d
       -0.107757494 0.10025162 -0.008205205 0.049882356
0000d0 a6 3d 5a bd 3d 74 b6 bd 8f ab 68 3c 77 45 4c 3b
       -0.05328145 -0.089088894 0.014201059 0.0031169334
0000e0 3f 04 ff bc a5 97 c4 3d 88 e8 06 3d a5 d9 fa 3a
       -0.031129954 0.095992364 0.032936603 0.001913835
0000f0 14 03 ae bd b2 0d 53 bd f8 9e 00 be 66 05 9a bd
       -0.08496681 -0.051526733 -0.12560642 -0.07520561
000100 23 c4 8a bc ae fe b8 3d e2 ce 4c bc 3c 7e f8 bc
       -0.016939228 0.09032951 -0.012500497 -0.03033363
000110 5e 98 0a 3e 33 0d 79 bd d4 80 b0 3d 0e 1b a7 bd
       0.13534686 -0.060803603 0.08618322 -0.08159457
000120 0e 26 01 bd de fb c5 bd 29 a7 6e 3c f0 05 74 3c
       -0.031530432 -0.096671805 0.014566221 0.014893994
000130 01 d2 70 bd 1e cd dd 3a 92 44 83 3d 84 1a d7 3d
       -0.058794025 0.0016922092 0.06409563 0.10503104
000140 b3 b2 b8 bc 3a 44 af 3d a1 ba 94 bd 75 ee 8a bb
       -0.022546148 0.08557935 -0.07262159 -0.004239852
000150 81 dc 9d 3c 8d 0b 7a 3d 28 d9 d1 3d b7 18 0b 3c
       0.019270184 0.061046172 0.102464974 0.008489779
000160 2d 3a f8 bd 99 bf 22 3d 12 9c 6d bd d0 25 14 3e
       -0.12120471 0.039733503 -0.05801017 0.1446755
000170 42 67 d7 bd 19 6a b4 bd 19 99 21 3c f4 80 c4 bd
       -0.10517742 -0.08809299 0.0098631615 -0.09594908
000180 02 6f b4 3d 30 7e db bd ec 9b fe 3d ac 9f 92 3d
       0.088102356 -0.10717428 0.124320835 0.07159361
000190 a9 14 89 bd 02 47 15 3c 20 b3 80 3d e3 83 29 3c
       -0.06693394 0.009111168 0.062841654 0.010346386
0001a0 c5 e1 d8 bd ac 07 e4 3c 75 54 6b bd a0 79 ab 3d
       -0.10589937 0.02783569 -0.05745359 0.083728075
0001b0 ec a9 33 bd c4 2c a1 3d 7f fd d4 bd ed 27 51 3c
       -0.043863222 0.078698665 -0.10399913 0.012765867
0001c0 1a 1c 58 bd db 45 0e 3c 8c 47 b1 3d b3 78 49 3b
       -0.052761175 0.008683647 0.086562246 0.0030742108
0001d0 9e 76 cd 3c 6e e5 bb 3d ed a4 b1 3d 79 a3 06 3e
       0.025080975 0.091746196 0.08674035 0.13148297
0001e0 af 9c 01 3e 05 75 2a bd c3 3d 2c 3e 74 fd da 3d
       0.12657426 -0.041615505 0.16820435 0.106928736
0001f0 5a 6e 9b bd 3f 47 b3 3c 9a fa f2 bd a6 49 22 3c
       -0.07589407 0.021884559 -0.11864205 0.0099052545
000200 a7 f6 d4 3c 07 8b e0 bd 6d f6 b4 3d b5 d8 1d bd
       0.02599652 -0.10964017 0.088360645 -0.038536746
000210 41 6f fe 3c 46 61 86 3d 5c 10 ae bc 67 4a b0 3c
       0.03105891 0.06561522 -0.021248035 0.021519853
000220 a0 71 27 bd 62 56 d1 3c 44 26 6e 3c dd 8d 3e bd
       -0.040879846 0.025553886 0.01453549 -0.04652201
000230 74 d8 e6 bd 1d b8 be bd d4 20 9a 3c 66 68 d9 bd
       -0.11271754 -0.093124606 0.018814482 -0.106156155
000240 f6 23 fc 3c 38 67 10 bc 2d 24 f2 3d c5 2f 00 3e
       0.030778866 -0.008813672 0.11823306 0.12518223
000250 71 5c c4 3d 04 7b 7b 3d c7 31 12 3c c9 81 bb bd
       0.09587944 0.061396614 0.008923001 -0.09155614
000260 d7 f4 18 3d 5c d1 f2 3d 15 63 cc 3c d4 f8 9d 3c
       0.037342872 0.118563384 0.02494959 0.01928369
000270 53 43 92 3d d7 a0 7c 3d 4c b6 98 3d 57 63 aa bd
       0.07141747 0.061676826 0.07456645 -0.08319729
000280 58 7b b5 3d d3 fb d8 bd f5 1c ce 3b 62 4c 3c 3d
       0.088614166 -0.10594907 0.006290073 0.04597128
000290 52 ed c6 bd dc c0 ec 3c ee 24 de bc 79 31 b8 bc
       -0.09713234 0.028900556 -0.027117219 -0.022484528
0002a0 e1 a3 e0 3d f0 bf a8 bd f7 37 9b 3d 38 45 55 bd
       0.109687574 -0.08239734 0.07579034 -0.052067965
0002b0 b6 b9 59 bd 4c 50 85 3d e6 cc 8e 3d 5a ab 9b bd
       -0.053155623 0.06509456 0.06972675 -0.07601042
0002c0 64 ba a8 bc 5d d2 b4 3d fe 23 00 bd af bf 95 bd
       -0.02059669 0.08829186 -0.031284325 -0.07311951
0002d0 eb 47 b7 bc 01 ca e1 3d ed e9 ae bd e8 d4 e0 3d
       -0.02237316 0.11024857 -0.085407116 0.10978109
0002e0 d1 57 c9 bd 60 41 2a bd cb 6d a9 bd ef 8d 12 bd
       -0.09831203 -0.041566253 -0.082728945 -0.03577989
0002f0 20 f4 a6 3c f3 a1 fe 3c 39 0b e1 3c 93 f2 44 bd
       0.02038008 0.031083083 0.027471172 -0.0480829
000300 66 0c 95 bd e4 39 e5 bd e0 c0 70 3d 65 67 5a 3d
       -0.072777554 -0.111926824 0.05877769 0.05332126
000310 0b ca 0a 3d 1e 58 fc bb 7f 07 98 bd 4d 1a 76 3a
       0.03388409 -0.007700934 -0.07423305 0.00093880744
000320 c7 87 2c 3e e8 c8 af bd ac 33 87 bc 22 38 62 3d
       0.1684867 -0.08583242 -0.016504131 0.055229314
000330 7e 35 ee 3d b3 2b c5 3d a6 ce 94 3d c4 d1 b3 3d
       0.116312966 0.096274756 0.072659776 0.08780244
000340 18 ae d9 bd 3a f0 dc bd ac 72 ef bd e0 82 45 bc
       -0.10628909 -0.10788007 -0.11691794 -0.012055129
000350 31 61 e9 3d 27 cc b5 3d f1 90 6b bd 43 d2 08 bd
       0.11395491 0.088768296 -0.057511274 -0.033403646
000360 b1 54 ba bc 2b 45 a4 bd 10 c8 fd 3c ae 49 26 3e
       -0.022745462 -0.08021005 0.030979186 0.16239044
000370 c3 5c 80 bd 23 0a ce 3d fa db ca 3d 6d b7 74 3c
       -0.06267693 0.10060527 0.099052384 0.01493631
000380 78 9f fa 3d 0e ad 68 bd 7b f1 83 3d 32 b0 b9 3d
       0.122374475 -0.056805663 0.06442543 0.0906681
000390 8f c7 5d 3d 5e da 62 bd db 3b 27 3d 9a fb 08 bd
       0.054145392 -0.055384032 0.040828567 -0.03344307
0003a0 bd 69 b5 3d 7c 97 5c bd a3 16 ea bd 36 a5 a3 3d
       0.088580586 -0.053855404 -0.11430099 0.07990496
0003b0 09 8c 8d 3d bf 5f b3 3c 2d 36 b8 bd 9f a1 25 3e
       0.06911475 0.021896241 -0.08994708 0.16174935
0003c0 10 51 02 bc cc f6 8b 3c 3c ad bb 3d 54 21 01 be
       -0.007953897 0.017085455 0.09163901 -0.1261037
0003d0 3a 76 a1 3c 6e b3 eb bd 4e 81 1f 3d 77 e8 ac 3c
       0.019709695 -0.11508833 0.038941674 0.021106942
0003e0 3c 49 32 bd e5 9b 06 3c 45 d2 a8 3d 94 e3 fb 3d
       -0.043526873 0.008215879 0.08243231 0.122992665
0003f0 44 2a 65 bd c2 5c 81 bc 25 c9 f5 bd e9 5a 75 3d
       -0.05594851 -0.0157913 -0.12001256 0.05990115

lstm.bias_hh_l0 f4 [256]
000000 35 20 ac bd 62 c1 7e 3c 38 82 02 3e 6b 8a 8b 3d
       -0.084045805 0.015549036 0.12744987 0.068135105
000010 f1 2a aa 3d 74 29 c1 3d b2 2a f9 3d 50 e1 34 bc
       0.08308972 0.09431735 0.121663466 -0.011040047
000020 72 8c 99 bc 6a e6 4f 3d 1f 8d 2f bd ef 52 ed bd
       -0.018743727 0.05075685 -0.042859193 -0.11588084
000030 0c 29 06 3d df 6a 8a bd 5b 14 f1 3c 4c 00 af 3d
       0.03275399 -0.06758665 0.029428652 0.085449785
000040 d7 cf 1a bd 56 75 60 3c 55 d4 c3 bc 4c dc 35 b9
       -0.037795868 0.01369985 -0.023904959 -0.00017343572
000050 bd 05 bb 3d 55 bd ba bd 1f d4 77 bd c4 2c 62 3d
       0.09131954 -0.091181435 -0.06050503 0.055218473
000060 fd 5d 82 bd c9 fa 9d 3d 6c 7b 40 3e 5d 2d 1d 3e
       -0.06365583 0.07713849 0.18797082 0.15349336
000070 10 f6 b3 bd 81 94 87 bb df 38 1e bd 5a a0 07 3e
       -0.08787167 -0.004137576 -0.038628455 0.13244763
000080 82 b8 8d bd ec 5e 09 3d 87 59 a6 3d 8c 10 9d 3d
       -0.06919958 0.03353779 0.08122545 0.07669172
000090 66 fc 1a bd a8 23 cb bd 0a bc ab 3d 38 54 ea bd
       -0.037838362 -0.0991891 0.08385475 -0.11441845
0000a0 0e 1e b3 bc 42 bd 4b 3d 94 90 1c 3d 59 dd ed 3d
       -0.021864917 0.049741037 0.038223818 0.11614484
0000b0 ca 91 bc bb b4 d5 b1 3d be 37 46 3c c2 7f 38 bd
       -0.005754684 0.08683339 0.012098251 -0.045043714
0000c0 e8 b4 bb 3c 63 cd f8 bd 83 d7 a2 3d 6f 94 ba bd
       0.022913411 -0.121485494 0.07951262 -0.09110343
0000d0 96 ac f2 3a 70 87 26 3d cd d5 30 3d 93 df 94 3d
       0.0018514569 0.040656507 0.043172646 0.07269206
0000e0 42 77 12 3e 89 a1 d6 bd 63 4d 92 3c 7b 9d 17 3e
       0.14303306 -0.10480029 0.017859166 0.14806168
0000f0 e5 9c 85 3d 0b d0 1a 3d 22 31 3d 3d 9d 4b 98 bc
       0.06524066 0.03779606 0.046189435 -0.018590743
000100 e3 44 0a bd e8 0f 7d 3d a2 48 da bd 31 59 11 3e
       -0.0337571 0.061782748 -0.10658385 0.1419418
000110 c2 9c d2 ba cb cb 1b bd a2 4a 9b 3d ca 4e b3 bd
       -0.0016068446 -0.03803615 0.075825945 -0.08755262
000120 7d 85 43 bc 0b 56 0e 3c 8d dc 9e 3d 2d b3 80 bc
       -0.011933682 0.008687506 0.077569105 -0.015710438
000130 28 1c a5 bc 61 d6 39 3c f1 29 f2 3d 4b 23 14 3d
       -0.020155028 0.011342616 0.11824406 0.03616647
000140 0b eb 4b 3d 09 8b 93 bd 76 e1 ea bd dc 4f bf 3d
       0.0497847 -0.07204253 -0.114687845 0.09341404
000150 97 1b 25 3c 3d ad c2 3c af 1c db 3c a3 d6 74 bd
       0.010077379 0.023764247 0.026747076 -0.059775006
000160 96 ad d6 bd 77 80 88 bb 43 0b bb 3d 6e 14 b6 3d
       -0.10482328 -0.004165705 0.091330074 0.088906154
000170 cb 70 11 be 59 42 73 bd d4 12 e4 3d 16 db da 3c
       -0.14203183 -0.059389446 0.11136404 0.026715796
000180 36 d1 7a 3c 88 c4 5a 3b 8b 1b 25 bd 7e 2b 0b be
       0.015308669 0.0033381302 -0.04030947 -0.1359081
000190 11 79 e6 bd f8 a1 90 bd 0d 20 bb 3d 8a 4b c3 bd
       -0.1125356 -0.07062143 0.091369726 -0.09535892
0001a0 45 54 d5 3d 9d ac 03 bd 48 62 85 3d 11 5a 5c bc
       0.10416464 -0.03214704 0.06512886 -0.013449208
0001b0 0c de 51 bd 5a ea cd 3d c9 f9 f4 bd 7e 4e 02 3e
       -0.05123715 0.10054465 -0.11961705 0.12725255
0001c0 bf 30 1a bd fd 4c 66 bc 50 5c 89 bd f8 4e ed bb
       -0.037644144 -0.014056441 -0.0670706 -0.00724208
0001d0 1c 09 ac bd fe 20 a6 bd 43 da ed 3c 67 60 22 bd
       -0.08400175 -0.081117615 0.02903474 -0.039642718
0001e0 5d 30 72 bc 8a 80 0a bd 82 dd 38 ba 90 b5 dd 3d
       -0.0147820385 -0.03381399 -0.000705205 0.10825646
0001f0 47 3c 7e bd e0 06 52 bd 5c 9e 56 bd 5b f6 ab bc
       -0.062069204 -0.051276088 -0.052397117 -0.020991495
000200 2f ed c9 3a 47 8c 9e 3d 05 9d 66 3d 2e 81 cf 3c
       0.0015405769 0.077415995 0.05630209 0.025330152
000210 bf 9a 81 bd 2b c3 d6 bd 3f d0 d2 3d b6 60 2f 3c
       -0.063283436 -0.10486444 0.10293626 0.01070421
000220 92 23 7a bb 60 fa fe bd b3 56 68 bd a2 99 79 bd
       -0.0038168174 -0.12450099 -0.056723308 -0.06093753
000230 1e 0f d5 bc 7a a9 2f bd 7f 42 22 bc 30 9a 01 bd
       -0.026008185 -0.042886235 -0.009903549 -0.031641185
000240 19 21 7c 3d 87 f0 39 bd 05 26 03 3c 22 29 e0 3c
       0.061555002 -0.0453954 0.00800467 0.027363364
000250 8e 28 a8 3d 31 a9 45 3c 94 25 a6 3d 5c fb 82 3c
       0.0821086 0.012064264 0.08112636 0.015988998
000260 c4 ba 90 3c 3e ff ab 3d 1f c9 c8 bd 6e d3 9c bd
       0.017667182 0.08398293 -0.09803986 -0.076575145
000270 ce da c2 3a c0 e2 99 bd 3d c2 e6 3c 61 c1 a9 3d
       0.0014866234 -0.07513952 0.028168792 0.08288837
000280 13 1f cb 3d 5d bb 42 bd 40 fb ca bd fa 96 91 3d
       0.09918036 -0.047541965 -0.099112034 0.071088746
000290 79 ee cf bc 9d 47 a1 3d 8f ac 6a 3d a1 40 b6 bd
       -0.025382267 0.07874987 0.05729347 -0.08899046
0002a0 75 4a 95 bd 62 79 2d bd fb f2 77 3d 95 5e fa bc
       -0.07289592 -0.042352088 0.06053446 -0.030562678
0002b0 be 1f c7 bc 81 cd 17 3d 77 2b f3 bd 24 bb b4 3d
       -0.024307128 0.03706122 -0.11873525 0.08824757
0002c0 1c 19 d8 3d 63 79 c2 3d 17 44 b9 bc de b7 c0 bd
       0.10551664 0.09495809 -0.022615476 -0.0941007
0002d0 7e 44 45 3d 09 1f de 3d c2 82 9c bd e9 c6 ba 3d
       0.048161022 0.10845763 -0.076421276 0.0911997
0002e0 66 70 01 3e 9b 48 b1 3d e0 b0 95 3d 81 9b 31 3d
       0.12640533 0.086564265 0.07309127 0.04336119
0002f0 7d 7a 38 bd 83 b1 ca bd 68 d0 27 bd 02 97 0f 3d
       -0.04503869 -0.09897139 -0.040970236 0.03505612
000300 96 3d ea bc 33 fa 38 bd bf 7a 7b bd 89 d0 cf 3d
       -0.02859382 -0.045160484 -0.061396357 0.10147197
000310 70 8b 4f 3b 7e a9 f4 bb ed a5 c5 bc 80 19 8e 3c
       0.0031668805 -0.007466494 -0.024126971 0.017346144
000320 2d 67 c2 3d a5 76 03 3e ca bb 94 bd 41 89 98 3b
       0.094923355 0.12838228 -0.072623804 0.004655034
000330 b8 94 85 3d de 8e 83 bd 24 86 8e bd 5a 00 89 3d
       0.065225065 -0.06423734 -0.06959179 0.0668952
000340 c0 4f 76 3d 76 1a 8f bd b7 28 d5 bd 80 6c 41 3d
       0.06013465 -0.06987469 -0.10408156 0.047222614
000350 21 8c a4 bd 8d 48 13 3c bb 79 a9 3d 2b dc 31 3c
       -0.0803454 0.008989465 0.08275171 0.010855715
000360 33 b0 08 be 59 40 1e bd 58 bf 20 bd f0 84 34 3e
       -0.13348465 -0.038635585 -0.03924498 0.17628837
000370 25 8a 79 bd 6d ca d5 3d 1c 89 b4 bc c1 b5 1c 3c
       -0.06092276 0.10439 -0.022038035 0.009564818
000380 5c 9d bd 3d f6 c1 19 3d 97 47 11 3d 7c a4 de 3d
       0.092585295 0.03753849 0.035468664 0.10871217
000390 b1 93 02 3d ba ab f7 3b 98 7c 36 bd 1b 99 4f bd
       0.03187913 0.007558313 -0.044552416 -0.050683122
0003a0 a8 80 b2 bd ce f3 cb 3d 2e ad 00 be 9b be 96 3d
       -0.087159455 0.099586114 -0.12566063 0.07360574
0003b0 3d b0 f8 bd 4d 96 96 bd 8d 75 57 3d 67 9f 24 bc
       -0.1214299 -0.07352886 0.05260234 -0.01004777
0003c0 ae 94 9c bd 7a 72 99 3c 1b a2 e9 3d 86 7d b6 3c
       -0.07645546 0.018731344 0.11407872 0.022276651
0003d0 86 b0 ee 3d 12 6d 00 3d 86 f3 d9 3d 58 d6 0c bc
       0.11654763 0.031354018 0.106421515 -0.008596025
0003e0 c8 14 0b 3e 9d 6d f8 bd ff ed 8f bc 83 ac b5 bd
       0.13582146 -0.12130282 -0.01756954 -0.088707946
0003f0 9f 47 8a bd bb a0 89 bd d9 9c ee bd d5 78 1a 3e
       -0.06751942 -0.0672011 -0.1165101 0.15085156

lstm.weight_ih_l1 f4 [256, 64]
000000 60 10 e2 bd 5f 59 e5 3d 72 a2 ca 3d e1 16 c8 bc
       -0.110382795 0.11198687 0.09894265 -0.024424972
000010 ad be 13 bd 6a 83 6b bd 21 8d 9b 3d d9 48 a3 bd
       -0.036070514 -0.057498373 0.075952776 -0.07972879
000020 23 45 c9 3d 4d 32 b8 3d 99 7a ec bc a0 96 d3 3d
       0.0982764 0.08993969 -0.028867053 0.10331464
000030 b8 ed 0a 3e 20 e7 a4 bd df 7d 8e 3c 9e 7d f2 3d
       0.13567245 -0.08051896 0.017394004 0.11840366
000040 99 86 64 bd 6a 71 2c 3d 5c 19 ae 3d 2b 88 2b bd
       -0.055792425 0.042100348 0.08500931 -0.041877907
000050 23 2b f5 ba 3e 27 fd 3c e7 0d 27 3d 3d 35 20 bd
       -0.0018704872 0.030902501 0.040784743 -0.039113272
000060 9a 6b af bd cc 77 6e 3d dc 82 95 bd 26 10 d4 3d
       -0.08565445 0.058219716 -0.0730035 0.103546426
000070 cf 67 a1 3c e9 61 0c be 96 21 57 3d 60 20 d5 3d
       0.01970282 -0.13709225 0.052522264 0.10406566
000080 ec de e3 bc d3 3b d5 3d 42 ad b7 3d a5 9c 01 bd
       -0.027816258 0.10411801 0.08968593 -0.03164353
000090 e0 0a 7e 3d 29 5f a5 3d 51 fd 0b 3e c0 75 d9 bd
       0.06202209 0.08074791 0.13670851 -0.10618162
0000a0 82 cf 98 3d e0 a8 51 bd bc a5 19 3c 6c 24 c0 bd
       0.07461454 -0.051186442 0.009377893 -0.09381947
0000b0 ae fd f3 3c 15 41 a9 bd e7 30 b0 3d 8b c3 b1 3c
       0.02978405 -0.082643665 0.086030774 0.021699687
0000c0 70 37 90 bd 8b c2 ab bc 0b 37 cf bd e8 6d 83 bd
       -0.07041824 -0.020966789 -0.101179205 -0.06417447
0000d0 4e a4 0e 3c eb b7 85 3d 4b 62 fb bc 86 be df bd
       0.0087061655 0.0652922 -0.030686518 -0.10925011
0000e0 14 3f 0d 3e de b5 fa bd 63 2d 0b 3e 73 c0 c2 bd
       0.13793594 -0.1224172 0.13591532 -0.09509363
0000f0 58 4a af bb 61 e0 84 bd 5d 6e f4 3c 51 82 3f 3d
       -0.0053494386 -0.064881094 0.029837782 0.04675514
000100 82 ff 2d 3d 32 fc 63 3d 22 d9 f9 3d 72 83 24 be
       0.04248 0.055660434 0.12199618 -0.16065767
000110 95 f5 5f 3d 12 5b ca bd c0 48 1e 3d f2 67 28 be
       0.054677565 -0.098806515 0.0386436 -0.16445902
000120 41 a6 6a 3b 76 e4 6a bc a3 84 86 3d e5 06 42 bb
       0.0035804661 -0.014336696 0.06568267 -0.002960616
000130 70 70 f1 bd ed 0f 01 3d a0 1c 94 3b 1b 23 34 3d
       -0.11789024 0.03150933 0.004520014 0.04397879
000140 5a d3 83 3c d2 ea 03 bd c6 93 db bd c2 d8 cf bc
       0.016091991 -0.032206364 -0.10721545 -0.025371913
000150 42 4d 6f 3d 01 10 92 bb e1 25 ae 3d 61 8b 89 3d
       0.05842329 -0.004457474 0.085033186 0.067160375
000160 3b 2b 2d 3d 60 81 25 bd 61 cb 32 bd 9e b6 52 3d
       0.042277556 -0.040406585 -0.04365099 0.05144369
000170 ff cf b8 39 74 01 8f bb c4 fd 44 bc fa aa 6c bc
       0.00035250184 -0.004364187 -0.012023393 -0.014445061
000180 63 cb b2 bd 01 f6 f7 3d 2e d6 dd bd 25 8e 0b bd
       -0.08730199 0.121074684 -0.10831867 -0.034071106
000190 dd 67 a1 bd 75 d4 32 bd 6e 8f 28 3d 62 51 53 3d
       -0.078811385 -0.043659646 0.04115241 0.051591285
0001a0 cb 47 b6 bc 20 66 7e 3d 6e ac c7 bd c6 64 96 bc
       -0.02225103 0.062109113 -0.09749685 -0.0183586
0001b0 ac d5 92 bc 69 69 94 bd 25 34 a7 3c a3 19 19 3d
       -0.017924152 -0.07246668 0.020410607 0.037377965
0001c0 e4 df d5 3d 23 f1 c2 3d f9 72 e3 bd e2 75 b7 bd
       0.104430944 0.095186494 -0.11105914 -0.08958031
0001d0 2a c6 a9 3d 2b f6 af 3d 7f 5c e2 bc 3a db f8 bd
       0.0828975 0.08591875 -0.027631996 -0.12151189
0001e0 51 4f b0 3c b5 a0 90 bd 93 e1 e4 3d 18 45 ad bd
       0.021522196 -0.070619024 0.11175837 -0.08460444
0001f0 6d 44 07 3e 3a 51 f3 3d 49 2b c2 bd f0 d0 d5 bc
       0.13209696 0.11880727 -0.09480912 -0.026100606
000200 18 a8 bd 3d f5 45 c1 3d cc b1 6e bb e0 6a b6 bd
       0.09260577 0.09437171 -0.0036421893 -0.089071035
000210 a9 68 03 be bb 9f a3 3d 03 2b c6 3c f3 27 52 3d
       -0.12832893 0.079894505 0.024190431 0.05130763
000220 04 5f 0a 3e 1c 6a cd bc 1e ea aa 3d 39 16 a1 3d
       0.13512808 -0.025075011 0.083454356 0.07865567
000230 7c eb 8a bd 02 b0 bb 3d fa 67 8b 3d 90 d6 c7 bd
       -0.06783196 0.0916443 0.06806941 -0.097577214
000240 60 3c 7e 3d 28 c1 74 3d a3 82 2a 3d f6 27 c1 3d
       0.062069297 0.05975452 0.04162849 0.0943145
000250 4b 2c b9 bd ba 53 55 bd 9e 41 15 bd 6e fd 10 3c
       -0.09041651 -0.0520818 -0.03643953 0.008849485
000260 79 3b 8d 3d 35 1e ea bd a7 65 22 bd ce cb fb 3d
       0.06896109 -0.11431543 -0.039647724 0.12294732
000270 9f 66 f0 bd fa be 91 bd 44 38 2e 3d db 08 a6 3d
       -0.117383234 -0.07116504 0.042534128 0.08107158
000280 b6 7c 92 bd ac 70 c4 bd 67 78 03 be 1c 94 ca 3d
       -0.07152693 -0.09591803 -0.12838899 0.09891531
000290 17 73 46 bd c4 57 fc 3d 36 39 eb 3d 07 b2 f0 3d
       -0.048449602 0.123214275 0.114855215 0.11752706
0002a0 91 7f 08 3e aa d9 4f bc e5 ec 7c bc 5f 31 41 3c
       0.13329913 -0.0126861725 -0.015437339 0.011791556
0002b0 fe 03 64 3d fd b7 87 3d 8d 48 91 bc a0 5b 86 bc
       0.05566787 0.0662689 -0.01773479 -0.016401112
0002c0 48 9a 11 3c 9a 95 c3 3d a6 f3 a7 3c af c1 46 3d
       0.008886881 0.095500186 0.020501923 0.048524555
0002d0 1e 0f be bb 52 a1 e5 3d ad 0a fd bd 89 2d 2d 3d
       -0.005800142 0.1121241 -0.12355552 0.042279754
0002e0 86 0e 73 3c 2e ea 12 3e 73 3f 74 3d 23 c4 92 3d
       0.014835006 0.14347145 0.059630822 0.07166316
0002f0 89 3e a4 3d d7 91 85 bd 9d 3d 92 3d 63 7b a6 3d
       0.0801974 -0.06521957 0.07140658 0.08129003
000300 c4 53 7c bc 33 96 05 bd e6 e8 3b bd d4 2e 19 be
       -0.015400831 -0.032613944 -0.045876406 -0.1495927
000310 68 7a 8a bd 4b 69 11 3e 70 bb 95 bd 2f 0c 1f be
       -0.067616284 0.14200322 -0.073111415 -0.15531991
000320 81 81 96 3d 11 64 9e bd ce 33 9a 3d 5a 61 4e bd
       0.0734892 -0.0773393 0.07529412 -0.05038581
000330 07 42 07 bd e4 37 3f bd c4 22 d5 3d e8 81 ba bd
       -0.033021953 -0.04668416 0.10407022 -0.09106809
000340 04 33 8c 3c 64 39 d0 bb 69 93 bb 3d 7f 07 1c 3c
       0.01711417 -0.0063544977 0.09158976 0.009523272
000350 36 61 ab bd a4 9f 9b 3b 45 58 da 3d f5 00 60 3d
       -0.08368151 0.0047492553 0.10661367 0.054688413
000360 39 89 ae 3d 83 bf c9 3c a9 c7 6a 3d d7 a4 1b 3e
       0.08522267 0.024627453 0.057319317 0.151996
000370 8d 89 12 3d 10 f8 36 3d bd a8 1b be 1b 77 4d 3d
       0.03577571 0.044670165 -0.15201087 0.050162416
000380 4c 4d 2f bd 59 4e c2 bd 5b 49 96 3d 52 a2 c9 bd
       -0.042798325 -0.094876 0.0733821 -0.09845413
000390 29 40 31 bd d3 89 50 3d 2a 89 2a 3c ac 84 78 bd
       -0.04327408 0.05091269 0.010408679 -0.0606734
0003a0 43 b1 a1 bc 00 1d d2 bd 3d 5d a6 3d b2 26 9b bd
       -0.019737845 -0.102594376 0.081232525 -0.0757574
0003b0 21 92 86 bc bf c9 68 bc 20 c8 24 3d 2d fa 2b be
       -0.016427102 -0.014208256 0.040229917 -0.16794653
0003c0 9b 81 ce bd 5a c3 88 bd 0d 34 90 3d d3 c0 d1 bd
       -0.10083314 -0.06677885 0.07041178 -0.102418564
0003d0 e4 de e8 bd fa 08 06 3d 4e 7f 5b bd 70 bd 4e bd
       -0.11370638 0.032723404 -0.053588204 -0.05047363
0003e0 ff ca cd 3d ef 29 e7 3d 59 ef 65 3c 60 ae b0 bd
       0.10048484 0.11287295 0.014034116 -0.086270094
0003f0 59 9a 96 bd 18 e6 82 bc ad 10 9a 3d 58 fb 0f bd
       -0.07353658 -0.015978858 0.07522712 -0.03515181

lstm.weight_hh_l1 f4 [256, 64]
000000 4f be b5 bd 6c 85 9e 3d 39 a0 0a 3d 96 4e 16 3d
       -0.08874189 0.07740292 0.033844206 0.03669604
000010 6b 6d b9 bd af 07 9f bc ce cc c4 3a 1b d6 5d 3d
       -0.09054073 -0.019412844 0.001501465 0.054159265
000020 92 6b 73 39 da c7 0e 3d c6 26 b0 bd ab 85 40 bd
       0.00023214359 0.034858562 -0.086011454 -0.047002476
000030 4b fc e8 bd 45 87 86 3d 38 36 5d bd 8d 67 5a 3d
       -0.11376246 0.06568769 -0.054006785 0.05332141
000040 06 7c 4e bd 5f 43 f2 3c ab 39 a3 3d ff 42 e2 bd
       -0.050411247 0.02957314 0.07969984 -0.11047935
000050 2e 27 c2 bd c6 43 91 bd 24 90 4b bd 34 f3 ef bb
       -0.09480129 -0.07093005 -0.04969801 -0.0073226932
000060 63 74 c6 3d fa f4 df bd 2d b5 8a 3d 88 3e 97 bd
       0.09690168 -0.109353974 0.06772838 -0.07384974
000070 38 bb 40 3d b8 b8 76 3d 8f 5d 08 3d 13 b5 7c bd
       0.047053546 0.060234755 0.03329235 -0.061696123
000080 19 15 46 bd 62 90 57 3d 78 93 70 3d ef 02 bd bd
       -0.048359964 0.05262793 0.058734387 -0.09229075
000090 e2 fe 05 3d db 70 7c 3d cc 3e d8 3d d3 51 3e 3d
       0.03271378 0.061631065 0.105588526 0.046464752
0000a0 d0 48 c5 3d 88 88 f3 3c 6c 22 02 bd 51 b8 d6 3d
       0.096330285 0.02972819 -0.03177111 0.10484374
0000b0 72 4d a9 3a 2d 80 ae bd ee fc 90 bc 9e 67 75 3d
       0.0012916757 -0.08520541 -0.017698731 0.05991327
0000c0 43 0d a8 bd 92 0f 23 3d b1 90 f3 3c ce 08 96 3d
       -0.082056545 0.03980977 0.02973208 0.07325898
0000d0 04 74 e4 3d c6 52 32 3d 70 c3 3f bd 7f 19 15 3d
       0.11154941 0.04353597 -0.046817243 0.036401268
0000e0 ad 75 44 bd 3c 02 02 3e 75 8f 4b 3d d8 f3 8c 3d
       -0.047963787 0.12696165 0.04969736 0.06882447
0000f0 0c b2 28 bd 6a 22 98 3d 93 b6 ce 3d a3 6b af bd
       -0.041185424 0.07428439 0.10093417 -0.08565452
000100 b4 cc ee 3d 25 22 f6 3d ad e0 e8 3d ab b5 7a bd
       0.11660138 0.12018231 0.113709785 -0.06120841
000110 c7 c0 a3 3d e6 78 85 3d 56 d7 75 bc 57 82 03 3e
       0.07995754 0.065172 -0.015004953 0.1284269
000120 70 8d a3 bd 5c cf 83 bc 70 aa 6c 3d fd 22 59 bd
       -0.079859614 -0.016090088 0.05777973 -0.053011883
000130 b3 c7 fc ba 88 10 64 3c e8 81 1f 3d ef d3 14 bd
       -0.0019285589 0.013919957 0.038942248 -0.036334928
000140 e0 57 e1 3d d1 a7 c0 3d cc 9a c5 3d cb d9 05 3d
       0.11003089 0.094070084 0.09648666 0.032678407
000150 78 02 cc bd d1 e7 a8 bd 6d cb aa bd 66 4b da 3d
       -0.099614084 -0.082473405 -0.08339582 0.10658912
000160 2e 96 60 3d 6d 0b a5 3d 90 56 5e 3d 3e 46 bb 3d
       0.054830723 0.0805882 0.05428177 0.09144257
000170 a5 5c ad bd 80 e1 bf 3d 8b 75 15 3e d1 ff fc bd
       -0.08464936 0.093691826 0.1459562 -0.123534806
000180 34 5d 81 bc 17 58 97 3d 0d 48 1d bd 10 98 03 3d
       -0.015791513 0.07389849 -0.03839879 0.03212744
000190 53 9d 7c bd d6 22 95 bc ea 6c de 39 06 e2 53 bd
       -0.061673474 -0.018205088 0.00042424287 -0.051729225
0001a0 63 c9 48 bd f2 8c 92 3d 56 3d a9 bd 4e 95 79 bc
       -0.049020182 0.071557894 -0.08263652 -0.015233351
0001b0 c9 b5 01 be 28 91 c1 bd 1a b7 2d 3d 13 2e a3 bc
       -0.12667002 -0.094515145 0.042410947 -0.01991943
0001c0 5d c4 0b 3e 69 cf 9f 3d 1e c9 d9 bc 45 8c cc 3d
       0.13649125 0.07803232 -0.026585158 0.09987692
0001d0 cd 9b 2a bd e1 c9 93 3d fe 1a b8 3a 8e 91 48 3d
       -0.04165249 0.0721624 0.001404613 0.048966937
0001e0 89 5a cf 3d 63 a1 c4 3c 1f 69 3a 3d a8 bc f5 bc
       0.1012469 0.024002736 0.045510408 -0.029997185
0001f0 5f 3d 2d bd 14 70 c3 3b 07 06 98 3d e9 89 0d 3c
       -0.042294856 0.0059642885 0.074230246 0.008638837
000200 f5 85 e3 3d b5 d4 c1 bc ba 2b ae 3d 22 88 da bd
       0.11109535 -0.023660997 0.08504434 -0.106704965
000210 76 bc 18 bd 8c 0e 90 bd b3 20 87 3d 18 32 b6 ba
       -0.037289105 -0.070340246 0.06598034 -0.0013900427
000220 ab f3 96 3b d2 ce 6c bc 84 03 f2 3d ec 1a 4c bd
       0.004606684 -0.014453607 0.11817077 -0.049830362
000230 0d 64 b0 bd 27 bb aa bd 52 9e bd 3c ea 28 b7 3d
       -0.08612833 -0.08336478 0.023146782 0.089433506
000240 13 42 38 3d 95 2e c3 3d 6f 07 05 3c ee d6 8f bd
       0.04498489 0.09530369 0.008119448 -0.070234165
000250 01 a1 d8 3d 38 47 7c 3d 79 47 6c bd 87 d0 c7 3c
       0.10577584 0.061591357 -0.05768535 0.024391426
000260 dd 35 a1 3c 5c 12 f1 bd ae fe e7 3d e5 8d bf 3d
       0.019679004 -0.1177108 0.11327873 0.09353236
000270 0c 19 70 bd cb f1 9a bd 26 b3 7e 3d a1 fa a1 3d
       -0.058617637 -0.075656496 0.062182568 0.07909132
000280 37 f3 e0 bc 66 8f 47 3d 14 ec 56 bc 80 53 f6 bc
       -0.027459724 0.04872074 -0.013117809 -0.030069113
000290 6b c9 5c 3c ac f9 2d bd 05 2e df 3d 24 bf 0a 3d
       0.013475756 -0.042474434 0.108974494 0.033873692
0002a0 7a 12 b4 3d 2d c9 ec bd c7 af d1 bd f8 c9 c9 3c
       0.087925866 -0.11561809 -0.10238605 0.024632439
0002b0 d7 91 c2 3d 06 dd ea bd de ba f8 3d a8 be 59 bd
       0.09500473 -0.11467938 0.12145017 -0.05316034
0002c0 ef 59 17 3d 1e b9 4d bd be 62 ab bd fa ff c8 bd
       0.036951 -0.05022537 -0.08368443 -0.09814449
0002d0 1b d1 91 3d 71 c4 82 3d 55 44 80 3d 25 e5 a7 bd
       0.07119962 0.063851245 0.06263033 -0.08198003
0002e0 ea 4d 84 bd 1d 81 ad 3c 75 3a 3d 3d df 7b bd 3d
       -0.064601734 0.02117973 0.046198327 0.09252142
0002f0 67 10 3f 3c 7f 9b 91 3d b5 af da 3d 67 29 09 3d
       0.0116616255 0.07109737 0.10678045 0.03348675
000300 43 ac 07 be d7 63 e1 bd 11 dd 3e bd 28 7c 1d bd
       -0.13249306 -0.11005371 -0.046597544 -0.038448483
000310 f5 75 5f 3d af 24 ed 3d 53 06 94 bc fc 92 e7 bc
       0.054555852 0.115792625 -0.018069422 -0.02826833
000320 64 2a f4 3c c9 27 e6 bc 8d 92 ec 3c ca eb 16 3d
       0.02980537 -0.028095143 0.028878475 0.03684596
000330 d8 f0 f1 bd 39 c8 31 3d 46 d8 98 3c 95 e6 d8 3d
       -0.118135154 0.043403838 0.018657815 0.10590855
000340 92 50 cd bd db cd 79 3d f0 b6 8c bd 64 18 6a 3d
       -0.10025133 0.060987335 -0.0687083 0.057152167
000350 c8 d6 11 bd 2c 62 63 3d 56 b5 9e bd 94 b7 50 bd
       -0.035605222 0.055513546 -0.07749431 -0.050956324
000360 af 50 d7 3d bd 48 be 3d bc 3c 0d bc 32 5e d7 bc
       0.10513436 0.092912175 -0.008620437 -0.026290033
000370 c1 40 54 bd 25 46 26 3d 61 d4 50 3d 76 8e c4 bd
       -0.051819567 0.04059424 0.05098379 -0.09597485
000380 91 44 29 bd 6d 9d 91 bd a6 76 64 3a b6 31 05 3d
       -0.041325156 -0.07110105 0.000871519 0.03251811
000390 3a 91 4c 3b 8d 23 bd bd cb a7 f7 3d 44 b4 5e 3d
       0.0031214491 -0.092352964 0.12092551 0.054371133
0003a0 6f 28 93 bd d2 0d 96 bd 59 34 1e bd d9 cf 9d bd
       -0.071854465 -0.07326855 -0.03862414 -0.077056594
0003b0 38 a9 d5 3d f2 43 61 bd c9 c0 35 3c 23 83 e5 3d
       0.104326665 -0.05499644 0.011093327 0.11206653
0003c0 cb 32 24 bd 49 ba ae 3d df 8b 95 bc 43 f3 c1 bd
       -0.040087502 0.08531625 -0.018255172 -0.094702266
0003d0 d2 ce 41 3d 7f d2 29 bc 89 3e 92 bc 84 be aa bd
       0.04731638 -0.010365128 -0.017852085 -0.08337119
0003e0 b0 ee d9 bd a3 5f 4d 3d f2 b9 13 3e d5 b3 6a 3d
       -0.10641229 0.050140034 0.14426401 0.057300407
0003f0 7d 41 5c 3c 3e e5 c1 3d 9a 90 d1 bb 3f 89 ce 3d
       0.013443348 0.094675526 -0.0063954117 0.10084771

lstm.bias_ih_l1 f4 [256]
000000 d1 0a 0f bd c5 b5 89 bd 66 4e d5 3d 03 39 63 3c
       -0.034922425 -0.06724123 0.10415344 0.013868573
000010 93 1b ed bb 51 ea f9 3c cf 39 d4 3c b3 02 01 3e
       -0.007235953 0.030507239 0.025906472 0.12598686
000020 8f 3f bb 3d fc 5d 9c bd 7c 56 a6 3d 6c ac bb bd
       0.09142982 -0.076351136 0.08121964 -0.09163746
000030 d8 17 9a bd ba 0a 95 bd ab 6e d5 3d 44 7e 64 bd
       -0.07524079 -0.072774366 0.10421499 -0.05578448
000040 b8 81 58 bc 57 fd 1f 3d ea 5c 0b 3d 73 70 92 3d
       -0.013214521 0.039059963 0.034024157 0.07150354
000050 c9 72 7e bc 00 01 0f bd 64 76 b4 bc f4 1b cb 3d
       -0.015530297 -0.034913063 -0.02202911 0.09917441
000060 9e ac 0f bd 76 f4 ef 3d 1c 91 fb bc 05 dd 8a bd
       -0.03507673 0.11716549 -0.030708842 -0.067804374
000070 b1 ec c4 bd 52 b9 df 3d 01 31 4f 3d 27 e4 d6 bd
       -0.09615458 0.10924019 0.050583843 -0.10492735
000080 2f b3 ca bc 3d 93 bf 3d 76 62 28 3d c6 25 8f 3d
       -0.024743645 0.09354255 0.041109525 0.069896266
000090 cb 88 96 bd 0c 54 a1 bd aa 14 b6 3d 16 c4 b0 bd
       -0.0735031 -0.07877359 0.0889066 -0.086311504
0000a0 9f 84 80 3d 3d 73 d1 3a 7c e6 06 3e 79 29 95 3d
       0.062752955 0.0015979778 0.1317386 0.07283301
0000b0 a4 a8 e2 3d 47 d7 52 bd a8 fb af bc fe 51 e8 3d
       0.11067322 -0.051474836 -0.021482304 0.11343764
0000c0 5c 6c a7 bd a4 6e ce 3d 30 2a b8 bb e0 3f 30 3d
       -0.08174965 0.10079697 -0.0056202635 0.043029666
0000d0 6c ba 92 3c 5b c3 1a 3e e7 eb c0 bc 6e 1b dd bd
       0.017911159 0.15113585 -0.023549987 -0.107962474
0000e0 69 b0 4b bd bb 69 fb 3d 1b c9 a6 3d d4 a5 13 be
       -0.049728785 0.12276026 0.081438266 -0.14418727
0000f0 f0 fc ca bd 49 dd a0 bb fe 77 28 3c c8 0b 9a 3d
       -0.09911525 -0.0049091917 0.010282515 0.07521778
000100 cf d5 90 3d ba b0 6d bd a9 28 c2 3d d7 d5 08 3c
       0.07072031 -0.058029868 0.094804116 0.008351765
000110 72 e2 3e 3a a4 eb 91 bd 29 ce ab bd 91 53 ab bd
       0.0007281668 -0.07125023 -0.08388931 -0.083655484
000120 a5 23 c1 bd b9 7b fa 3b e6 a0 e2 3d d6 94 b6 bd
       -0.09430627 0.0076441434 0.11065845 -0.08915107
000130 6c e8 ad 3b b9 ba 02 3d 02 3b 8a bd e9 af 7b bc
       0.005307248 0.031916354 -0.06749536 -0.0153617645
000140 e9 c9 93 bd b5 7e db bd bc d2 72 bc 0c d5 f0 bc
       -0.07216246 -0.10717527 -0.014820751 -0.029398464
000150 a0 ab ae 3b 3c 72 bc 3d 96 d4 75 3c ee 47 e0 3d
       0.005330518 0.09201476 0.015004298 0.109512195
000160 1d c6 cd bb dc 5d bf 3d 34 1c 21 bd c5 f7 a1 bd
       -0.0062797205 0.09344074 -0.039333537 -0.079085864
000170 79 32 01 bd 92 88 ac 3d 84 2c 0b be 9e b9 35 bd
       -0.031542275 0.08424486 -0.135912 -0.04436647
000180 30 36 14 bd da 7a ee bc a7 6a ed bd 49 cc c5 3c
       -0.03618449 -0.029111315 -0.11592608 0.024145262
000190 f2 5c a0 3d 4b 31 c1 bc d5 6d dd bd 3a 7f 86 3d
       0.07830228 -0.023583075 -0.108119644 0.06567235
0001a0 d9 a7 eb 3d 43 e3 05 be 7a 60 e9 bd 3c da 6f bc
       0.11506624 -0.13074975 -0.113953546 -0.0146394335
0001b0 ac dc c7 ba a6 4d 7c 3d c9 08 64 3d 65 fc 64 3d
       -0.001524826 0.06159749 0.05567244 0.055904765
0001c0 d5 6d 00 be e8 48 cb bc c7 ab 52 3d b4 b9 36 bd
       -0.12541898 -0.024815038 0.05143335 -0.044610694
0001d0 ff 2d fa 3d bf 86 3d bd 8d 2b 9a bd 25 b1 ff 3b
       0.12215804 -0.046271082 -0.07527838 0.0078030997
0001e0 c3 77 9f 3c b5 3c 01 be cd 92 e8 bd b3 1f 3e bc
       0.019466287 -0.12620814 -0.11356125 -0.011604237
0001f0 4b d1 d1 bd 70 e1 ca bd a4 18 bd bb 10 0e 40 bc
       -0.102449976 -0.0990628 -0.0057707597 -0.011722103
000200 8a 89 9b 3d ab a8 f7 bd 45 9a b4 3d c0 f3 81 bd
       0.07594593 -0.12092718 0.08818487 -0.0634532
000210 ee 0b d0 3c 24 49 97 3d 1f ba 0b 3d 0a e7 88 3d
       0.025396314 0.07386997 0.034113046 0.06684692
000220 40 4f 78 3d a6 99 df bd 2f 6e a2 3d c3 6f ca 3d
       0.060622454 -0.10917978 0.07931172 0.09884598
000230 81 c4 07 bd e8 7c 19 3d d8 59 f0 3b c0 36 0a 3c
       -0.033146385 0.037472636 0.007334929 0.008435905
000240 a3 65 a6 3c 97 4b c7 3d 17 ae 2a bd 47 77 3d 3d
       0.020312136 0.097312145 -0.04166993 0.04625633
000250 74 67 59 3d 5c 80 2f bd 5f 75 15 3d 92 77 e6 bd
       0.053077176 -0.042847022 0.036488887 -0.11253275
000260 0c 2a 82 3d a1 bd ab 3c d7 31 c3 3d 9a 7c 77 bd
       0.06355676 0.020964446 0.095309906 -0.060421564
000270 7d a2 28 bb 5e db 63 bd 97 30 42 3d f5 56 7d 3d
       -0.0025731616 -0.055629127 0.04740962 0.061850507
000280 5e bd e2 3d 4e 0b c4 3d 90 40 21 3d 0f b8 89 3d
       0.11071275 0.09572469 0.039368212 0.067245595
000290 9c 3e 05 be e8 0a cf 3d 49 8a ad bd e4 49 ae bd
       -0.13012165 0.10109502 -0.084736414 -0.08510187
0002a0 f1 4e 64 3d fe 79 86 3d 18 bd 8c bd 5e 2c 62 bd
       0.055739347 0.06566237 -0.06872004 -0.055218093
0002b0 02 48 39 3d cd ff 3c bd b9 31 30 3c b5 a0 41 bc
       0.045234688 -0.046142388 0.010754042 -0.011818101
0002c0 d3 d3 2f bb c1 53 9e 3d bb 84 27 3d 67 21 73 bc
       -0.0026829138 0.077308185 0.040898066 -0.014839507
0002d0 fb e4 a8 3d e0 ee 61 bc bb bd 2d 3d f4 97 b7 bd
       0.082467996 -0.013789862 0.04241727 -0.0896453
0002e0 92 50 b3 bd 5c 4a a1 3a 2a 71 5d bd 76 3f 54 3d
       -0.08755602 0.0012305486 -0.054063 0.051818334
0002f0 64 8e b4 3d 02 b0 9c 3c 57 cb cc bd fe 70 0f bd
       0.08816221 0.019126896 -0.099997215 -0.035019867
000300 4d fa a2 bd 66 b6 aa 3d 4d fc 72 3c db 2c c6 3d
       -0.07957897 0.08335571 0.014830661 0.09676524
000310 45 36 79 bd 6c 32 88 bd 52 01 0e 3e da 06 04 3e
       -0.06084277 -0.06650242 0.13867691 0.12893239
000320 e5 27 2f bc a2 16 b9 bd 06 09 17 bd 52 2a ba 3d
       -0.010690664 -0.0903752 -0.03687384 0.09090103
000330 c7 fa c7 bd 9d 2e b1 3d 1d 0b 90 3d fa b2 cc bd
       -0.09764629 0.08651469 0.0703337 -0.099950746
000340 57 c8 a8 bd 18 54 92 bd 05 e7 2f b9 f1 31 d2 3d
       -0.08241337 -0.07144946 -0.00016775362 0.10263432
000350 ea e3 6d 3c 0f 39 c8 3d 6e f1 6b 3d 68 e2 5b 3d
       0.014519671 0.09776508 0.057603292 0.053682715
000360 33 85 ac bd fe 76 bf 3d 06 21 ad 3d db f8 ee 3d
       -0.08423843 0.09348868 0.08453564 0.11668559
000370 f6 ad f9 bd ae 1e ea 3d 4a be d7 3d 8f fc db 3d
       -0.121913835 0.11431633 0.10534342 0.10741531
000380 ee 6d a2 3d 52 dd 2e 3b 9e 87 cc bd 63 f5 10 3b
       0.07931124 0.002668221 -0.099868044 0.0022118918
000390 e0 41 64 bd 9a 0d b8 bc 84 7f e9 bd 27 1a 6d bc
       -0.055726886 -0.022467423 -0.11401275 -0.014471567
0003a0 bd d0 2e 3d f8 4c 3a bd 94 1c 0b 3e 25 8a a8 3d
       0.042679537 -0.04548356 0.1358512 0.08229474
0003b0 72 6b 98 3d c0 38 bb 3d ec 8f 3b 3c fa 8e bb bc
       0.074423686 0.091416836 0.011447888 -0.022895325
0003c0 ad df dc bd a4 87 d3 bd 02 58 72 bd 35 2f c1 bb
       -0.1078485 -0.10328606 -0.059165962 -0.00589552
0003d0 86 ef e9 3d ea 31 5a 3d 31 5a 49 3b 70 15 1f bd
       0.114226386 0.053270258 0.0030723924 -0.038838804
0003e0 b1 f7 35 bd ef 8e 1b 3b 51 e1 c9 3d 11 82 b2 bd
       -0.04442567 0.0023736318 0.09857429 -0.087162144
0003f0 74 c2 98 bd c1 04 5d bb 30 3e 00 bb c2 9b 1f bd
       -0.07458964 -0.0033724757 -0.0019568317 -0.0389669
