backend/models/lstm_TSLA.pth (torch, 206420 bytes, 9 tensors)

lstm.weight_ih_l0 f4 [256, 1]
0	0xbd860a16	-0.065448925
1	0x3e20b284	0.15693098
2	0x3d1cd4b8	0.038288802
3	0x3c7d82cf	0.015473082
4	0x3d4650cb	0.048416894
5	0xbd4a6cbc	-0.049420103
6	0xbda297bc	-0.07939097
7	0xbd12ec41	-0.03586984
8	0x3da44dcd	0.08022652
9	0x3e177070	0.14788985
10	0xbd8f2ec7	-0.06991344
11	0x3e5e21af	0.21692537
12	0x3d383fcc	0.044982716
13	0xbdce0e1f	-0.10061287
14	0x3d0b1048	0.033951074
15	0x3e47417f	0.19458579
16	0xbd28b2ba	-0.041186072
17	0x3d835871	0.06413353
18	0xbbf55bae	-0.0074877357
19	0xbcb81ace	-0.022473719
20	0x3e3867c1	0.18008329
21	0xbd0d2bf3	-0.03446574
22	0xbd9acd5e	-0.07558702
23	0x3d8c6f10	0.06857121
24	0xbd8c2d95	-0.068446316
25	0x3e0fa435	0.14027484
26	0xbcad32ba	-0.021142352
27	0xbc72cbee	-0.014819128
28	0x3b90abe7	0.0044150236
29	0xbcd77349	-0.02630009
30	0xbd8d1a5d	-0.06889794
31	0x3da00340	0.0781312
32	0x3c896041	0.01676953
33	0xbddc613b	-0.10760733
34	0x3e24365f	0.16036366
35	0xbd4a6e5b	-0.04942165
36	0x3df65956	0.12028758
37	0x3e1b4ece	0.1516678
38	0x3cb8465e	0.022494491
39	0x3e41a8b5	0.18912013
40	0x3d4dd02d	0.05024736
41	0xbd830239	-0.06396908
42	0x3e4bc209	0.19898237
43	0xbd1da0e7	-0.038483527
44	0x3e2c4c58	0.16825998
45	0xbada5913	-0.0016658626
46	0x3d43a562	0.047765143
47	0xbe0656b4	-0.13119012
48	0x3e4327a0	0.19058084
49	0x3e161e61	0.14660026
50	0x3e173b34	0.14768678
51	0x3d04cb60	0.032420516
52	0xbde924de	-0.11383985
53	0x3da82cab	0.08211645
54	0x3d83aeb3	0.064298056
55	0xbe56319e	-0.20917365
56	0x3b8b77aa	0.0042562084
57	0x3cdef724	0.027217455
58	0x3d3b340f	0.045703944
59	0x3dbf04e6	0.09327106
60	0x3e177462	0.1479049
61	0x3d9b4b10	0.075826764
62	0xbcae6240	-0.021287084
63	0x3c886be5	0.01665301
64	0x3c8a90f3	0.01691482
65	0x3dd05660	0.10172725
66	0xbcaaa9da	-0.020832945
67	0x3d90c706	0.07069211
68	0x3d8e7eae	0.06957756
69	0xbdf8280d	-0.12117014
70	0x3d6049c1	0.054757837
71	0x3dff089c	0.12452814
72	0x3df7bf06	0.12096982
73	0x3deed995	0.11662594
74	0xbdb39e4a	-0.087704256
75	0x3dc1ceb7	0.09463256
76	0x3d338bd5	0.043834526
77	0x3da7e34a	0.08197649
78	0x3cb29508	0.02179958
79	0x3dc0dc10	0.094169736
80	0x3e2edfd1	0.17077567
81	0x3e02cbae	0.1277301
82	0xbd7e355e	-0.062062614
83	0x3dd06218	0.1017496
84	0x3d86ad67	0.065760426
85	0x3cd6db9a	0.026227761
86	0x3da462ba	0.08026643
87	0x3c0a83bf	0.008454262
88	0x3cc588d8	0.024113104
89	0x3e051ca7	0.12999211
90	0xbc3494f4	-0.011021841
91	0x3cd80ba2	0.026372734
92	0x3e1ccaba	0.15311709
93	0x3db55d14	0.08855644
94	0x3dad7213	0.084690236
95	0x3e2a9b97	0.16660915
96	0xbe16be43	-0.14721017
97	0xbc8e93b8	-0.017404422
98	0xbca61287	-0.020272506
99	0x3d43693d	0.047707785
100	0xbd1feb00	-0.039042473
101	0x3dfe370c	0.12412843
102	0xbe47c50b	-0.1950876
103	0x3d319f54	0.043364838
104	0xbba93a8e	-0.005164451
105	0x3dc403ca	0.09571035
106	0xbd6d3208	-0.05790904
107	0x3d4b6ba3	0.049663197
108	0xbb844058	-0.0040359907
109	0x3e26dd9a	0.16295472
110	0x3d159956	0.036523186
111	0x3d6a8b4c	0.05726175
112	0x3d9ebdb6	0.07751028
113	0xbb51a5c8	-0.0031989682
114	0x3d9deb50	0.07710898
115	0x3bdd8086	0.006759706
116	0xbd8b4670	-0.06800544
117	0xbb8c6294	-0.0042842124
118	0xbdd8bf5c	-0.10583374
119	0xbe71c81d	-0.23611493
120	0x3d9cb63d	0.07651947
121	0x3c86f839	0.016475784
122	0x3dc2a976	0.09504978
123	0x3e47cdd7	0.19512115
124	0x3d07c897	0.03315028
125	0xbcc531b2	-0.024071548
126	0x3e0f7003	0.14007573
127	0x3d83a7e0	0.06428504
128	0xbe39b802	-0.181366
129	0x3df2b100	0.11850166
130	0x3bd94b06	0.006631258
131	0x3ce0afdd	0.027427608
132	0x3e2a3127	0.16620313
133	0xbe03823d	-0.1284265
134	0x3b1e35e0	0.0024140999
135	0x3e3fda2d	0.18735571
136	0x3d0e0561	0.0346731
137	0xbd90e12e	-0.070741996
138	0x3d4904bc	0.04907678
139	0xbe0668b4	-0.13125879
140	0xbe08c3da	-0.13355961
141	0xbce0f866	-0.027462196
142	0x3e283c5e	0.16429278
143	0x3e34f12a	0.17670122
144	0x3e4688f3	0.1938818
145	0xbe24bdce	-0.1608803
146	0xbd97fad9	-0.07420892
147	0x3d8d00ce	0.06884919
148	0xbe3d184a	-0.18466297
149	0xbe383d39	-0.17992105
150	0xbc9b2db1	-0.018942686
151	0x3e1a3108	0.15057766
152	0xbd88342d	-0.06650577
153	0xbe0ec0e5	-0.13940771
154	0xbe42fb3d	-0.19041152
155	0xbe33ad86	-0.17546663
156	0xbdff2268	-0.12457734
157	0x3c70155f	0.014653533
158	0xbe621155	-0.22076924
159	0xbc13bc52	-0.009017067
160	0xbd8f9c4d	-0.07012234
161	0x3d6c2dc5	0.057660837
162	0x3d47bc6e	0.048763685
163	0x3e244c92	0.16044834
164	0x3e3e32fa	0.18574134
165	0xbd20e336	-0.039279185
166	0x3e36f6a3	0.17867522
167	0xbce2b8d3	-0.027676022
168	0xbd840186	-0.06445603
169	0x3dd7058c	0.10499105
170	0x3e33ad64	0.17546612
171	0x3dc412b5	0.095738806
172	0xbd73144c	-0.05934553
173	0x3e12375d	0.14278932
174	0x3d495479	0.049152825
175	0x3da6813a	0.08130117
176	0x3e45190f	0.1924784
177	0xbb85a827	-0.004078883
178	0xbdd071eb	-0.10177978
179	0xbdc63beb	-0.09679397
180	0x3d5b6851	0.05356628
181	0xbd05fed9	-0.032713745
182	0x3e14a4a0	0.14515924
183	0xbdef95c6	-0.11698489
184	0xbe2fb6d5	-0.17159589
185	0xbde9e7d5	-0.114211716
186	0x3e05bc5c	0.13060135
187	0xbe44b408	-0.19209301
188	0x3cc86b03	0.02446509
189	0x3e6dbdcc	0.23216933
190	0x3d572818	0.05252847
191	0xbccaacef	-0.024740664
192	0xbd875ca0	-0.06609464
193	0x3ca19a45	0.019726882
194	0xbaf96550	-0.0019027386
195	0x3dd5dfee	0.10443102
196	0x3d3295d8	0.043599933
197	0xbd48d670	-0.04903263
198	0xbdb357b9	-0.08756966
199	0x3db10aa3	0.08644607
200	0x3cc75a70	0.024335116
201	0xbd35a3b1	-0.04434556
202	0x3e0b63ee	0.13612339
203	0x3e54b051	0.20770384
204	0x3e0c79ac	0.13718289
205	0xbdbad053	-0.09121766
206	0xbd999b78	-0.075003564
207	0x3e4d9038	0.20074546
208	0x3dcbffcf	0.09960901
209	0x3e8de34d	0.2771248
210	0x3def44f0	0.11683071
211	0x3daf3f22	0.085569635
212	0x3e09ee4b	0.13469808
213	0xbc9a3ebd	-0.018828744
214	0x3d6d9927	0.058007386
215	0x3d944a9e	0.072407946
216	0xbcfda4fb	-0.030962458
217	0x3e32052c	0.17384785
218	0x3e0f2c1e	0.13981673
219	0x3e1ab156	0.15106711
220	0x3dc50475	0.09619991
221	0x3e196201	0.14978792
222	0x3df36048	0.118835986
223	0x3c689647	0.014195985
224	0xbd2ef842	-0.042717226
225	0x3d97c72e	0.074110374
226	0x3e4912be	0.19636056
227	0xbcb5753b	-0.022150626
228	0x3c846e21	0.016165795
229	0x3bebe767	0.007199216
230	0xbe32129b	-0.1738991
231	0x3e10b905	0.1413308
232	0x3e1b2e00	0.15154266
233	0xbd907bf1	-0.0705489
234	0x3d957eb2	0.07299556
235	0xbb9aa854	-0.0047197733
236	0x3ded4865	0.11586074
237	0x3dcfc817	0.10145586
238	0x3dbb2c8d	0.09139357
239	0x3d068701	0.032843594
240	0x3e185e34	0.14879686
241	0xbdb6881a	-0.08912678
242	0x3e2f5134	0.1712082
243	0x3c552b1f	0.013010769
244	0xbe0d9b7e	-0.13828847
245	0x3e1db1a4	0.15399796
246	0x3d8285b3	0.06373157
247	0xbb2807c8	-0.0025639404
248	0x3c0e6dde	0.008693187
249	0x3dd370c7	0.10324245
250	0x3dd915ef	0.105998866
251	0x3e3c3230	0.1837852
252	0x3d91cec9	0.07119519
253	0x3dc3da0f	0.09563076
254	0x3c9a4983	0.018833881
255	0xbd52d8e0	-0.05147636

lstm.weight_hh_l0 f4 [256, 64]
0	0xbdcf1f1d	-0.10113356
1	0x3e16efcc	0.14739913
2	0x3e54e00a	0.20788589
3	0xbde0ad63	-0.10970571
4	0x3d3dfa40	0.046381235
5	0x3e66bd67	0.22533189
6	0x3ddbe7f6	0.107376024
7	0x3ce0b92c	0.027432047
8	0x3d108636	0.035284244
9	0xbd4f91f0	-0.050676286
10	0xbda6e709	-0.08149535
11	0xbdfe6a0b	-0.1242257
12	0xbd725bb1	-0.059169475
13	0xbe5893f2	-0.21150187
14	0xbdde9775	-0.10868732
15	0x3d5fdacf	0.05465203
16	0x3e04b604	0.12960058
17	0x3d9821f3	0.0742835
18	0x3dca32dc	0.09872982
19	0x3d0f7525	0.035023827
20	0x3cdc290a	0.026875038
21	0xbd679df4	-0.05654712
22	0x3d15f8d7	0.036614265
23	0x3ddadcd9	0.106866546
24	0x3b9afee1	0.004730091
25	0xbca67bca	-0.0203227
26	0x3a9969c9	0.00117045
27	0xbe052816	-0.13003573
28	0x3d5969a8	0.053079277
29	0xbd3dd487	-0.04634526
30	0xbdcbcaeb	-0.09950813
31	0x3cfb4f3f	0.030677436
32	0x3e4961cd	0.19666214
33	0x3ca36ccc	0.01994934
34	0x3e0f0a6a	0.13968816
35	0xbcdf26af	-0.027240125
36	0xbda6343c	-0.08115432
37	0x3d5ca2e9	0.0538663
38	0xbd15c19d	-0.036561597
39	0x3c46063a	0.0120864455
40	0xbdaac7bd	-0.08338878
41	0xbd864fb4	-0.06558171
42	0x3c491fd6	0.012275657
43	0xbcb4c3c5	-0.022066006
44	0x3cb05c2a	0.021528322
45	0xbd386dfa	-0.045026757
46	0xbcd408d4	-0.025883116
47	0x3d95a38d	0.073065855
48	0x3e0adde7	0.13561212
49	0x3d59cfa7	0.05317655
50	0xbdad2778	-0.08454794
51	0x3d926dfd	0.07149885
52	0xbe418872	-0.18899706
53	0x3e031005	0.1279908
54	0xbd8deae5	-0.06929568
55	0x3cc7f373	0.024408078
56	0xbda95710	-0.08268559
57	0xbe0202ae	-0.12696335
58	0x3d4b2080	0.04959154
59	0xbe175cdc	-0.14781517
60	0xbd18e6dd	-0.037329543
61	0x3e07053e	0.13185593
62	0x3dc7a7c2	0.09748794
63	0xbd1024a4	-0.035191193
64	0x3d347a66	0.04406204
65	0x3a2c6c3b	0.0006577407
66	0x3d2f484c	0.042793557
67	0xbd8c475c	-0.06849548
68	0x3e189611	0.14900996
69	0xbdbdfa43	-0.09276249
70	0x3db56cbb	0.08858629
71	0x3ddbf530	0.10740125
72	0x3d8c72f2	0.068578616
73	0xbdacf4ef	-0.08445155
74	0xbc4b087a	-0.012392158
75	0x3d536e2c	0.05161874
76	0xbaf9ef4e	-0.0019068511
77	0xbdc568cb	-0.09639128
78	0x3d9dfcb0	0.07714212
79	0x3d99eaa9	0.07515461
80	0xbcf9dceb	-0.03050085
81	0x3d712195	0.058869917
82	0x3ddbb57e	0.10727976
83	0x3dddaa29	0.10823471
84	0xbd9a94f3	-0.07547941
85	0x3dd8aa02	0.105793014
86	0x3df4e39c	0.119574755
87	0x3e02515f	0.12726353
88	0x3d2cc752	0.042182274
89	0xbe08a8f6	-0.13345703
90	0xbcf826f8	-0.03029202
91	0xbdaa2c6a	-0.083092526
92	0x3cbb73d2	0.022882376
93	0xbd526223	-0.05136312
94	0xbb9ac855	-0.0047235885
95	0x3d98870f	0.074476354
96	0x3b8273cb	0.0039810888
97	0x3de4bf46	0.11169295
98	0xbdb15993	-0.08659663
99	0x3e06f829	0.13180603
100	0xbd55e544	-0.052220598
101	0x3dad11e7	0.0845068
102	0xbc229023	-0.00992206
103	0xbe006e16	-0.12541994
104	0x3dd202b5	0.102544226
105	0xbd87049f	-0.06592678
106	0xbd710e6f	-0.058851656
107	0x3cd52e8d	0.026023174
108	0xbdde3f96	-0.10851972
109	0x3cd7b002	0.026329044
110	0x3e027c95	0.12742837
111	0xbd2dbf82	-0.042418964
112	0xbd8551b2	-0.06509723
113	0x3df1dffd	0.118103005
114	0x3c80b5af	0.015711633
115	0x3d480f5f	0.048842784
116	0xbd2d8276	-0.042360745
117	0xbe039856	-0.1285108
118	0x3d50b395	0.050952513
119	0x3dd188c1	0.10231162
120	0xbbeb8856	-0.0071878834
121	0xbc35f037	-0.011104635
122	0x3da0796c	0.078356594
123	0xbcf8a1a5	-0.030350516
124	0xbd89c504	-0.06727031
125	0x3d4632a5	0.048388142
126	0x3ddce3c0	0.10785627
127	0x3d8f5b3b	0.06999823
128	0xbd11757a	-0.035512425
129	0x3db45982	0.08806135
130	0x3d6569a6	0.056008957
131	0x3dd81b8a	0.10552128
132	0x3e079920	0.13242006
133	0x3d59102d	0.052993942
134	0x3da792c2	0.08182289
135	0x3db4e9ec	0.088336796
136	0x3cc53e9c	0.024077706
137	0x3c0e6e6e	0.008693321
138	0xbdbd2d53	-0.092371605
139	0xbd788664	-0.06067504
140	0x3dd7e339	0.10541386
141	0xbd6e46e7	-0.058173086
142	0xbc548ad1	-0.01297255
143	0xbd659112	-0.056046553
144	0x3c670931	0.0141013125
145	0xbd7fb737	-0.062430587
146	0xbc832504	-0.016008861
147	0x3c918b6a	0.017766673
148	0x3d3c2fa7	0.045943882
149	0x3dcea068	0.10089189
150	0x3d8d25bb	0.06891962
151	0xbc2f8504	-0.010712866
152	0x3cd35097	0.025795264
153	0xbd98eb0c	-0.07466707
154	0x3e035d57	0.12828575
155	0xbdeacd15	-0.114648975
156	0x3da1d73b	0.0790238
157	0xbd873131	-0.066011794
158	0xbb92ff11	-0.0044859727
159	0x3d2f1d2c	0.04275243
160	0x3af33f34	0.0018558265
161	0x3c513de6	0.012771105
162	0x3dbd507e	0.09243868
163	0x3d4b455b	0.04962669
164	0x3ade8b11	0.0016978701
165	0xbd631828	-0.05544296
166	0x3e1d3350	0.15351605
167	0x3dbacd8a	0.09121235
168	0xbcb338d2	-0.02187768
169	0xbdb6c433	-0.08924141
170	0x3d245e61	0.04012907
171	0x3da8b1ac	0.08237013
172	0x3d3bd9a2	0.045861848
173	0xbdb4d0df	-0.088289015
174	0xbe09d986	-0.13461885
175	0xbd4f6840	-0.05063653
176	0x3cecd028	0.02890785
177	0xbbb79167	-0.00560205
178	0x3e07acc1	0.13249494
179	0xbe0e047b	-0.13868897
180	0xbdace9bf	-0.08443021
181	0x3d2d91ce	0.04237538
182	0xbdd02179	-0.101626344
183	0xbe07148a	-0.13191429
184	0x3da4a90a	0.08040054
185	0xbd316d06	-0.043316863
186	0x3daaaff0	0.08334339
187	0xb9a054c0	-0.00030580722
188	0x3dc967a3	0.0983422
189	0x3dee09e0	0.11622977
190	0x3c7f3a2c	0.015577834
191	0x3db2d3ea	0.08731826
192	0xbe180aa8	-0.14847815
193	0x3d86f54f	0.06589758
194	0x3de70a23	0.1128123
195	0xbda394cc	-0.07987365
196	0x3d60bab9	0.054865573
197	0xbe23fd6c	-0.16014642
198	0x3dcf865b	0.10133048
199	0xbc102ac9	-0.008799263
200	0x3c31c2cd	0.010849667
201	0xbd146c73	-0.036236238
202	0x3dd279aa	0.10277112
203	0x3daa5fe8	0.08319074
204	0xbcd469d2	-0.025929365
205	0xbdb84778	-0.089980066
206	0x3d93eb43	0.07222607
207	0xbc8f84fd	-0.017519468
208	0xbb30709e	-0.0026922594
209	0xbdf35d57	-0.118830375
210	0x3dc5cd76	0.09658329
211	0x3da72170	0.081606746
212	0xbdda93b6	-0.10672705
213	0x3d5b68a1	0.05356658
214	0x3cf48e59	0.029853033
215	0xbd88a468	-0.06671983
216	0xbdeaed36	-0.11471026
217	0xbce26f7a	-0.027641047
218	0xbd67ffc4	-0.0566404
219	0xbde7e5e9	-0.11323149
220	0x3d72ecc9	0.059307847
221	0xbda4df7f	-0.08050441
222	0xbe132ae0	-0.14371824
223	0x3d2ea75f	0.042640086
224	0xbddb0dd4	-0.10695997
225	0x3b749f85	0.0037326526
226	0x3d0121ab	0.03152625
227	0x3ca6648d	0.020311618
228	0xbd99bbcd	-0.07506523
229	0xbdff14b3	-0.1245512
230	0x3c923d9b	0.017851641
231	0x3b014503	0.0019724972
232	0x3ce0ed12	0.027456794
233	0x3dabfef7	0.0839824
234	0xbdbb0ed9	-0.09133691
235	0xbdedbb89	-0.11608035
236	0xbdc2618d	-0.094912626
237	0xbcbc4ed6	-0.02298681
238	0x3d8ca317	0.068670444
239	0xbd852c2c	-0.06502566
240	0xbd94e9e9	-0.07271177
241	0x3d896bb1	0.06709994
242	0xbc76ecd3	-0.015071112
243	0xbdf1a6e3	-0.11799409
244	0x3e1f4f4a	0.1555759
245	0x3d30360e	0.0430203
246	0x3df4435b	0.119269095
247	0x3d923adc	0.07140133
248	0x3c8d424c	0.017243527
249	0x3dabbd5e	0.08385728
250	0xbb891b0b	-0.004184132
251	0xbd6dd74b	-0.058066647
252	0x3dcb6780	0.099318504
253	0xbd435741	-0.047690634
254	0x3d95c645	0.073132075
255	0x3db210c8	0.08694607

lstm.bias_ih_l0 f4 [256]
0	0x3e38ad94	0.18034965
1	0xbd91a98a	-0.07112415
2	0x3d885344	0.06656507
3	0xbd8165c2	-0.06318237
4	0x3bfd4a5e	0.0077298125
5	0x3e1ec021	0.15502979
6	0x3bc17e4d	0.005904949
7	0x3d29ae90	0.04142624
8	0xbd6b4c08	-0.057445556
9	0xbdf7225b	-0.120671
10	0x3dfca253	0.123356484
11	0x3c8d9a7f	0.017285584
12	0xbd944d85	-0.07241348
13	0xbde80d1f	-0.11330628
14	0x3e3e53d3	0.18586664
15	0x3dc972ff	0.09836387
16	0xbdd3d042	-0.103424564
17	0x3e28ed27	0.16496716
18	0xbdbc4136	-0.091921255
19	0x3d9f09fd	0.07765577
20	0x3c8239e1	0.01589674
21	0xbd8ed7df	-0.06974768
22	0x3d938e90	0.07204926
23	0x3e1f8e7e	0.155817
24	0x3c90051a	0.017580558
25	0x3c4ffac2	0.012694063
26	0x3d4434a8	0.04790178
27	0x3d978958	0.07399243
28	0x3c87a237	0.016556842
29	0xbd82eb57	-0.06392544
30	0x3cb1e76d	0.021716798
31	0xbd83a938	-0.0642876
32	0xbc9a0c97	-0.018804831
33	0xbacc841d	-0.0015603338
34	0x3c89da45	0.016827712
35	0x3d5cf0dd	0.053940643
36	0x3e031b13	0.12803297
37	0xbcbc4d36	-0.022986036
38	0x3e25e0c5	0.16199024
39	0xbb96bd28	-0.004600186
40	0x3dc7a172	0.0974759
41	0x3e072902	0.13199237
42	0xbc95482c	-0.01822289
43	0x3d502706	0.050818466
44	0xbccf024b	-0.025269648
45	0x3ddd3b82	0.10802366
46	0x3cb5f5c2	0.022211913
47	0xbdc401ec	-0.09570679
48	0xbbec53b7	-0.007212128
49	0xbc2c504e	-0.010517193
50	0xbdb8e969	-0.090288945
51	0xbced8ca5	-0.028997729
52	0x3ddca85d	0.107743
53	0x3db19061	0.08670116
54	0xbd54ebdd	-0.05198275
55	0x3d25a77d	0.040442932
56	0xb9dd9049	-0.00042259906
57	0xbcd07e2b	-0.025450787
58	0xbd6b7f6b	-0.057494562
59	0xbc00db19	-0.007864737
60	0x3d55ba90	0.052179873
61	0x3c60d684	0.0137230195
62	0x3d40a538	0.047032565
63	0xbdc18772	-0.09449662
64	0x3dfe752b	0.12424692
65	0x3b0f897d	0.0021902018
66	0x3db1df60	0.086851835
67	0x3c005c6b	0.007834534
68	0xbd8aab8f	-0.067710035
69	0x3c3db5f4	0.011579026
70	0x3d9001ea	0.07031615
71	0xbd38b3b4	-0.045093253
72	0xbd9660fb	-0.07342716
73	0x3de14bd6	0.11000793
74	0x3dd3334b	0.10312518
75	0xbd9fe239	-0.078068204
76	0x3ca6d475	0.02036498
77	0xbced6784	-0.028980024
78	0xbd033568	-0.032033354
79	0x3d827929	0.06370766
80	0xbc298aef	-0.010348066
81	0x3de1931f	0.11014389
82	0xbc961bb6	-0.01832376
83	0xbd9dacfa	-0.07699008
84	0x3d8b3df8	0.06798929
85	0x3deedd58	0.11663312
86	0x3d83ebfb	0.06441494
87	0x3e005777	0.12533365
88	0xbcf81f1a	-0.030288268
89	0x3da8d6dc	0.08244106
90	0x3d5c9ea7	0.05386224
91	0x3de8bb26	0.11363821
92	0xbd69d649	-0.057089124
93	0x3d4fd29a	0.050737955
94	0x3ce3a0a8	0.027786568
95	0x3d8bcdaa	0.06826337
96	0xbd0477e2	-0.03234089
97	0xbb8c7f33	-0.0042876243
98	0xbd1944ba	-0.03741906
99	0x3d9f896a	0.077898815
100	0xbd752d0c	-0.059857413
101	0xbd1b6bbc	-0.03794454
102	0x3d019d1d	0.031643976
103	0x3d75cb8a	0.060008563
104	0x3dd81e3c	0.10552642
105	0x3cf73a24	0.03017909
106	0x3de1f82c	0.11033663
107	0x3bc03437	0.0058655995
108	0x3e113a03	0.14182286
109	0x3dbc42ca	0.091924265
110	0xbd6cbe8a	-0.0577989
111	0xbd72d912	-0.059289046
112	0x3d70dfa1	0.05880702
113	0xbd5439a3	-0.05181278
114	0x3db0f9b5	0.08641378
115	0x3d7562e0	0.059908748
116	0xbd800361	-0.062506445
117	0x3cea7dbf	0.028624414
118	0xbd1d89cb	-0.038461488
119	0x3db0ce3f	0.08633088
120	0x3df3a8e4	0.11897448
121	0x3dec8ee4	0.11550692
122	0x3c42b0c9	0.011882969
123	0xbd94b817	-0.07261675
124	0xbdc5943d	-0.09647415
125	0x3dbcbbcc	0.09215507
126	0xbcef2676	-0.029193144
127	0xbdca5c27	-0.09880858
128	0x3d007f69	0.031371508
129	0xbc4cdd43	-0.012503925
130	0xbd0a154b	-0.033711713
131	0xbd9efb61	-0.077627905
132	0xbd75e131	-0.060029212
133	0x3dfa549c	0.12223169
134	0x3d79dfb8	0.06100437
135	0x3ddd905e	0.108185515
136	0x3d937881	0.07200719
137	0xbdb2cad4	-0.08730093
138	0x3d853538	0.06504291
139	0x3d361fb1	0.044463817
140	0x3da23ed9	0.079221435
141	0xbd85addd	-0.065273024
142	0xbc7575ef	-0.014981731
143	0x3cd45d18	0.025923297
144	0x3d14a46d	0.03628962
145	0xbde086ed	-0.10963235
146	0xbd4cda2d	-0.050012756
147	0xbd1b832f	-0.037966903
148	0x3d2efb2d	0.04272001
149	0xbd99da37	-0.07512324
150	0x3dc89557	0.09794109
151	0xbda3e521	-0.08002687
152	0x3c9a026e	0.018799987
153	0xbd089613	-0.033346247
154	0xbdf266ba	-0.11836
155	0x3cd24a85	0.0256703
156	0xba68d05b	-0.0008881145
157	0x3e010a84	0.12601668
158	0x3db4bdaa	0.08825238
159	0xbd59af4f	-0.053145703
160	0x3dd4c6f3	0.10389509
161	0x3d9d85e9	0.07691557
162	0x3dd31f89	0.10308749
163	0x3da585c1	0.08082152
164	0xbba96c27	-0.0051703635
165	0xbc5e4e96	-0.013568541
166	0x3d167c9d	0.036739934
167	0xbc1d15b4	-0.009587694
168	0xbd6c4a66	-0.05768814
169	0x3d4f5da9	0.05062643
170	0xbb1e17db	-0.0024123106
171	0x3d99d08e	0.07510482
172	0xbdafd007	-0.085846
173	0x3ddde591	0.10834802
174	0xb92be199	-0.00016391872
175	0x3c538e01	0.012912274
176	0x3d49cfdf	0.049270507
177	0xbd1c3d79	-0.038144562
178	0xbdf56ef5	-0.11984054
179	0x3ce6d64e	0.02817836
180	0x3da602d0	0.08106005
181	0xbc313f80	-0.010818362
182	0x3c482a67	0.012217141
183	0x3ce13318	0.027490184
184	0xbd257a60	-0.04039991
185	0xbd4d1240	-0.050066233
186	0x3d8bce98	0.06826514
187	0x3d6e2b91	0.058147017
188	0x3dc79169	0.09744532
189	0x3b8a8764	0.0042275656
190	0x3d9a0ce3	0.07521989
191	0xbd659fa3	-0.056060445
192	0xbd171c1d	-0.036892045
193	0xbd8e0869	-0.06935198
194	0xbd81d080	-0.06338596
195	0xbdb40b3f	-0.087912075
196	0x3dd85da5	0.10564736
197	0xbc83f94d	-0.016110087
198	0x3d2c4798	0.042060465
199	0x3c773166	0.015087461
200	0xbca6359e	-0.020289239
201	0xbdcac7f7	-0.099014215
202	0x3d58bc4e	0.052913956
203	0xbcac2753	-0.021014845
204	0x3e0d9bc5	0.13828953
205	0x3d9c53ce	0.07633172
206	0xbd5cda6f	-0.053919252
207	0x3dffae4c	0.12484416
208	0x3e1096d4	0.14120036
209	0x3c5b78f6	0.013395539
210	0x3ccd895f	0.025089918
211	0xbd08da86	-0.033411525
212	0x3db30251	0.08740676
213	0x3bb0d737	0.0053967494
214	0x3dd7b74a	0.105330065
215	0xbc822d61	-0.015890779
216	0xbdcce9ff	-0.10005569
217	0x3df47f12	0.11938299
218	0x3e17221c	0.14759105
219	0x3d27ae6a	0.04093782
220	0x3db36a55	0.087605156
221	0x3e0738d2	0.13205269
222	0x3cd8d3fb	0.026468268
223	0x3c1ea37b	0.0096825315
224	0x3cc8ddc3	0.024519807
225	0x3d73bb8c	0.05950503
226	0x3dcf5113	0.101228856
227	0xbd8eccad	-0.069726326
228	0x3e1079e9	0.14109005
229	0x3dbbc556	0.09168498
230	0x3e42808f	0.18994354
231	0x3aaf6ea1	0.001338441
232	0x3dd33a02	0.103137985
233	0x3cb3096d	0.02185508
234	0x3d7d7913	0.061883043
235	0xbd3f5ffc	-0.046722397
236	0x3dcd4b45	0.10024122
237	0xbdacc2e6	-0.084356114
238	0x3d03d9b9	0.03219006
239	0x3ce63cd0	0.02810517
240	0x3e148e67	0.14507447
241	0x3d165689	0.03670362
242	0x3e12b5ba	0.14327136
243	0xbc310304	-0.010803942
244	0xbde3fa65	-0.11131743
245	0xbc4b95e0	-0.01242587
246	0xbb82058d	-0.003967947
247	0xbd7ab4d5	-0.06120761
248	0x3d380fa7	0.044936802
249	0x3dfcb0d6	0.12338416
250	0xbdd19264	-0.10233
251	0xbd57bb37	-0.052668776
252	0xbcb1fc62	-0.02172679
253	0x3e57662f	0.21035074
254	0x3ab2c03c	0.0013637613
255	0xbdc3d198	-0.09561461

lstm.bias_hh_l0 f4 [256]
0	0x3d75da22	0.06002248
1	0x3dff0ce6	0.12453632
2	0x3c07debe	0.008292852
3	0x3dfe330f	0.124120824
4	0x3e1545fb	0.14577477
5	0x3e08daf3	0.13364772
6	0x3d6efb31	0.058345024
7	0xbda17a38	-0.078846395
8	0x3dab1bac	0.08354887
9	0xbdc5b5c1	-0.096538074
10	0xbdb61019	-0.08889789
11	0x3d5c9615	0.053854067
12	0x3e11c2a8	0.14234412
13	0xbc4da05e	-0.012550442
14	0x3e1cd4bb	0.15315525
15	0x3e5d6f47	0.2162448
16	0x3e0f71fe	0.14008328
17	0x3e0e002f	0.13867258
18	0x3dc29a6a	0.095021084
19	0x3dca2f50	0.098723054
20	0xbd367fe6	-0.044555567
21	0x3d92da63	0.0717056
22	0x3d21652c	0.039403126
23	0x3e133456	0.14375433
24	0x3a8ac14f	0.0010586175
25	0x3dcf934f	0.10135519
26	0xbd5e81aa	-0.054322876
27	0x3d0aa7de	0.033851497
28	0x3ca7881f	0.02045065
29	0x3c45c179	0.012070053
30	0x3e2a53f9	0.16633596
31	0xbdcbb1c2	-0.09946014
32	0x3bf2b908	0.0074073114
33	0x3d8b4cda	0.06801768
34	0x3ca65c5d	0.020307714
35	0x3dfe545e	0.124184355
36	0x3d245353	0.040118527
37	0x3debd427	0.11515074
38	0x3e259c47	0.16172896
39	0x3d17042f	0.036869224
40	0x3df3fce2	0.11913468
41	0xbc1ba174	-0.009498943
42	0xbb9716d3	-0.004610875
43	0x3df48456	0.119393036
44	0xbda59d00	-0.08086586
45	0x3d09ae1c	0.03361331
46	0xbd81eacb	-0.06343611
47	0xbdaec735	-0.085340895
48	0x3d72e72b	0.05930249
49	0x3d6f1c94	0.058376864
50	0xbbbdb804	-0.0057897586
51	0xbdaff0b8	-0.08590835
52	0xbdee2878	-0.116288126
53	0x3b6f8ef1	0.0036553706
54	0xbd701487	-0.058613326
55	0xbca82205	-0.020524034
56	0xbd5bfcfb	-0.053708058
57	0x3e07d32c	0.1326415
58	0x3c712cc4	0.014720146
59	0x3cd08d35	0.025457958
60	0x3cbf52d8	0.023354933
61	0x3e2494a4	0.16072327
62	0xbd2664ee	-0.040623598
63	0xbdfaa60e	-0.12238704
64	0x3d396e84	0.04527141
65	0x3d184e15	0.03718384
66	0x3d401d8c	0.046903178
67	0xbcc44873	-0.023960328
68	0x3d57d60b	0.05269436
69	0xbc2e38c5	-0.010633652
70	0xbd9dfffe	-0.07714842
71	0x3bbf4a8c	0.005837744
72	0xbdef1622	-0.116741434
73	0xbe09f68a	-0.13472953
74	0xbdd07517	-0.10178583
75	0xbd116ca3	-0.035503995
76	0x3dc2fe35	0.095211424
77	0xbd6d2150	-0.057893097
78	0x3d0de83e	0.03464531
79	0xbd76d87b	-0.060265046
80	0x3d9def47	0.07711654
81	0xbc047943	-0.008085552
82	0x3dd7ab02	0.10530664
83	0xbcafb6b8	-0.021449432
84	0xbdaf549f	-0.08561062
85	0xbcd4dbd6	-0.025983732
86	0xbd70e007	-0.0588074
87	0x3de68b0f	0.11256992
88	0x3c8b377e	0.016994234
89	0x3d8a7c52	0.067619935
90	0xbc2b54a5	-0.010457193
91	0x3dd1fa26	0.1025279
92	0x3c5346aa	0.012895266
93	0x3db82e78	0.08993238
94	0xbd3f11ec	-0.04664795
95	0x3d4f0cac	0.050549194
96	0xbd5b75ab	-0.053579014
97	0xbdd0993b	-0.101854764
98	0x3db3e5ea	0.08784087
99	0x3aae94f8	0.0013319543
100	0xbdbb32f0	-0.09140575
101	0xbd9a9f42	-0.07549907
102	0x3e18c707	0.14919673
103	0x3dd41cd6	0.103570625
104	0x3cabece3	0.02098698
105	0xbddb641f	-0.10712456
106	0x3cef0b7d	0.029180283
107	0xbc853ef1	-0.016265364
108	0xbcdbe559	-0.02684276
109	0xbdc848dd	-0.097795226
110	0xbdbfb139	-0.093599744
111	0xbe0ed30f	-0.139477
112	0x3cefedcb	0.029288193
113	0xb7974218	-1.803138e-05
114	0xbd86f57c	-0.06589791
115	0x3b4cc045	0.0031242531
116	0xbe070428	-0.13185179
117	0x3b0d6ffa	0.0021581636
118	0x3ca6a73c	0.020343415
119	0xbd146f56	-0.03623899
120	0x3dece93a	0.11567922
121	0xbdbf91d6	-0.09353988
122	0xbc46a440	-0.012124121
123	0x3d5d0a26	0.053964756
124	0xbd987e6d	-0.07445989
125	0xbad8749e	-0.0016514247
126	0xbdc2e10e	-0.09515582
127	0x3d1fb1dd	0.038987983
128	0x3cf84232	0.030305002
129	0x3de4cccb	0.11171874
130	0x3d94de5c	0.07268974
131	0x3b44cf25	0.0030030694
132	0xbc12b91a	-0.008955264
133	0xbdc6a566	-0.09699516
134	0x3dbd7043	0.09249928
135	0x3dd36de1	0.10323692
136	0x3dc46ec7	0.095914416
137	0xbdbc4d38	-0.09194416
138	0xbdae3bcf	-0.08507501
139	0xbd8e88c6	-0.06959681
140	0xbe029ceb	-0.12755172
141	0xbd3de1b2	-0.046357818
142	0xbd4593d7	-0.048236694
143	0x3c782422	0.0151453335
144	0x3dc2f108	0.09518629
145	0x3dfba3c4	0.12287095
146	0x3daf64c6	0.08564143
147	0x3dd2c270	0.10290992
148	0xbdf16108	-0.11786085
149	0x3dd37ed0	0.10326922
150	0x3dcdb549	0.10044343
151	0x3dc7159a	0.09720917
152	0x3b3c24c1	0.002870843
153	0x3c0512fb	0.008122201
154	0x3dd20fb1	0.10256899
155	0xbd30af21	-0.043135766
156	0xbc03870e	-0.008027805
157	0xbcc63c76	-0.024198752
158	0x3d885ee9	0.06658728
159	0xbda55255	-0.08072344
160	0x3c0a5a7d	0.008444426
161	0x3d40e538	0.0470936
162	0x3c80c263	0.01571769
163	0x3de4faa0	0.111806154
164	0x3d0ffe5c	0.035154685
165	0x3dd2ebbd	0.1029887
166	0xbdf9b803	-0.121933006
167	0xbd9a40fd	-0.07531927
168	0x3c8887ee	0.016666379
169	0xbdedf51c	-0.116190165
170	0x3dbced7b	0.09224983
171	0xbc205ba4	-0.009787474
172	0x3cda4588	0.026644483
173	0x3d9ac9f7	0.07558053
174	0x3dc36cdc	0.09542248
175	0xbbec2f1a	-0.0072077634
176	0xbc522c65	-0.012827967
177	0xbce7a03a	-0.028274644
178	0x3dbe2772	0.09284867
179	0xbd39d2ed	-0.04536717
180	0xbd352e52	-0.044233628
181	0x3d4286c1	0.047491793
182	0xbd503524	-0.05083193
183	0xbce36a86	-0.027760755
184	0xbd9700a9	-0.07373173
185	0xbd48d004	-0.049026504
186	0x3d17e85f	0.03708684
187	0xbd009f7f	-0.031402107
188	0x3cac3fa3	0.021026438
189	0xbd79db85	-0.061000366
190	0x3d9f8fca	0.077910975
191	0xbdb3dcb5	-0.08782331
192	0x3c3c6865	0.011499499
193	0xbc87c144	-0.016571648
194	0x3cb2954a	0.021799702
195	0x3d3bbe86	0.045835994
196	0x3d61a67a	0.055090405
197	0x3e39073c	0.18069166
198	0x3dc0e1f4	0.09418097
199	0x3dfc7cd5	0.12328497
200	0x3dcf5b6f	0.101248614
201	0x3dc0112f	0.093782775
202	0xbd252d43	-0.040326368
203	0x3d3ded62	0.046368964
204	0xbdad6ac5	-0.0846763
205	0x3da59ce9	0.08086569
206	0x3e017396	0.12641749
207	0x3df38fdc	0.118926734
208	0x3dc4a899	0.0960247
209	0x3d12c06e	0.035828047
210	0x3d6e119a	0.058122255
211	0xbda03081	-0.078217514
212	0xbd3e157b	-0.046407204
213	0x3de60898	0.11232108
214	0x3defcbbc	0.11708781
215	0x3c686852	0.014185028
216	0xbd02d8c9	-0.031945024
217	0xbd52e837	-0.05149099
218	0xbd6fc1fb	-0.058534604
219	0x3de8c0ab	0.113648735
220	0xbd4db937	-0.050225463
221	0xbdc42721	-0.09577776
222	0x3cd60e8d	0.026129985
223	0x3dc74d31	0.0973152
224	0x3daec109	0.08532912
225	0xbd5f3fc8	-0.054504186
226	0xbc643c3e	-0.0139303785
227	0x3da13545	0.078714885
228	0xbd99159a	-0.07474823
229	0xbda3e001	-0.0800171
230	0x3dd4eab4	0.103963286
231	0x3ce9e395	0.028550902
232	0xbd37e81f	-0.044899102
233	0x3c2f1645	0.010686462
234	0x3c364326	0.011124408
235	0x3d915310	0.07095921
236	0x3dbb096f	0.09132659
237	0x3e0fdd27	0.14049207
238	0x3d206f71	0.03916878
239	0xbcef5324	-0.02921445
240	0x3e0c5486	0.13704118
241	0xbd8b82a0	-0.06812024
242	0x3e008a12	0.1255267
243	0x3db8891b	0.09010526
244	0xbd0257d2	-0.031822033
245	0xbde5bec5	-0.11218027
246	0x3e1acecd	0.1511795
247	0x3e24dd8e	0.16100141
248	0x3dcfdc0f	0.10149395
249	0x3de0a605	0.10969166
250	0xbe055bfb	-0.13023369
251	0x3e0e7b21	0.13914157
252	0x3db4f412	0.08835615
253	0x3dd56fce	0.10421716
254	0x3d8f60e7	0.070009045
255	0xbdd76a21	-0.10518289

lstm.weight_ih_l1 f4 [256, 64]
0	0xbe1383db	-0.14405768
1	0x3c8b79d3	0.017025864
2	0xbd8df3f2	-0.069312945
3	0xbc1d1ba1	-0.009589107
4	0xba81d122	-0.0009904245
5	0xbc1dac52	-0.009623604
6	0xbd1672ed	-0.036730696
7	0xbb61b84f	-0.0034442132
8	0x3ca913eb	0.02063938
9	0x3d33c26c	0.043886587
10	0xbdc0eca9	-0.09420139
11	0x3d6b044f	0.057377156
12	0x3d8df542	0.06931545
13	0xbdb6ee1d	-0.08932135
14	0xbcf49c58	-0.029859707
15	0x3e36d827	0.17855893
16	0x3e088175	0.13330634
17	0x3d1d45df	0.038396712
18	0x3d1d86f1	0.03845877
19	0xbd3502e9	-0.04419223
20	0xbdbbf1b8	-0.091769636
21	0x3d5495bb	0.051900607
22	0x3d8bfb62	0.06835057
23	0x3d27c837	0.040962424
24	0x3dbc1d3b	0.09185263
25	0xbbcae886	-0.0061922697
26	0xbcad3976	-0.021145564
27	0xbd097a8e	-0.033564143
28	0xbda9d451	-0.08292449
29	0x3d898036	0.067139074
30	0xbdaaf726	-0.08347921
31	0xbd58b29b	-0.052904706
32	0xbcf8898d	-0.030339027
33	0xbd92e69e	-0.07172893
34	0x3c8fbdb8	0.01754652
35	0x3d402946	0.04691436
36	0x3e118421	0.1421056
37	0x3d8946ab	0.06702932
38	0x3da70745	0.081556834
39	0x3c91dc4a	0.017805237
40	0xbd1813dc	-0.037128314
41	0x3e195179	0.14972486
42	0x3e0c3ba4	0.13694626
43	0x3b33bab1	0.002742451
44	0x3d6c2a30	0.05765742
45	0x3db8a4b7	0.09015792
46	0xbd104864	-0.035225287
47	0x3e0e915d	0.13922639
48	0xbd1c2d9c	-0.038129434
49	0xbd013082	-0.0315404
50	0xbdcc3c1f	-0.09972405
51	0xbce8842b	-0.028383335
52	0x3de8a913	0.11360373
53	0x3d650788	0.055915385
54	0xbc11bf4a	-0.0088957045
55	0xbd90bc80	-0.070672035
56	0x3d949108	0.07254225
57	0xbdd197ee	-0.102340564
58	0x3cad1467	0.021127893
59	0xbd1ce3d0	-0.038303196
60	0xbd60f56e	-0.05492156
61	0xbd2ea402	-0.04263688
62	0xbd71f869	-0.059074793
63	0xbdb8ad1e	-0.090173945
64	0xbd5619e3	-0.05227078
65	0xbd7b65de	-0.061376445
66	0xbd1053e8	-0.03523627
67	0x3daf792b	0.08568033
68	0x3d751ef3	0.05984397
69	0x3de988e1	0.11403061
70	0x3bce9f78	0.0063056313
71	0xbb23d4c4	-0.0024998644
72	0xbdbecb8d	-0.09316168
73	0x3dd4a5ed	0.1038321
74	0xbcb24aa9	-0.021764116
75	0xbe007800	-0.12545776
76	0xbddaf03d	-0.10690353
77	0x3d8866b7	0.06660216
78	0x3d9fd66d	0.0780457
79	0xbc3eaa81	-0.011637331
80	0xbc0cec5b	-0.008601273
81	0x3d4d1b4e	0.050074868
82	0x3da3b3d2	0.079932824
83	0xbde61585	-0.11234573
84	0xbc419822	-0.011816056
85	0x3d88fe5d	0.06689141
86	0x3ddfe51c	0.10932371
87	0xbdd92fa0	-0.10604787
88	0x3dc82ca7	0.09774142
89	0x3e051993	0.12998037
90	0xbd1b78c9	-0.037956987
91	0xbd2dbf07	-0.042418506
92	0x3dfbc3ab	0.1229318
93	0xbbec8978	-0.007218536
94	0xbdbf0682	-0.09327413
95	0x3d01590d	0.031579066
96	0x3d5e01b7	0.054200854
97	0x3de1a5ce	0.11017953
98	0xbd6ff97d	-0.05858754
99	0xbdeb3eeb	-0.1148661
100	0x3ccfda98	0.025372788
101	0x3de621d9	0.11236925
102	0x3dbd089c	0.09230158
103	0x3e07d288	0.13263905
104	0x3d6a32d2	0.057177372
105	0xbdcb6b84	-0.09932616
106	0xbdc3676a	-0.09541209
107	0x3c2389ac	0.009981554
108	0x3deaec53	0.114708565
109	0xbe095d01	-0.13414384
110	0xbda0beed	-0.07848916
111	0x3be9a041	0.0071296995
112	0x3d800447	0.06250816
113	0x3dfca7e2	0.123367086
114	0xbdb2f4df	-0.08738112
115	0x3db39123	0.08767917
116	0xbca94d39	-0.020666705
117	0x3c950651	0.018191488
118	0x3d4de29a	0.050264932
119	0x3e07fd73	0.13280277
120	0xbde4d786	-0.1117392
121	0x3dd2cbf8	0.1029281
122	0xbdbc6d3a	-0.09200521
123	0xbceae3d2	-0.028673086
124	0x3da1ec75	0.07906429
125	0x3d4ba877	0.049721207
126	0xbdb316d0	-0.087445855
127	0x3c8dd0a2	0.017311398
128	0xbb9064a3	-0.004406528
129	0x3df35d6e	0.11883055
130	0xbd9e5b30	-0.077322364
131	0x3d556b57	0.05210432
132	0x3e269de5	0.1627117
133	0xbd93e2b1	-0.07220972
134	0x3d75b522	0.059987195
135	0x3e19e26b	0.15027778
136	0xbcbf92e0	-0.023385465
137	0x3d87fddc	0.06640217
138	0x3c620e97	0.013797424
139	0x3d2b8fa4	0.041885033
140	0xbe06e68b	-0.13173883
141	0xbdae372f	-0.08506619
142	0x3c7dedb9	0.015498572
143	0xbd19e0d1	-0.037567917
144	0xbd264928	-0.04059711
145	0xbb8ce9e3	-0.0043003424
146	0xbd18127f	-0.037127014
147	0x3dbf5fce	0.09344445
148	0xbb0b000b	-0.0021209742
149	0xbd9692bc	-0.07352206
150	0xbd436378	-0.047702283
151	0x3dc46d73	0.09591188
152	0xbdf6822c	-0.12036547
153	0xbc87a06b	-0.016555985
154	0xbe431b7d	-0.19053455
155	0x39372134	0.00017464609
156	0xbe18cf5e	-0.14922854
157	0xbd952995	-0.07283322
158	0x3c89549f	0.016763983
159	0x3c5f920f	0.013645663
160	0x3d5291b0	0.05140847
161	0x3e0ba73b	0.13638012
162	0xbdb4ebdf	-0.08834051
163	0x3d5e6744	0.0542977
164	0xbbc77474	-0.0060868803
165	0x3be0c15a	0.006858987
166	0x3e259af6	0.16172394
167	0xbe0b928a	-0.13630119
168	0xbd63305f	-0.055466052
169	0x3e0239d1	0.12717368
170	0x3d18780c	0.03722386
171	0x3d3ca0e6	0.046051882
172	0xbc7d435a	-0.015457952
173	0xbcc21845	-0.023693213
174	0xbd5642f1	-0.052309934
175	0x3d09d9c4	0.033654943
176	0xbd10cd82	-0.035352238
177	0xbe0110dd	-0.12604089
178	0xbd5b209c	-0.053497896
179	0xbe2e6a94	-0.17032844
180	0xbd185f80	-0.03720045
181	0x3de957a5	0.1139367
182	0x3e339a55	0.17539342
183	0xbe0c0756	-0.13674673
184	0x3be255c6	0.0069071976
185	0xbdc46a0e	-0.09590541
186	0x3ddc161a	0.10746403
187	0xbdf038a5	-0.11729554
188	0x3dc35b9a	0.09538956
189	0x3db3ec63	0.087853216
190	0xbdc5c47a	-0.096566156
191	0xbdb5ddce	-0.088801965
192	0xbc4fef30	-0.012691304
193	0x3d25dc3d	0.04049324
194	0xbc2f258c	-0.010690104
195	0x3dd71b05	0.105032004
196	0xbc8d31c0	-0.017235637
197	0xbc2f70a2	-0.010708006
198	0x3dafd2d6	0.08585136
199	0x3dc0872b	0.09400781
200	0xbcd8453e	-0.026400205
201	0xbc448090	-0.011993542
202	0xbd891ff6	-0.06695549
203	0x3dc7eb3b	0.097616635
204	0xbdd21413	-0.10257735
205	0xbd70f975	-0.05883165
206	0x3de013a4	0.10941246
207	0x3d592e40	0.053022623
208	0xbd451be9	-0.04812232
209	0xbd917488	-0.07102305
210	0x3db1c577	0.086802416
211	0xbdc75cd8	-0.097345054
212	0xbd3dd4c5	-0.04634549
213	0x3d863ec3	0.065549396
214	0x3cdcb647	0.026942385
215	0xbdcc8e3d	-0.09988067
216	0xbddc9360	-0.10770297
217	0xbc60c3b8	-0.013718538
218	0xbd1e8db6	-0.038709365
219	0xbcf6e998	-0.030140683
220	0x3de28562	0.11060597
221	0xbdacf706	-0.084455535
222	0x3d0e06be	0.0346744
223	0x3e024c7b	0.12724487
224	0x3ccb13e6	0.024789762
225	0xbddaa9bf	-0.10676908
226	0x3d241311	0.040057246
227	0xbdb6d92b	-0.0892814
228	0xbdf6cd8b	-0.12050923
229	0x3d90c954	0.0706965
230	0xbc0694ac	-0.008214157
231	0x3e0374cc	0.12837523
232	0xbdeb9aed	-0.11504159
233	0xbdd5ba6d	-0.104359485
234	0x3ce9c331	0.028535457
235	0xbd8fe57a	-0.07026191
236	0xbd902c2b	-0.07039674
237	0xbe026e27	-0.12737332
238	0xbe05bd52	-0.13060501
239	0x3c576f5a	0.013149107
240	0x3d5879ac	0.05285041
241	0xbd64eaeb	-0.055888098
242	0x3dfba603	0.122875236
243	0x3db42023	0.08795192
244	0xbd9890fe	-0.0744953
245	0xbc4e6e19	-0.0125994915
246	0xbe02eadd	-0.12784906
247	0xbddf9781	-0.10917569
248	0xbd225430	-0.03963107
249	0xbd992a53	-0.07478776
250	0x3dde57b0	0.10856569
251	0x3d99ab5d	0.07503388
252	0xbc7c3486	-0.015393382
253	0x3e169af8	0.14707553
254	0xbdc3450e	-0.095346555
255	0xbdd176fe	-0.10227774

lstm.weight_hh_l1 f4 [256, 64]
0	0x3c839c1d	0.016065652
1	0x3c1c3767	0.009534693
2	0xbb1dbc57	-0.0024068558
3	0xbd023263	-0.031786334
4	0x3d21a9e6	0.03946867
5	0xbc84d846	-0.016216408
6	0xbd01c2d2	-0.031679936
7	0x3dc328ed	0.0952929
8	0xba40c7a6	-0.00073539687
9	0x3e118fd7	0.14215027
10	0x3c11379b	0.008863355
11	0x3d4ef059	0.050522182
12	0x3db58d94	0.088648945
13	0xbd90197f	-0.07036113
14	0xbddb9c15	-0.1072313
15	0x3dd76736	0.10517733
16	0xbe0f03ae	-0.13966247
17	0x3dbe17b1	0.092818625
18	0x3dd2ab91	0.1028663
19	0x3d88c07a	0.06677337
20	0x3d72d60c	0.059286162
21	0xbd860a3a	-0.06544919
22	0xbd910f2b	-0.07082971
23	0xbd5320c4	-0.05154492
24	0x3cd9c8bd	0.026584977
25	0x3c360e39	0.011111789
26	0xbdda0b60	-0.10646701
27	0xbce49a04	-0.027905472
28	0x3dc1f60f	0.0947076
29	0xbe084ead	-0.13311262
30	0x3da85382	0.08219053
31	0xbd82977a	-0.06376548
32	0xbc4ad7f1	-0.012380586
33	0x3cef3a12	0.029202495
34	0x3b8ee046	0.0043602316
35	0xbcd97a2e	-0.026547518
36	0xbc12da08	-0.0089631155
37	0xbd3b0eb2	-0.04566831
38	0xbd9e7183	-0.077364944
39	0xbdba7229	-0.091038056
40	0xbd21bbb3	-0.039485645
41	0x3cc8f832	0.024532411
42	0xbd4ad147	-0.04951599
43	0xbdf2fbfc	-0.118644685
44	0x3e116f04	0.14202505
45	0x3cf56477	0.029955132
46	0x3de7ed81	0.11324597
47	0xbdae6c98	-0.08516806
48	0x3dd50fe4	0.104034215
49	0x3d956b4c	0.07295856
50	0x3cdde359	0.027085947
51	0x3cd8374a	0.026393551
52	0xbc94108e	-0.0180743
53	0xbd8dc2c7	-0.069219165
54	0x3e070282	0.1318455
55	0x3d2d3442	0.042286165
56	0x3dbba2cc	0.091619104
57	0x3c8e7e03	0.017394071
58	0xbc2fa03f	-0.010719358
59	0xbde69b0b	-0.11260041
60	0x3d31b99f	0.043389913
61	0x3dbc02ad	0.09180198
62	0x3dd13421	0.10215021
63	0x3dce20de	0.10064863
64	0xbd803575	-0.06260196
65	0x3dcf0b4f	0.10109579
66	0xbd358232	-0.044313617
67	0xbd23e341	-0.040011648
68	0xbced6c84	-0.028982408
69	0x3c841ef7	0.016128046
70	0xbdcc1998	-0.09965819
71	0xbcc09d23	-0.023512429
72	0x3db226e7	0.08698826
73	0xbdaf6665	-0.08564452
74	0x3daa1145	0.08304075
75	0xbd92e891	-0.07173265
76	0x3c84910e	0.016182449
77	0xbdf71981	-0.12065411
78	0x3e02d6ca	0.12777248
79	0xbdd888ec	-0.10572991
80	0x3d32fc97	0.04369792
81	0xbc97f7fe	-0.01855087
82	0x3dc4bc1e	0.09606193
83	0x3c91fdbc	0.017821185
84	0x3db6be0a	0.08922966
85	0x3de508c2	0.11183311
86	0xbd85e4af	-0.065377586
87	0xbdd0f7c4	-0.102035075
88	0xbbd2f479	-0.006437835
89	0x3d1acb45	0.03779151
90	0xbc703139	-0.014660173
91	0x3d2600f7	0.040528264
92	0x398e78fc	0.0002717449
93	0x3dacb8dd	0.084336974
94	0xbe0df5b5	-0.13863261
95	0xbd1a3ee5	-0.037657637
96	0x3dde2da2	0.108485475
97	0x3ddc6c0c	0.10762796
98	0xbdd8a407	-0.10578161
99	0x3da7324e	0.08163892
100	0xbdc8935a	-0.0979373
101	0xbcb30e1e	-0.021857318
102	0x3bcfb830	0.0063390955
103	0x3d5bd53a	0.053670146
104	0x3c0bd138	0.008533768
105	0xbdd07e62	-0.101803556
106	0xbd0d9fc0	-0.034576178
107	0x3cf24faa	0.029579002
108	0xbba4429f	-0.0050128247
109	0xbd4a7ecf	-0.04943734
110	0xbd8fba6e	-0.070179805
111	0xbe0764f8	-0.1322211
112	0x3c8c4d38	0.017126665
113	0xbc60ccfd	-0.013720748
114	0x3ddac123	0.10681369
115	0x3c999d0e	0.018751647
116	0x3da4f728	0.08054954
117	0x3d0cb008	0.034347564
118	0x3dac4ef2	0.08413495
119	0xbd968ef9	-0.073514886
120	0x3d96bc1b	0.07360097
121	0xbdcc290e	-0.09968768
122	0x3c0e280b	0.008676539
123	0x3db74c55	0.08950106
124	0x3d9c03d3	0.07617917
125	0xbd8c84f6	-0.06861298
126	0x3d61de7f	0.05514383
127	0xbdb36e61	-0.087612875
128	0xbde92dc1	-0.1138568
129	0xbe031da8	-0.12804282
130	0x3dcd020a	0.100101545
131	0xbdba1e60	-0.09087825
132	0x3d802bf0	0.062583804
133	0xbc155814	-0.009115238
134	0xbda4a972	-0.08040132
135	0xbdbc9f11	-0.09210027
136	0x3d5ce3f3	0.053928327
137	0xbc097776	-0.008390298
138	0xbd5002f2	-0.05078406
139	0xbdca4f92	-0.09878458
140	0xbc838b61	-0.016057672
141	0xbdcaef00	-0.09908867
142	0xbdfb6823	-0.12275722
143	0xbcef571a	-0.029216338
144	0xbe0c2527	-0.13686047
145	0xbd922fe9	-0.071380444
146	0x3dbfaa3d	0.09358642
147	0xbdcbb842	-0.09947254
148	0x3de96a09	0.11397178
149	0xbd9302a1	-0.07178236
150	0xbcafab43	-0.021443969
151	0x3d823acd	0.063588716
152	0x3d566fe5	0.052352805
153	0x3d75b55d	0.059987415
154	0xbd1f2b52	-0.038859673
155	0xbdb912cc	-0.09036788
156	0x3d0f8de6	0.035047434
157	0xbcdc3f8d	-0.026885772
158	0x3e046d90	0.1293242
159	0xbc5c0d9b	-0.013430978
160	0xbd825e94	-0.063656956
161	0xbdc97d1e	-0.09838317
162	0xbc853250	-0.016259342
163	0xbc9e6e4a	-0.0193397
164	0xbdb83590	-0.08994591
165	0x3dc62358	0.0967471
166	0xbdf9aac5	-0.12190775
167	0xbd745038	-0.059646815
168	0xbdaedb6a	-0.08537944
169	0x3d642b4c	0.055705354
170	0x3d6ec22a	0.058290638
171	0x3d78530e	0.060626082
172	0xbdbf90d4	-0.09353796
173	0xbdc44fdc	-0.095855445
174	0xbda53788	-0.08067232
175	0x3dedd8bc	0.116136044
176	0xbbd90e67	-0.0066240313
177	0x3cfc02df	0.030763088
178	0xbd0a2515	-0.03372677
179	0x3d903e36	0.07043116
180	0xbdda329a	-0.10654183
181	0x3d73747a	0.059437253
182	0x3e05b72b	0.13058154
183	0x3c35899e	0.011080174
184	0xbd925be1	-0.07146431
185	0xbdb62781	-0.088942535
186	0xbcddf4e2	-0.027094308
187	0xbdc62aae	-0.09676109
188	0x3e17f0b6	0.14837918
189	0x3dd52a47	0.104084544
190	0xbd0785c4	-0.033086553
191	0x3e05388f	0.13009857
192	0x3e042320	0.12904024
193	0xbde3b3d4	-0.11118284
194	0xbe0098f5	-0.12558348
195	0x3dceb60f	0.10093319
196	0x3df467eb	0.11933883
197	0x3c48a88c	0.012247216
198	0xbd0efd6b	-0.034909647
199	0x3e1abe4e	0.15111658
200	0xbd99e793	-0.075148724
201	0xbddd373d	-0.108015515
202	0xbd720a8c	-0.05909209
203	0xbac1a4d5	-0.0014773855
204	0xbd49cb34	-0.049266055
205	0x3c27eb66	0.010248994
206	0xbc50b3d6	-0.012738189
207	0xbd402113	-0.046906542
208	0xbdcf1481	-0.10111333
209	0xbd4c6b6d	-0.049907137
210	0xbe0a0f79	-0.13482465
211	0x3d4d28a7	0.050087597
212	0x3de2fcaf	0.11083352
213	0xbd888e4a	-0.066677645
214	0x3dbdbf8c	0.0926505
215	0xbd3a7e9d	-0.045530904
216	0xbdcbe83d	-0.09956405
217	0xbdb0991f	-0.086229555
218	0x3dc223e2	0.094795
219	0xbc9493f2	-0.018136952
220	0x3d864784	0.06556609
221	0xbd6c736e	-0.05772727
222	0xbdbcf65c	-0.09226677
223	0xbdb449e7	-0.08803158
224	0xbc1e99ed	-0.009680253
225	0xbd2339df	-0.039850112
226	0xbd542683	-0.05179454
227	0xbde64ca1	-0.112450846
228	0xbd9dc4a0	-0.07703519
229	0x3d2b8990	0.041879237
230	0xbde242f5	-0.11047927
231	0xbd855a5a	-0.06511374
232	0x3d72237a	0.059115864
233	0xbdea103e	-0.11428879
234	0x3de5207d	0.11187837
235	0x3c0315b6	0.008000782
236	0x3c6e846f	0.014557942
237	0x3d50761b	0.050893884
238	0xbdc723e0	-0.097236395
239	0xbe04be8a	-0.1296331
240	0xbd7f6a9d	-0.062357534
241	0xbc08f5bb	-0.008359368
242	0xbe0a299f	-0.1349244
243	0xbd8dba58	-0.06920308
244	0xbb37439c	-0.0027963882
245	0xbd78e440	-0.06076455
246	0x3de47923	0.111559175
247	0xbdf44c2c	-0.11928591
248	0xbd4f3d4b	-0.050595563
249	0x3d915450	0.070961595
250	0xbd89ec31	-0.06734503
251	0x3da02f66	0.078215405
252	0x3dba41dd	0.09094594
253	0xbd148629	-0.036260758
254	0x3d40c7bb	0.047065478
255	0x3c482b7a	0.012217397

lstm.bias_ih_l1 f4 [256]
0	0x3e13c702	0.14431384
1	0xbdd301ff	-0.10303115
2	0xbdd9789c	-0.106187075
3	0xbd828f1e	-0.06374954
4	0x3cc980b3	0.024597501
5	0x3ccd41a2	0.02505571
6	0x3d8301cf	0.06396829
7	0x3d7f89a7	0.062387135
8	0xbddf8a2e	-0.109150276
9	0x3d49857f	0.049199577
10	0x3d589f9c	0.05288659
11	0x3e10ed2b	0.14152972
12	0x3ded48b6	0.11586134
13	0x3bf9d3b3	0.0076241135
14	0xbd339d63	-0.043851268
15	0xbd0125dd	-0.03153025
16	0xbd8d7f7f	-0.069090836
17	0x3d966411	0.07343305
18	0x3d953115	0.07284752
19	0x3d35a8c5	0.044350404
20	0xbdab731c	-0.08371565
21	0xbd84b6e7	-0.06480198
22	0xbde5da9d	-0.11223338
23	0x3cdbaa00	0.02681446
24	0x3d7bc677	0.061468568
25	0x3d8ff36c	0.07028851
26	0x3df43293	0.11923709
27	0x3d6693a9	0.056293163
28	0x3e0fc17f	0.14038657
29	0xbdafa795	-0.085768856
30	0xbc90faeb	-0.017697772
31	0x3d751194	0.059831217
32	0x3d1e50ac	0.038651153
33	0x3dd652cb	0.1046501
34	0xbd9dfa9f	-0.07713818
35	0x3dd9a7f7	0.1062774
36	0x3cff1a92	0.0311406
37	0xbd1082a5	-0.035280842
38	0xbdaa1259	-0.08304281
39	0x3d339181	0.043839935
40	0x3e0c30ea	0.13690534
41	0xbd05657d	-0.03256749
42	0xbcf87453	-0.030328905
43	0xbd1c2639	-0.03812239
44	0x3d59df40	0.053191423
45	0xbdd1958c	-0.10233602
46	0x3cba9705	0.02277709
47	0x3ddde971	0.10835541
48	0x3d201df7	0.039091077
49	0x3d6b0c8e	0.05738502
50	0xbdd54361	-0.10413242
51	0x3da91f4d	0.08257923
52	0xbccdfde3	-0.025145477
53	0x3d1e4ba0	0.03864634
54	0xbce3b8e2	-0.02779812
55	0xbd92996f	-0.071581714
56	0xbc03ba15	-0.008039971
57	0xbda65145	-0.0812097
58	0xbdbbc97d	-0.0916929
59	0xbdd67367	-0.1047123
60	0x3de0283b	0.10945173
61	0xbca96208	-0.020676628
62	0x3d056b18	0.032572836
63	0x3d74f5df	0.059804793
64	0xbb73bd17	-0.0037191564
65	0xbda3971e	-0.07987808
66	0x3d139a2a	0.036035694
67	0xbd9770ea	-0.073945835
68	0x3ca3d87a	0.020000685
69	0x3d95e659	0.07319326
70	0xbcb5615c	-0.022141151
71	0xbdd14dba	-0.10219903
72	0x3d6d8fbd	0.057998408
73	0x3dac5b0a	0.08415802
74	0xbdec6889	-0.11543376
75	0x3d98a753	0.074537896
76	0x3df64e90	0.12026703
77	0xbdef9096	-0.116974995
78	0x3dcb1e35	0.09917871
79	0x3bd7f54b	0.0065905205
80	0x3de4e740	0.1117692
81	0xbda1fd09	-0.07909591
82	0xbd9b3c70	-0.07579887
83	0xbd90bfc0	-0.070678234
84	0xbc38d079	-0.0112801725
85	0xbcc07385	-0.023492584
86	0xb9a0a387	-0.00030639415
87	0xbdd4c966	-0.10389976
88	0xbd31544f	-0.043293294
89	0xbdd68ed7	-0.10476463
90	0x3db4ed98	0.0883438
91	0x3d0876c9	0.033316407
92	0x3daaf57d	0.083476044
93	0x3cadd781	0.021220924
94	0x3d603c30	0.0547449
95	0x3d43c562	0.04779566
96	0x3dde5bee	0.10857378
97	0x3da237fc	0.079208344
98	0xbdeea772	-0.116530314
99	0x3d88b05e	0.06674264
100	0x3d53923e	0.05165314
101	0x3d1ca176	0.03823992
102	0xbd1e2ca5	-0.038616795
103	0x3dc8f783	0.09812834
104	0xbc8c26e5	-0.01710839
105	0xbc7d1567	-0.015446997
106	0x3dc86466	0.097847745
107	0xbd27f0fc	-0.041001305
108	0xbcf42254	-0.029801525
109	0x3da7d05f	0.081940405
110	0x3da1abb8	0.07894081
111	0x3c74aa5c	0.014933195
112	0x3d988054	0.07446352
113	0x3bb8494c	0.005623972
114	0x3c8958e7	0.016766025
115	0xbda1bf55	-0.07897822
116	0xbd256529	-0.040379677
117	0xbdae2e50	-0.08504927
118	0xbb177083	-0.0023107834
119	0x3d72f952	0.0593198
120	0x3c9843b9	0.01858698
121	0xbd25dd3b	-0.040494185
122	0x3dddfd88	0.10839373
123	0xbd23b0fd	-0.03996371
124	0xbddd01d6	-0.10791366
125	0x3dbeb0b3	0.093110465
126	0xbdebd3ee	-0.11515032
127	0x3c470706	0.012147671
128	0xbdccd328	-0.10001212
129	0xbdd8a165	-0.105776586
130	0x3daa8ca3	0.083276056
131	0x3d678d39	0.056531165
132	0xbc1a2c36	-0.009409955
133	0x3c749f7f	0.014930605
134	0xbe0234a4	-0.12715393
135	0x3d67649a	0.056492426
136	0x3d7ab9d0	0.06121236
137	0x3d7b2181	0.06131125
138	0x3d3f0773	0.046637964
139	0x3d8bdf14	0.06829658
140	0xbd695804	-0.056968704
141	0x3d7096b1	0.05873746
142	0x3db26783	0.087111495
143	0x3d898cf6	0.06716339
144	0xbca2a73b	-0.019855132
145	0xbbba9d86	-0.005695048
146	0x3de2fec4	0.11083749
147	0x3d9ae087	0.075623564
148	0xbd1169d5	-0.03550132
149	0xbd10c229	-0.035341416
150	0xbdd720a2	-0.10504271
151	0xbd4437cc	-0.047904775
152	0xbdae66bd	-0.085156895
153	0xbb89c0e6	-0.0042039035
154	0xbde3cdd1	-0.11123241
155	0xbcae2724	-0.021258898
156	0xbde28893	-0.11061206
157	0xbd6f64fc	-0.058445916
158	0xbd1a1bc0	-0.03762412
159	0xbc9b14cb	-0.018930813
160	0xbdff86ec	-0.12476906
161	0xbd6ef1a6	-0.058335923
162	0xbd3a15f0	-0.045431077
163	0xbdd1077b	-0.10206505
164	0xbdc8e7f1	-0.09809864
165	0x3d540711	0.05176455
166	0xbabc9292	-0.0014386943
167	0x3dce9768	0.10087472
168	0x3d5cc2d1	0.05389673
169	0x3db1a094	0.08673206
170	0xbc62e1ff	-0.013847827
171	0xbdbe3e83	-0.09289267
172	0x3d874155	0.06604258
173	0x3db65b43	0.089041255
174	0xbd844d52	-0.0646006
175	0x3d251fb6	0.040313445
176	0xbd4c50d7	-0.049881782
177	0xbd93ac04	-0.07210544
178	0x3d967b12	0.073476925
179	0x3c7f0e94	0.015567441
180	0x3d13dbea	0.0360984
181	0xbcd9f81e	-0.02660757
182	0xbc3015cb	-0.010747383
183	0x3ca7a9a1	0.020466628
184	0x3dd7fe6c	0.10546574
185	0x3daac629	0.08338577
186	0x3d2bad33	0.041913223
187	0xbda7763d	-0.08176849
188	0x3db69d7a	0.08916755
189	0x3dbeb9d9	0.093127914
190	0xbdb6313d	-0.0889611
191	0x3d91257a	0.07087226
192	0xbd171ddd	-0.036893714
193	0x3d5dde72	0.05416722
194	0xbdd95fb4	-0.10613957
195	0xbdd616fa	-0.10453601
196	0x3dbb1999	0.09135742
197	0x3d85c948	0.06532532
198	0xbd129867	-0.035789873
199	0x3d175e45	0.036955137
200	0x3cc52c7f	0.024069069
201	0x3d86e359	0.06586332
202	0xbd2b3510	-0.04179865
203	0x3d0c5a7b	0.034265976
204	0xbdd78924	-0.105242044
205	0xbce8d43e	-0.028421517
206	0xbbfde0e9	-0.0077477586
207	0x3c91f220	0.01781565
208	0xbd91064d	-0.0708128
209	0x3db8a94c	0.09016666
210	0x3be5a70e	0.00700844
211	0xbd7cd0b7	-0.061722483
212	0xbdcf6651	-0.10126937
213	0xbd9952c4	-0.074864894
214	0x3d07ee58	0.033186287
215	0xbd81ac68	-0.06331712
216	0x3d041752	0.032248802
217	0x3e3761e4	0.17908436
218	0xbd9cb064	-0.07650831
219	0xbd4b99e7	-0.04970732
220	0x3dc3ad0c	0.095544904
221	0xbdb554c2	-0.08854057
222	0x3ce9e91b	0.028553536
223	0x3d9d47b4	0.07679692
224	0x3d18df72	0.03732247
225	0x3df05d85	0.117365874
226	0x3c829ee8	0.015944913
227	0xbd707533	-0.05870552
228	0xbdc89b9a	-0.09795304
229	0x3d27735d	0.040881503
230	0xbd43ad39	-0.04777262
231	0x3d2a0b66	0.041514777
232	0x3b325c9d	0.0027215846
233	0x3c078c9f	0.008273273
234	0x3ce727a1	0.028217139
235	0xbd2993aa	-0.04140059
236	0x3bc9774e	0.0061482554
237	0x3daece54	0.08535448
238	0xbd7a5277	-0.0611138
239	0x3dc0158f	0.09379112
240	0x3e1720d7	0.14758621
241	0xbdcc6031	-0.099792846
242	0xbdb99823	-0.09062221
243	0xbd48d6bb	-0.049032908
244	0xbd46e6fe	-0.048560135
245	0xbd1489f1	-0.036264364
246	0x3ddd16f5	0.10795394
247	0xbc384d74	-0.011248935
248	0x3ce1f5fb	0.027583113
249	0xbd97654a	-0.07392366
250	0xbc8eba48	-0.01742281
251	0xbd1d6c77	-0.03843352
252	0xbd8cbef0	-0.06872356
253	0x3d293f38	0.041320056
254	0x3de5c2e0	0.1121881
255	0x3d123b16	0.03570088
