backend/models/lstm_AMZN.pth (torch, 206420 bytes, 9 tensors)

lstm.weight_ih_l0 f4 [256, 1]
000000 8b f5 3f bd 64 ab 01 3e 64 d2 69 bd 30 58 ee bc
       -0.046865027 0.12663037 -0.05708541 -0.029094785
000010 fb 9e 1c 3e 80 ea 80 bd 04 44 a8 3d de 6a 92 3d
       0.15295021 -0.06294727 0.08216098 0.071492895
000020 dc 30 14 3e 8f 9c 75 bb b8 e2 65 bd 34 80 d1 3d
       0.14471763 -0.003747735 -0.05612442 0.10229531
000030 8b bb 07 3d f0 01 06 3e 88 2b db 3d 0a 6a d4 3d
       0.03313784 0.13086677 0.10701662 0.10371788
000040 f8 89 df 3c f2 53 e9 3d d7 41 49 3d da d8 48 3d
       0.027287468 0.113929644 0.049135055 0.04903493
000050 01 ee 34 3e 19 81 4b 3d 39 8b 4b 3b d3 13 9d 3d
       0.17668916 0.049683664 0.0031058325 0.07669797
000060 7e 59 e1 bc ea c8 b7 bc b3 3a e6 3d 72 9f 09 3e
       -0.027508494 -0.02243467 0.11241665 0.1343973
000070 c0 35 08 3e 0d ee 93 3d 98 6d b1 bd 2d b1 30 3e
       0.13301754 0.07223139 -0.086634815 0.17255087
000080 9a e2 17 3d 16 04 7b 3d a3 bc 88 bd 91 c4 7f 3d
       0.03708134 0.061283194 -0.066766046 0.06244332
000090 32 ef cb 3c 3f 9a 97 bd cd b5 84 bd bd bf 11 bc
       0.02489433 -0.07402467 -0.06479988 -0.008895812
0000a0 f5 d9 31 bd 9c 40 09 3e 1e d1 ab 3d eb 55 21 3e
       -0.04342075 0.13403553 0.08389495 0.15755431
0000b0 62 18 ae bd 3f 64 2c 3d cf 5c a0 3c 56 73 95 bd
       -0.085007444 0.04208779 0.019575505 -0.07297389
0000c0 f8 d8 dd 3c 21 ce f4 3d 50 49 6a 3d 8f e5 18 bd
       0.027080998 0.119533785 0.057198822 -0.0373283
0000d0 c4 bd 3a bd e0 d6 5b bd 7b de f4 3d e0 7f 4c bd
       -0.04559113 -0.053671718 0.11956497 -0.04992664
0000e0 68 60 f2 3c d1 60 8f 3d 2b 92 5d 3c 0f 01 0a 3e
       0.029586986 0.07000888 0.013523619 0.13476966
0000f0 5c 83 09 3e a3 e6 55 3d 3f 97 02 3e 41 06 82 bd
       0.13429016 0.052221905 0.12753008 -0.06348849
000100 6a 1c 29 3e dd 17 e0 3c 41 94 dd 3d 51 96 d8 3d
       0.16514745 0.027355129 0.10819293 0.105755456
000110 d5 a5 a9 3d 13 dd 5a 3b 07 2e 25 3d 9f 00 9b bc
       0.08283583 0.003339593 0.0403271 -0.018921195
000120 cd 5b a6 bc 99 cc 0b bd dc 26 5c 3c e7 a3 ce bb
       -0.020307446 -0.034130666 0.013436999 -0.00630616
000130 49 77 d0 3d a5 97 99 3d 67 9b 57 bd 3a 83 9b 3c
       0.10179002 0.07499627 -0.052638438 0.018983472
000140 e5 d1 d9 3c d0 67 93 bd 79 91 bf 3c 98 56 19 3c
       0.026589343 -0.07197535 0.023384796 0.009359024
000150 8b 83 fe 3d 68 63 22 3d c2 01 03 bd b0 1c 94 3d
       0.124274336 0.039645582 -0.0319841 0.07232034
000160 f4 96 13 be 63 78 5e 3d a5 83 1c 3e 35 fa 4c bc
       -0.14413053 0.05431403 0.15284593 -0.012510826
000170 30 a9 be 3d ee ed df bd 25 df 8e bb e3 82 b3 3d
       0.09309614 -0.10934053 -0.004360097 0.08765199
000180 9d 1d 47 3b fa 93 fa bc eb ec ee 3d fb c9 fe 3c
       0.003038264 -0.030588139 0.11666282 0.031102171
000190 46 c3 34 3d eb 3f 30 bd 9a e6 aa bd c4 90 06 3e
       0.04413154 -0.043029707 -0.08344765 0.13141161
0001a0 f4 b4 a7 bd fb 41 1f 3e 0e 08 dd 3d c4 2e eb 3d
       -0.08188811 0.15552513 0.10792552 0.11483529
0001b0 a7 4a ba bd 03 65 81 3d 22 46 28 3e 10 c9 76 3d
       -0.0909627 0.063180946 0.16433004 0.060250342
0001c0 6c 8b b2 3d a1 56 03 bd e6 79 58 bd 53 fd 9c 3c
       0.08717999 -0.032065038 -0.052850626 0.019163763
0001d0 06 b1 3c bc bd 5d cf bd 58 53 89 bd 9d 00 f9 3d
       -0.011516815 -0.10125301 -0.0670535 0.1215832
0001e0 1b 48 04 bc 37 4a 8c bc df fc a6 bd f0 e3 3b bd
       -0.008073832 -0.017125232 -0.081537 -0.045871675
0001f0 83 08 5d 3d 52 78 22 3d e4 18 c6 3d 2a 1b ab bd
       0.053963196 0.039665528 0.09672716 -0.083547905
000200 bb d6 09 bd f9 83 8c 3d 21 19 2a 3e 5e 11 77 bc
       -0.03365205 0.06861109 0.16611148 -0.015079824
000210 43 89 e1 3d 45 40 14 3e ca 22 43 3e 6e df 0b 3e
       0.11012509 0.14477642 0.1905624 0.1365945
000220 20 ec cd bd 71 d5 07 be 00 50 1e 3e cc 90 f0 3d
       -0.10054803 -0.13265015 0.15460205 0.11746368
000230 fc e8 bc bd 58 50 91 bd bd 0d e6 3d 25 ad 11 bd
       -0.09224126 -0.070954025 0.11233089 -0.035565514
000240 cf 39 9b bd 7b 11 25 3e 55 db 16 3e c9 19 56 3b
       -0.075793855 0.1611995 0.14732106 0.0032669178
000250 89 3e 09 3e d9 3c 26 be 1b eb dc ba f0 5a c3 bd
       0.13402762 -0.16234149 -0.0016854735 -0.09538829
000260 6f 57 18 3d d5 83 c6 3d e6 56 1d be bb d5 98 bd
       0.03719276 0.09693114 -0.1536518 -0.07462641
000270 fd 70 69 bd d2 9e 1f be 00 b0 dc bd c4 b0 3f 3e
       -0.05699252 -0.15587929 -0.10775757 0.18719774
000280 d2 20 32 be 0b 52 26 3e 5e 00 a6 ba 0d 03 02 3e
       -0.17395332 0.16242234 -0.0012664904 0.12696476
000290 91 a4 9a 3d ba ed d8 3d db 6f 95 bd e4 30 f8 3c
       0.0755092 0.10592218 -0.07296725 0.03029675
0002a0 c0 5f 14 be c9 09 ba 3d 4f 15 6b bd 99 9d c2 3d
       -0.1448965 0.090838976 -0.05739337 0.095027156
0002b0 68 0e c1 3d 6e 22 3e bd bc 63 3f bc 11 c7 69 bd
       0.09426576 -0.046419553 -0.011681493 -0.05707461
0002c0 00 d0 e1 bd a6 45 bd 3d 89 36 b4 bd 83 d7 0a be
       -0.11026001 0.092418 -0.08799464 -0.13558774
0002d0 f5 84 f1 bd cb c0 8c 3d 66 05 2f 3c f6 9a 8a 3d
       -0.11792938 0.0687271 0.010682439 0.06767838
0002e0 cd 48 1e 3e 12 77 a5 3d b5 66 8c 3d 23 24 ef 3d
       0.15457459 0.080793515 0.06855527 0.116768144
0002f0 aa a7 06 3e c9 c8 8c 3a 39 f2 ec 3d 10 74 37 3e
       0.13149896 0.0010740991 0.11569638 0.17915368
000300 2d 7a d7 3d a1 19 2b 3e 63 05 b0 3d 03 8a 8e bd
       0.1052135 0.16708995 0.085947774 -0.069599174
000310 87 49 1e 3e c8 eb 17 3e a7 de c8 3d c2 b3 10 3e
       0.15457736 0.14836037 0.098080926 0.14131072
000320 d4 1c ae bd 54 3d a3 3d 28 68 6e 3b 9c c3 48 3b
       -0.08501592 0.07970682 0.0036378 0.003063417
000330 06 f1 c4 bc 59 23 6a 3d 41 24 1d 3e ce b6 ca 3c
       -0.02404071 0.057162616 0.15345861 0.024745371
000340 a3 1a aa bc e0 e1 89 3b 99 40 0c 3e 07 aa db 3c
       -0.020764655 0.0042078346 0.13696517 0.026814474
000350 0e 02 45 3e a0 13 b0 bd dd 33 22 3e 72 c3 29 3e
       0.19239065 -0.08597493 0.15840097 0.16578463
000360 b4 02 71 3d 14 93 17 3e e7 8b 2c 3e 39 c0 03 bd
       0.05884047 0.148022 0.16850244 -0.03216574
000370 1d 13 06 3e 3b e9 ff bc fb 17 f1 bd 17 63 47 bd
       0.13093229 -0.031239143 -0.11772152 -0.048678484
000380 14 7f 8a 3d 23 7b 38 3d cd ee 8b bc cc 42 8e 3d
       0.067625195 0.045039307 -0.017081643 0.06946334
000390 08 77 f1 3d 1a d8 ae 3d 19 d4 a2 bd 94 ee 22 bc
       0.117902815 0.08537312 -0.07950611 -0.009944577
0003a0 a1 27 1f 3d 62 82 02 3e 32 e7 3b bd cc e9 6a bc
       0.038856152 0.1274505 -0.045874782 -0.014337968
0003b0 be a9 d7 bd 04 b8 0a 3e 33 19 10 bd f1 2f bc 3d
       -0.10530423 0.13546759 -0.03518028 0.091888316
0003c0 47 d6 3a 3d 44 2f 22 bd 7f 2f c2 3c bd f9 22 3d
       0.045614507 -0.039595857 0.023704289 0.03978895
0003d0 2c 5c 3c 3d ad 28 8a bc d5 a8 d0 bc a3 4c 8a 3c
       0.04598634 -0.016865099 -0.02547113 0.016882246
0003e0 83 2f 87 3d 92 a8 90 bd 99 0b 6d 3d 13 91 61 bb
       0.06600859 -0.07063402 0.05787239 -0.0034418746
0003f0 4e f6 0d 3e 46 50 9e bd d2 cd bd 3d 34 c5 79 bd
       0.13863489 -0.07730155 0.09267773 -0.060979083

lstm.weight_hh_l0 f4 [256, 64]
000000 ed 34 08 3d 6f 48 08 bc e1 3a e8 bc 32 74 70 3d
       0.0332536 -0.008318051 -0.028348388 0.058704562
000010 01 65 c8 bd 8a c3 42 3e c1 ce 10 3d b3 7b 39 3d
       -0.0978489 0.19019905 0.035353426 0.045283984
000020 9c e2 9e 3d 99 4b 17 be 4b 58 47 3d 22 0b dc 3d
       0.07758066 -0.14774932 0.048668187 0.10744311
000030 71 57 87 3d c3 ad c1 3d 47 18 a1 3d 75 be e6 3d
       0.06608475 0.094569705 0.07865959 0.112667955
000040 26 0b 87 bd 13 62 3c 3c 45 bb 0c 3e d9 0f aa 3d
       -0.06593923 0.011497992 0.13743313 0.08303804
000050 ab 46 d1 3c 33 1e ab bc 7a 25 b5 3d 59 f0 ac 3d
       0.025546392 -0.020888424 0.08845039 0.0844428
000060 c7 01 19 bd d3 2c d7 3b 9d fc 01 be f2 92 01 be
       -0.03735521 0.0065666228 -0.1269402 -0.12653711
000070 ef bb 60 3c d8 a8 15 be fe 18 9e bd e2 03 82 3d
       0.013716682 -0.1461519 -0.07719611 0.06348397
000080 d0 da 1e be ea 34 07 3e ce 47 b6 3d 4d ad 17 3e
       -0.15513158 0.13203779 0.089004144 0.14812203
000090 37 7d 2c bd d7 ba 96 bd 32 71 2a bd d7 2d aa 3d
       -0.0421116 -0.073598556 -0.041611858 0.083095245
0000a0 b6 2d 49 be 66 4c c3 3c 8a 17 53 bd 51 54 44 bb
       -0.19646344 0.02384014 -0.05153612 -0.0029957483
0000b0 35 88 fc bb 6c da bb 3d 0a 39 19 3d 97 9b 8d 3d
       -0.007706667 0.0917252 0.037407912 0.06914442
0000c0 52 e1 96 bb 44 35 29 3e 28 8f e4 bd 16 a4 22 be
       -0.004604497 0.16524225 -0.111601174 -0.15882906
0000d0 9a 88 85 3d 84 4f c9 3d ca 14 80 ba 13 44 ac 3d
       0.06520195 0.098296195 -0.0009771821 0.084114216
0000e0 01 a5 7a 3c d4 13 b1 3d dc 6f 96 bb e6 b4 e9 3d
       0.015298129 0.0864636 -0.0045909714 0.11411457
0000f0 46 07 2d 3e 86 45 66 bd eb 9c ad bb 3e 49 9e 3d
       0.16897306 -0.056218646 -0.005298247 0.077288136
000100 53 ee 43 bd a5 61 e8 bd ea 78 6d bc bd 74 bf 3d
       -0.047834706 -0.11346749 -0.01449416 0.09348438
000110 1d 08 9d 3d 72 80 31 3e e5 74 4e 3e 3b 17 16 3d
       0.07667563 0.17334154 0.20161779 0.036643248
000120 0b bf 28 3d 9f 5f 82 bd ce 7d 3a 3e 1c 47 ad 3d
       0.041197818 -0.063658945 0.18212053 0.08460829
000130 48 39 a4 3d 98 68 85 bd 55 47 d2 3d f0 a8 12 bd
       0.08018738 -0.0651409 0.10267512 -0.035805643
000140 8c 85 78 3d 38 57 a0 3c 38 b4 54 bd af be 97 3d
       0.060674235 0.01957284 -0.051929682 0.07409417
000150 ea 35 4a bd 78 6d 39 be 84 2d 98 bd d0 e7 11 bd
       -0.049367823 -0.18108165 -0.074305564 -0.035621464
000160 9a 2f 77 bc 45 db f7 3d f3 2f 5b bd de 6a 83 bd
       -0.015087033 0.12102369 -0.053512525 -0.06416868
000170 bb 44 ad bd 4d c5 13 be f6 b5 69 bd 5f 51 ed 3d
       -0.08460375 -0.14430733 -0.057058297 0.11587786
000180 c2 d8 3f be 47 f4 cb 3c e5 cc b9 3d e3 b4 cb 3d
       -0.1873503 0.024896754 0.09072284 0.09946611
000190 73 08 d1 3d aa 87 94 bd 4c a1 8c 3d a9 f8 3f bd
       0.1020669 -0.07252438 0.068667024 -0.046868
0001a0 a1 9c 13 be 80 e4 f2 3d d2 d7 0c 3d 0e b6 08 be
       -0.14415218 0.11859989 0.03438551 -0.13350698
0001b0 d6 d4 94 bd fc 01 5e 3d 92 c2 f4 bd a2 8e 33 bd
       -0.07267158 0.05420111 -0.11951174 -0.043837197
0001c0 63 a5 0c be b1 61 ca 3c 6a 95 5e bd 81 25 ba bc
       -0.13734965 0.024704786 -0.05434171 -0.022722961
0001d0 f2 77 1f be 3c b5 5e bd ca cb e2 3b 4d c3 82 bd
       -0.155731 -0.054372057 0.006921266 -0.06384907
0001e0 7e 89 91 3c b9 1a 99 bd 22 c6 0e 3e 6b 99 d0 3d
       0.017765757 -0.074758 0.13942769 0.10185512
0001f0 30 56 dd 3d f9 95 83 3d 17 d6 17 3d cf db b4 3c
       0.108074546 0.064250894 0.037069406 0.02207747
000200 2c c4 87 3d d4 aa b1 3d c1 62 c4 bc 96 97 53 bd
       0.06629214 0.08675161 -0.02397287 -0.051658235
000210 d6 b5 af bd 92 87 d3 3d f4 70 4c bd fe a7 fe bc
       -0.08579604 0.10328592 -0.049912408 -0.031085964
000220 db 3b c4 bd 07 ea b7 3c cf 19 ba 3c c5 cd 0a bc
       -0.09581729 0.02245046 0.022717385 -0.008471911
000230 68 18 4e 3d 93 94 0a ba a6 76 01 3e d6 7d d8 bd
       0.050316244 -0.00052864215 0.12642917 -0.10570876
000240 98 c8 28 3d 10 8a 81 3d 47 ca b5 3d aa 59 d5 3d
       0.041206926 0.063251615 0.08876472 0.10417493
000250 1a 7e 59 3d b3 ef 8e bd 3f 46 ca 3d ec 58 c0 3d
       0.053098775 -0.06979313 0.0987668 0.093919605
000260 f7 8f b6 3d 7e a7 c5 3d 7f b2 af bd 73 72 b3 3d
       0.08914178 0.09651087 -0.08578967 0.08762064
000270 68 cd 94 bd 17 5a d9 bd ad 42 06 be 7c c5 6b 3d
       -0.07265741 -0.106128864 -0.13111372 0.057561383
000280 b9 3f 72 3d b3 15 ec 3c 28 a1 09 3e 0e c4 d1 3d
       0.059142802 0.02881894 0.13440382 0.102424726
000290 8b 53 ba 3c 4c cd e6 3c d9 a0 72 bd 1d 9a 28 ba
       0.022744915 0.028174065 -0.059235428 -0.0006431656
0002a0 f7 b6 bc bc 6a c0 80 3d 03 08 ec 3d 34 0a bb bc
       -0.023036463 0.062867 0.115249656 -0.022832014
0002b0 de e4 ae bd 96 ec 53 bd 34 f2 4b bd 67 82 8e 3d
       -0.08539747 -0.051739298 -0.04979153 0.06958466
0002c0 03 72 b6 bc 06 97 d3 bd 55 46 bb 3d f0 a7 a4 3d
       -0.022271162 -0.1033154 0.09144274 0.08039844
0002d0 06 c6 79 bc 00 38 9e bd 6d ad 90 3d b8 39 88 3c
       -0.015244966 -0.07725525 0.07064328 0.016629085
0002e0 05 77 bd bd 34 5d b7 bd 6f cd 57 3d ef 6f a5 bd
       -0.09251217 -0.08953324 0.05268615 -0.0807799
0002f0 d4 62 78 3d 77 89 d9 bd 25 8c 99 3d 37 00 36 3d
       0.060641125 -0.106219225 0.074974336 0.0444338
000300 ff ed c7 bd 91 f2 aa 3d 24 1e b9 3d 37 a8 34 bd
       -0.09762191 0.08347047 0.09038952 -0.044105735
000310 c2 75 7f bc 4e a2 8e 3d cb e7 8e bd cf b2 24 3c
       -0.0155920405 0.06964551 -0.06977805 0.010052397
000320 a6 75 25 bd fa ca ce 3b e0 7e d1 3d 2c f8 89 3d
       -0.0403954 0.006310818 0.102292776 0.06736788
000330 a7 9b 89 bd e4 07 e3 3d 81 66 8a 3c 08 06 c2 3d
       -0.067191415 0.110854894 0.01689458 0.094738066
000340 d0 36 08 be 27 25 d9 3d 66 47 6d bc c4 ee ab 3b
       -0.1330216 0.10602789 -0.014482355 0.005246969
000350 04 3e e0 bd 3a 45 10 3d 85 81 7e 3c 7a 98 1d bd
       -0.109493285 0.03522227 0.01553381 -0.03847549
000360 23 16 d9 39 75 d2 47 bd 3e a3 ef bc c8 f7 fa bd
       0.00041405958 -0.04878469 -0.029252645 -0.12254292
000370 b8 d3 c3 bd 2d e4 cb bd 8b 10 ea bd 36 77 af 3d
       -0.095618665 -0.099556305 -0.114289366 0.085676596
000380 d1 35 f2 bd 78 79 af bd ff e4 10 bc 32 de c6 bd
       -0.11826671 -0.0856809 -0.008843659 -0.09710349
000390 97 ab dd 3d fb 1d 8f bd eb 56 31 3d e4 0e 84 bd
       0.10823744 -0.0698814 0.043295782 -0.06448153
0003a0 20 76 34 3d 39 0d ff 3d 27 91 e0 bd 94 6b 6c 3d
       0.044057965 0.12453694 -0.109651856 0.057719782
0003b0 51 9c 88 ba ed 82 d6 bc 5c 0f bf 3d d7 34 b5 bd
       -0.0010422562 -0.026185477 0.093291014 -0.08847969
0003c0 a3 53 1c bb 52 0e 73 3d aa 44 25 3c 80 98 92 bd
       -0.0023853562 0.05933983 0.010087172 -0.07157993
0003d0 18 5b a5 bd 04 06 ef bd c8 ed 5e bd fe bf e5 bd
       -0.080740154 -0.11671069 -0.054425985 -0.1121826
0003e0 55 cc d0 bd cb fd c9 3d 38 db 43 bc e2 97 06 bd
       -0.10195223 0.0986286 -0.011954121 -0.03285969
0003f0 29 6e 84 3d 6c cf fc 3d 0a bc ab bd 2a 9b b7 bd
       0.06466324 0.1234425 -0.08385475 -0.08965142

lstm.bias_ih_l0 f4 [256]
000000 1c 68 9b bc d1 0c 61 bb 16 b7 ae bc b1 81 99 3d
       -0.018970542 -0.0034339915 -0.021327537 0.0749544
000010 9e 16 4a 3d 66 ad 13 3e 70 6b cd 3d e1 15 86 bd
       0.049337976 0.14421615 0.10030258 -0.06547142
000020 d8 d3 86 bd 9a 6a 31 3d a7 48 32 3e 61 55 1d 3d
       -0.06583375 0.043314554 0.17410527 0.0384115
000030 a0 6b da 3d 89 b7 80 bd 5a 44 e1 bd 5f 70 f2 bc
       0.10665059 -0.062850066 -0.10999365 -0.029594598
000040 96 bd 87 3d 27 83 26 3e f5 fd 21 3d 25 a6 e7 3d
       0.066279575 0.16260968 0.039548833 0.113109864
000050 0a 32 67 bc 1b 14 3b 3e 60 36 95 bc 35 84 c4 3d
       -0.014111051 0.18269388 -0.018214405 0.09595529
000060 02 0b 8a bd b7 52 95 bd 3e 94 d7 3d 1e a1 8b bd
       -0.06740381 -0.07291167 0.10526322 -0.0681784
000070 27 de 3d 3d 28 29 d0 3d 5e f4 4e bd 9d cf 73 bd
       0.04635444 0.101641 -0.050526015 -0.059524167
000080 1d e5 5e 3c 62 38 bb 3d 1a 19 69 3d 05 28 17 3e
       0.01360443 0.091416135 0.056908704 0.1476136
000090 c5 0d d0 3d 17 10 e9 bc d9 25 17 bd e5 f6 6e 3d
       0.10158876 -0.028450055 -0.03690133 0.058340926
0000a0 53 48 7f bd 0d c7 cb 3d 9d 57 f9 bd 7d 53 b0 bd
       -0.062324833 0.09950075 -0.12174914 -0.08609674
0000b0 b4 84 99 bd cf 4f 86 bd 64 d6 b4 3d 64 1c 0b 3d
       -0.07496014 -0.06558191 0.08829954 0.033962622
0000c0 c4 ab 3d 3e 2e ac c8 3d 94 0e ef bc e4 b0 ca 3c
       0.18522555 0.09798466 -0.029181756 0.024742551
0000d0 c6 4b 30 bd bf 9f a6 3d ef 27 b0 3d 50 1e 02 bd
       -0.043041013 0.08135938 0.08601367 -0.03176719
0000e0 3d 78 e6 3d 8f bd 00 be d5 26 00 3e 7b c4 8e 3a
       0.112534024 -0.12572311 0.12514813 0.0010892296
0000f0 23 24 ad 3c d2 43 20 3d f4 d5 82 bd 36 e2 c6 3d
       0.021135395 0.03912718 -0.063884646 0.09711115
000100 4f a8 cb 3d 67 ae 74 bd d5 0a 9d 3d 56 ad ac bd
       0.09944212 -0.059736636 0.07668082 -0.08431499
000110 be 9f 56 bd bc b8 0e 3e f4 e1 80 bc a6 77 7b 3c
       -0.052398436 0.13937658 -0.015732743 0.015348351
000120 6d 04 61 3d 1a 39 8d 3d bc e8 b6 bd 76 b5 5c bc
       0.05493586 0.06895657 -0.08931109 -0.013470998
000130 0d 9c 89 3c b4 a8 8f 3d d7 03 a0 bd c8 e1 b7 bd
       0.016798044 0.070145994 -0.078132324 -0.08978611
000140 49 a5 d3 bd 48 82 51 3d 06 95 91 bd a5 9f 45 3d
       -0.1033426 0.051149637 -0.07108502 0.048247952
000150 80 5f 8f 3c 03 73 a2 3d f6 fb 6e bd d9 40 b9 bd
       0.017501593 0.07932093 -0.058345757 -0.09045572
000160 ef bb e9 bd e0 84 8d bd 0f ca 5e bd 8a 58 7e bd
       -0.114127986 -0.069101095 -0.054391917 -0.062096156
000170 4d e6 01 be 91 bf e4 bc b3 cd e9 3d bd 09 6b 3d
       -0.12685509 -0.027923377 0.11416187 0.057382334
000180 28 6b 1c 3e ab 89 15 3e 0b 01 bf 3c f8 6e 41 bd
       0.15275252 0.14603297 0.023315927 -0.04722497
000190 5c 16 3f bd 4f 4c 89 3d b4 af b3 3d 35 78 e7 bd
       -0.046652183 0.06704008 0.08773747 -0.113022245
0001a0 23 f4 9b bd c6 29 a7 3c 44 ca 0e bd 5a dd d1 bd
       -0.07614925 0.020405661 -0.034860864 -0.102472976
0001b0 e0 b5 08 be 22 8b 3a bd a2 81 2e 3d 4f 53 a7 bd
       -0.1335063 -0.045542844 0.042604096 -0.08170187
0001c0 06 cd 90 bd 4d f1 f1 bd b4 9e 85 3b 19 ed 08 3d
       -0.07070355 -0.118136026 0.004077757 0.03342924
0001d0 9e a6 f0 3c dc d1 a4 bd 7f 00 aa bd 40 cd 15 bd
       0.029376324 -0.0804784 -0.08300876 -0.036572695
0001e0 6b 63 02 3e e9 eb d9 3d be c1 d9 bd 83 34 b1 3c
       0.12733237 0.106406994 -0.106326565 0.021631485
0001f0 2d 34 6e bc b9 cc 84 bc 87 ef c6 3d 6f 3f d8 3d
       -0.014538807 -0.0162109 0.09713655 0.10558974
000200 ac 24 37 bd e6 0a 00 be c9 af 37 3d 41 7f 67 3c
       -0.044712707 -0.12504157 0.044845376 0.014129461
000210 e9 4c 67 bd d1 dc 67 bd 7d 43 a0 bd bd 47 f7 bd
       -0.05646983 -0.05660707 -0.07825372 -0.1207423
000220 15 b9 ce 3c 5a 1b c1 bd 46 8c dd bc 60 63 9a bd
       0.025234738 -0.09429045 -0.027044427 -0.075384855
000230 7b c7 08 3d d0 14 4d bd 3a 21 54 bc 69 ea bb 3c
       0.033393364 -0.050068676 -0.012947375 0.022938924
000240 8d c8 74 3d 9e 02 7d 3d 1f 81 b1 3d 98 ec bf 3d
       0.059761573 0.061770074 0.08667206 0.093712986
000250 5d 9f c0 bb de 17 f8 3d 4d 70 ed bb 6c 81 02 be
       -0.0058783726 0.12113927 -0.0072460533 -0.12744683
000260 81 5b 5a 3d fa 40 26 bd 68 3d d3 3b e3 7d 52 3b
       0.05330992 -0.04058931 0.006446529 0.0032118491
000270 28 4e ce 3d b0 21 98 3d e0 77 b5 3c cf 55 7f bd
       0.10073501 0.074283004 0.022151887 -0.062337693
000280 65 88 0e 3e 00 48 dd bd ae 1f 59 3d de c1 32 3d
       0.13919218 -0.108047485 0.053008728 0.043641917
000290 57 6a 6e bc 25 8d 8f bd 2f 5c 84 3d c3 d7 a1 3d
       -0.014551721 -0.07009343 0.06462895 0.079024814
0002a0 23 ca 7d 3d 73 71 c9 3d 2d 6b 38 bc 0c f9 c3 bd
       0.06196035 0.09836092 -0.011256021 -0.09568986
0002b0 ea 2b 11 3c 97 3e 45 bd 83 7d f5 bd f7 82 5a bd
       0.008860568 -0.048155393 -0.1198683 -0.053347554
0002c0 ed 89 68 3d d9 09 3c 3d b3 50 42 bd ad 0f 10 bd
       0.05677216 0.04590783 -0.047440242 -0.0351712
0002d0 f5 5e 1b bc 4c 52 2f 3b 18 11 48 bd 7c 88 a0 3d
       -0.009483089 0.0026751934 -0.048844427 0.07838532
0002e0 f1 88 08 bd 3f 32 b0 bd 13 45 47 3c 7c 5a 7a bd
       -0.033333723 -0.08603334 0.012162465 -0.06112145
0002f0 a5 1f 3c bd d0 1c ff bb 0f a2 b4 bc 0d c2 dc 3d
       -0.045928616 -0.007785417 -0.022049932 0.107792
000300 61 68 d1 3d f9 eb e9 bd 39 24 99 bd 4c ca d4 bd
       0.10224987 -0.11421961 -0.07477612 -0.103901476
000310 c7 5b 37 bd 53 2d 2b 3e 1d 2e 20 3d 5b 58 1f 3e
       -0.04476526 0.16716509 0.039106477 0.15561049
000320 5d 8c 65 bc 29 b3 83 bc 7c c1 2d 3e 97 8b 04 3e
       -0.014010516 -0.016076641 0.1696834 0.12943874
000330 2b c3 91 3b 9d 89 a4 3d 8e 77 fa bb 7a 59 5c 3d
       0.0044483147 0.0803406 -0.0076436466 0.05379627
000340 e6 3a 84 bd b0 e0 bd 3d 1c 10 8b 3d c0 e6 ff bd
       -0.064565465 0.09271371 0.06790182 -0.12495184
000350 2a 18 16 bc ba 71 04 3e 9b 95 b9 bc e7 7e 8c 3d
       -0.009161035 0.12934008 -0.022654345 0.06860142
000360 80 0a 86 bd 90 8a e5 3d f3 38 19 3e a8 35 7e 3d
       -0.065449715 0.11208069 0.1496313 0.06206289
000370 91 4a c0 bc 8e a7 37 3e 74 29 0a 3e bb 63 08 3e
       -0.023473056 0.17935011 0.13492376 0.13319294
000380 bb ad 35 3e af ea 47 3d dd 67 f4 3c b2 c1 32 bd
       0.17742054 0.048807796 0.029834682 -0.043641753
000390 dc ab 75 bd e1 d2 ae 3c 7e 15 2c bd f4 4f 76 bc
       -0.05997835 0.02134079 -0.042012684 -0.015033711
0003a0 7f 18 9b bb 79 d6 39 bd 33 ea 47 3d b4 c5 05 bd
       -0.004733145 -0.045370553 0.048807334 -0.032659248
0003b0 d5 e9 6f bd 21 dc a2 bd 9b 92 a8 bd 34 6b eb 3c
       -0.05857261 -0.079521425 -0.08231088 0.028737642
0003c0 9c c6 f0 3d c9 b0 f1 3d bf f1 ad bc 61 d6 4f 3e
       0.11756632 0.11801297 -0.021233438 0.20296623
0003d0 4c 90 66 3d d1 83 22 3d fe af 8c bd 64 62 ba 3d
       0.056289956 0.03967649 -0.06869505 0.09100798
0003e0 8c f8 79 bd 49 70 73 3d 1d 0a 41 bd 9b f5 15 3e
       -0.06102805 0.059433255 -0.047128785 0.14644472
0003f0 4b f3 a3 bd 5d 76 34 3d bd 30 d1 3c 88 64 0d 3e
       -0.08005389 0.044058193 0.025535936 0.13807881

lstm.bias_hh_l0 f4 [256]
000000 0e 37 c0 bd 9f bb 1d bd 5e 04 02 3e 3c 7d b4 3d
       -0.09385501 -0.038509008 0.12696978 0.08812949
000010 33 92 fe 3d 96 58 70 3e be 39 ff 3d d1 b0 15 3e
       0.12430229 0.23471293 0.12462185 0.14618231
000020 19 90 0d 3d c1 aa bb 3d 26 5d 24 3e 74 bf be 3c
       0.03456125 0.09163428 0.16051158 0.023284651
000030 e5 82 87 3d 89 e1 e4 bd bb 0d ce bd 78 9e 95 3d
       0.06616763 -0.1117583 -0.10061213 0.07305616
000040 60 02 b2 bd 32 58 37 3e d1 2e 8a bd 96 05 f9 bd
       -0.08691859 0.17904738 -0.06747211 -0.121592686
000050 ca d6 b8 3c af d0 20 3c cf 9e 03 3e ed dd 35 bd
       0.022563357 0.009815379 0.1285355 -0.044401098
000060 90 35 33 bc 09 bd 24 bd 6b 90 72 bc f1 4d 99 bb
       -0.010938063 -0.04021934 -0.01480494 -0.004678481
000070 67 47 36 3d 82 c3 34 3e 4b 56 0d bd f0 ff fb 3d
       0.04450169 0.17652705 -0.034506124 0.123046756
000080 38 71 31 3e 95 fc 74 3c c8 4c db 3d 71 fc 00 3e
       0.17328346 0.014952798 0.10708004 0.12596299
000090 8d d0 ad 3d 7b f5 dc bd d3 31 af 3d 3f 6f e0 3d
       0.084870435 -0.10789009 0.08554425 0.109587185
0000a0 76 b4 dd 3d 89 fa 54 3d 57 96 c9 bd 0e 5a a4 3d
       0.10825436 0.05199674 -0.09843128 0.08024989
0000b0 3d 93 65 3c 3f 8c cf 3d 80 80 9f bd 7b 32 86 bc
       0.014012155 0.10134172 -0.07788181 -0.016381493
0000c0 c9 da af 3d 06 a5 5a 3d 98 d0 00 3e 20 e3 22 3c
       0.08586652 0.053380035 0.12579572 0.009941846
0000d0 ff b7 2d 3d b0 58 73 3d 85 88 c8 bd 2a d4 4d bd
       0.0424118 0.05941075 -0.09791664 -0.050251164
0000e0 c3 ea e7 bc 85 f5 eb 3c d4 c2 1f 3e 47 1f 1d 3e
       -0.028310185 0.028803596 0.15601665 0.15343963
0000f0 58 f7 ef 3d 6e 2c a2 bb 7d 27 fb 3d 64 73 18 3c
       0.11717099 -0.004949144 0.12263391 0.009304855
000100 14 2f b4 bd 03 38 b1 bc be d5 dd 3b 2d f2 66 3d
       -0.08798042 -0.021633154 0.006769865 0.0563833
000110 4f ae ba bb f7 af fb bc 1e 3b 92 bd a3 2a d3 3d
       -0.0056970487 -0.030723555 -0.07140182 0.10310867
000120 1a 8c 86 3d a7 83 af bc 17 55 cc 3d d0 55 ea 3d
       0.06569691 -0.021425081 0.09977167 0.11442149
000130 ce b6 2f 3d e7 06 75 3d 0c 58 cb 3d fa 0b 74 3c
       0.042898946 0.059821036 0.09928903 0.014895434
000140 10 3c 60 bd c9 aa 99 3d 6b 05 25 bd e8 c9 6e bd
       -0.05474478 0.07503278 -0.04028837 -0.05829802
000150 b4 f9 af bd fd 0a 7f bd fc f5 c0 3c d4 44 f9 bb
       -0.08592549 -0.06226634 0.023554794 -0.007607082
000160 ec 97 3a bd b3 10 7c bd e8 22 42 bd 9c c1 03 3e
       -0.04555504 -0.061539363 -0.04739657 0.12866825
000170 ac fa 97 3d 76 00 59 bc a0 d0 e3 3c 4b 3c 13 3e
       0.07420859 -0.013244739 0.027809441 0.14378469
000180 71 f1 1e bd e7 8a d1 bc 85 33 b5 3c b5 cc c3 bd
       -0.038804475 -0.02557893 0.022119293 -0.09560529
000190 e7 bb d7 bd 35 8b 17 bd 7c a3 8b 3d d9 4b e4 bd
       -0.105338864 -0.036997993 0.068182915 -0.11147279
0001a0 11 72 df 3d 07 b0 cd 3d 2d 86 0c bd b9 ee 03 3e
       0.10910428 0.1004334 -0.034307647 0.12884034
0001b0 92 a0 65 bd 2d 6e 81 3d 8a 67 27 bd b9 ed 0f bd
       -0.056061335 0.063198425 -0.040870227 -0.03513882
0001c0 e1 f3 74 3d c5 cb 42 3c 1f 25 80 bd 7e 97 5a bd
       0.059802894 0.011889403 -0.0625708 -0.05336713
0001d0 51 9e b2 bd 87 cf d4 3d 18 01 aa bb 0f b4 96 3c
       -0.08721603 0.10391145 -0.0051881187 0.018396406
0001e0 fb 2d 53 3d 35 24 a4 bd fa 3a c1 bd df 8a b8 bd
       0.051557522 -0.080147184 -0.09435077 -0.090108626
0001f0 b0 1a 19 3d 3d 23 9a 3c 97 bb 7f 3c 3f b4 9a 3d
       0.037378967 0.018815631 0.01560869 0.075539105
000200 f8 d1 f9 3d fd bf d5 3c b4 b1 8e 3d c1 f2 f6 3b
       0.121982515 0.026092524 0.06967488 0.0075362627
000210 48 5e e1 3d 03 66 1e 3d bb 59 9a 3c 70 0c 97 3d
       0.11004311 0.038671505 0.018841615 0.07375419
000220 6c cf 1f 3d 4d 45 ec 3d b1 dd 6a 3c 2c 36 8e 3d
       0.039016172 0.115366556 0.014335082 0.06943926
000230 ab 5a b3 3d e3 c0 98 bd e3 c5 d7 3d 52 e5 f2 3c
       0.08757528 -0.07458665 0.10535791 0.029650364
000240 9b 0b 97 bd a2 d9 d4 bd 2c 05 92 bd 56 5f a9 3d
       -0.073752604 -0.10393073 -0.07129893 0.08270137
000250 3a 92 09 3e 8f c0 b6 bd 21 ac 85 3d ce e1 87 bd
       0.13434687 -0.089234464 0.065269716 -0.06634866
000260 f0 f2 6f bd 5d 36 89 3d 29 ff 8a bc 10 c5 f5 bd
       -0.058581293 0.06699822 -0.016967373 -0.12000477
000270 68 a4 97 3d a4 29 91 3d 3a 8a 8b 3d 0c 4d 8e 3d
       0.07404405 0.070880204 0.06813474 0.06948289
000280 0d 3b 5a bd de 02 c4 3d 23 11 93 bd a0 6e 5f bd
       -0.05327897 0.095708594 -0.07181003 -0.05454886
000290 c8 11 83 3d 14 55 c8 bd e0 85 05 3e 79 3c 7b 3d
       0.06399876 -0.09781852 0.1303935 0.061336968
0002a0 86 9d b6 3c ad 42 38 bd 28 4b e8 bc 43 b5 d7 3c
       0.02229191 -0.044985462 -0.02835615 0.02633155
0002b0 b7 fd 73 3d 7d c3 01 be 5a a0 5c bd ad ad 38 3d
       0.059568133 -0.12672229 -0.05386386 0.045087505
0002c0 78 ea ab bd 5e e4 8d bc 99 0a 1c 3d 26 87 d0 3d
       -0.08394331 -0.017320808 0.038096044 0.101820275
0002d0 21 40 7b 3d 76 81 fb bd 5d 33 9d bc 6f 73 1b bc
       0.061340455 -0.12280552 -0.019189531 -0.009487971
0002e0 33 d3 96 3d 9d 29 86 bc b8 01 a1 bb 81 4b be 3c
       0.07364502 -0.016377265 -0.004913535 0.023229362
0002f0 c3 76 37 3d 20 ff e3 3d d5 86 1e bc c7 cd ef bd
       0.044790994 0.111326456 -0.009675701 -0.11709171
000300 e5 81 e4 bd ab 73 35 3d 69 15 ac 3d 5e 35 b5 3a
       -0.11157588 0.044299763 0.08402521 0.0013825109
000310 f2 cb f9 3b 5d 02 3a 3d 73 7e f5 3c 17 e4 10 3d
       0.007623189 0.04541241 0.029967522 0.035373773
000320 85 c7 98 bd 38 1b 9c bd 2c 35 e4 bc af 8d 0c 3e
       -0.0745993 -0.07622379 -0.027857386 0.13725923
000330 89 4b 6c bd 46 8e 9a 3d d4 2d c8 bd a8 fd 1b bd
       -0.057689223 0.07546668 -0.09774366 -0.038083702
000340 ef 6b c6 bd f9 ba 1a 3e 5c 57 94 3d 28 d6 b1 3c
       -0.096885554 0.15110387 0.07243225 0.021708563
000350 7f aa f5 bc 9f ee be 3c 3f cd 2e 3d f8 cd 37 3c
       -0.029988525 0.023307143 0.042676207 0.01121854
000360 ec 3d e4 bd a8 a0 1f 3c ff 60 b7 3c 46 e8 1c bd
       -0.11144623 0.009742893 0.022385119 -0.03830745
000370 cc 6f ac bd a3 f5 45 3e bb f2 ba bc 46 21 c6 3c
       -0.08419761 0.19331984 -0.022820821 0.024185788
000380 09 23 64 3e 1f 7a 22 3e 6e 7b a3 bc 88 2a 22 bd
       0.2227899 0.15866898 -0.019956317 -0.039591342
000390 9c b2 97 bd 5e 2b f8 3d 66 fb bb 3d 8c 4f 54 bd
       -0.07407114 0.12117647 0.0917881 -0.051833674
0003a0 35 f6 69 3d 4b b2 ba 3d ca b6 62 bd 93 d0 d6 bd
       0.057119567 0.09116038 -0.055350102 -0.10489001
0003b0 86 3c 8a 3d 08 e5 e8 bd ac b3 d2 bd 7b 7c 85 39
       0.06749825 -0.11371809 -0.10288176 0.00025460482
0003c0 3a 86 c8 3a b5 d2 5c bc f5 32 d5 bd 98 56 99 bc
       0.0015298792 -0.013477971 -0.1041011 -0.018718049
0003d0 53 94 e6 bb d8 97 c8 bc f3 54 21 3d dd f4 36 3c
       -0.0070367246 -0.024486467 0.039387655 0.011166778
0003e0 7e ec 85 bd 7e ba aa 3d 50 ba 93 bd bf 02 6d 3d
       -0.06539248 0.08336352 -0.07213271 0.057863947
0003f0 a5 83 6c 3d 01 31 ce bd 69 be ef bc a7 27 21 3e
       0.057742734 -0.100679405 -0.0292656 0.15737782

lstm.weight_ih_l1 f4 [256, 64]
000000 81 31 6f bd c7 59 01 be b0 6f b7 3d 01 05 b8 bd
       -0.05839682 -0.12631904 0.089568496 -0.089853294
000010 8c b3 b8 bc f5 30 53 3e d4 19 47 bc 28 06 86 3c
       -0.022546552 0.20624144 -0.012152154 0.016360357
000020 88 1d bc bc 65 6e a6 bc 5a 7b e8 bc db ba 2b 3c
       -0.0229633 -0.020316312 -0.028379131 0.0104815615
000030 47 56 14 3d b7 20 d7 3c 85 8a 32 bd 63 71 95 3d
       0.036215093 0.026260717 -0.043589134 0.072970174
000040 d8 79 47 3d 46 f4 0b 3d c4 fd 23 bd 6f 42 c4 3d
       0.048700184 0.034168504 -0.04003693 0.09582984
000050 45 5c 8e bd 5a cc e6 3c 30 1b ba bd 3a fd 06 be
       -0.06951193 0.028173614 -0.09087217 -0.13182536
000060 aa c1 40 bd 13 e5 73 3d 40 8e 02 3c 6a 20 50 3d
       -0.047059692 0.059544634 0.007968485 0.050812162
000070 32 dd 4a 3b a4 12 9d 3c aa 93 64 3d 0f 29 1b 3e
       0.0030954597 0.019173928 0.055804886 0.15152381
000080 0a 80 2c be 2a 5f 0b 3e b3 08 7f bd 88 23 d6 3b
       -0.16845718 0.13610521 -0.062264156 0.0065349974
000090 87 df ce 3d ac 32 a3 bd 47 b6 36 bd 6e ff ae 3c
       0.10101228 -0.07968649 -0.044607427 0.021362033
0000a0 be 3a 03 3d 60 b1 00 3e 26 df d0 ba 63 52 92 bd
       0.032038443 0.12567663 -0.0015935644 -0.0714462
0000b0 d3 32 9a bc 50 6b 0d be 07 97 bc bb 1f 1a e7 bc
       -0.018823063 -0.13810468 -0.0057553085 -0.028210698
0000c0 e3 4e dc 3c 37 47 d2 3b 7d ad d9 3a e4 60 27 be
       0.026893085 0.006417181 0.001660749 -0.16345555
0000d0 13 62 76 bd 51 13 51 3c 91 a9 f6 bd 05 6e 83 bd
       -0.060152125 0.012760953 -0.12044061 -0.06417469
0000e0 5c e1 9f bd 0f 61 cf bd a4 02 f1 3c 85 f6 04 3e
       -0.07806656 -0.10125934 0.029420204 0.12984665
0000f0 8d fe bf bc 90 1c 98 bd c5 8e 96 bc 91 c4 34 3c
       -0.023436809 -0.07427323 -0.018378625 0.011033193
000100 dd b5 ba 3c 27 7a 1a bc 46 ac 99 3d 5a 41 a8 bd
       0.022791797 -0.009428537 0.07503562 -0.0821559
000110 dd f8 b3 bd f5 ae cb 3c 4b a5 a5 bd b8 6e cd bd
       -0.08787701 0.0248637 -0.08088168 -0.100308836
000120 10 0a 31 3c df ea 70 bd 27 38 d1 3d 83 2f 82 3c
       0.010805622 -0.05881774 0.10215788 0.015891796
000130 96 d8 88 3d a5 5a f2 3c 4b 8b f3 bd c2 44 f9 bc
       0.066819355 0.029584238 -0.118918024 -0.030428294
000140 66 19 b4 bc ae 04 57 3d fc a9 33 3d 6d 9b f0 bd
       -0.021984767 0.052494697 0.04386328 -0.11748395
000150 d4 03 39 bd b3 87 b8 3d 2b d1 45 bd 02 63 d9 3c
       -0.045169666 0.090102576 -0.04829518 0.026536468
000160 71 05 fe 3c bf 11 f7 bd 5d 7b 70 bd 7f 1e cf bc
       0.031008454 -0.12063932 -0.0587114 -0.025283096
000170 b4 a7 ac bd a6 1d fb 3c cd a5 95 3d 10 a3 c8 bd
       -0.08430424 0.030653786 0.073070146 -0.09796727
000180 7c e3 f5 3d 71 59 99 3d 3e 38 33 bd cd 6d 33 bd
       0.1200628 0.07487763 -0.04375481 -0.043805886
000190 f0 64 b9 3d 78 f1 92 bd 46 d5 99 bd 1a e0 42 bd
       0.090524554 -0.07174963 -0.07511382 -0.047577
0001a0 d5 f3 fd 3d 83 46 9d 3d af e1 48 bd a5 c0 fc 3b
       0.12400023 0.07679465 -0.049043354 0.0077133947
0001b0 1e c4 9b bd f7 88 fe bc eb bf 44 3d 79 f0 95 bd
       -0.07605766 -0.03107117 0.04803459 -0.07321257
0001c0 03 0a 35 bd c8 93 0b be 3b f0 a8 bd d8 90 15 3e
       -0.044199 -0.13630593 -0.08248945 0.14606035
0001d0 a3 20 aa bd 29 db 5d 3d af 09 53 bd a8 a5 a6 bd
       -0.08307006 0.054164086 -0.051522907 -0.08137065
0001e0 57 64 cf 3d c4 e7 6f 3c c3 73 d3 bd 54 d2 19 bd
       0.1012656 0.01464266 -0.10324814 -0.0375541
0001f0 41 98 73 bc cb ad 8d 3d 20 c9 ab bd 33 7f 72 3d
       -0.014867843 0.06917914 -0.08387971 0.059203338
000200 2f 7a 2f 3c d2 12 b2 bd d0 72 a8 3d 33 27 d8 3d
       0.010710283 -0.08694996 0.08225024 0.10554352
000210 20 1e 8b 3d 54 ec 6c bd 82 eb fb 3d d1 39 a9 bb
       0.06792855 -0.057842568 0.12300779 -0.005164363
000220 ac 8b 0a 3d 08 9a 05 3e 33 00 06 bd 45 d2 e9 bd
       0.033824608 0.1304704 -0.032715034 -0.11417059
000230 26 ee 8f bd 0b 7a e3 3d 9e 69 2e 3c 20 e6 c7 bd
       -0.07027845 0.11107262 0.010645298 -0.0976069
000240 b0 77 0d bb 1b eb cc bd 88 a2 ea bd b1 d9 ec bb
       -0.0021586232 -0.1000578 -0.114567816 -0.0072280993
000250 b5 18 7b 3c 66 15 9e bc 24 c8 0a 3d e1 19 00 ba
       0.015325715 -0.019297313 0.033882275 -0.0004886669
000260 25 8e d3 bd b1 cf d2 bd 9d 83 54 3b e6 20 de bd
       -0.10329846 -0.1029352 0.003242708 -0.10846119
000270 41 66 3c ba 15 a2 33 3e 62 7d 1b 3d c4 fa 29 bd
       -0.0007186868 0.17542298 0.03796137 -0.041498914
000280 d2 d1 4e bd ad 0e b5 bd b6 66 cc bc 0a 6f 33 3d
       -0.05049307 -0.0884069 -0.02495132 0.043807067
000290 68 26 f4 bc 2d a5 9b 3d 1d d9 fc bd 98 7e 0c 3d
       -0.02980347 0.07599864 -0.123460986 0.034300417
0002a0 33 d6 3c bd 5e c6 1f 3c f2 4f f4 bc 17 27 cd 3c
       -0.046102714 0.009751884 -0.029823277 0.025043054
0002b0 12 ab a6 3c be 11 c6 3c dd 3b bf bd c0 39 d9 bd
       0.020345245 0.024178382 -0.0933759 -0.10606718
0002c0 e7 3e 01 bd 58 54 4b bc b1 95 a8 bd ab 7b 96 bd
       -0.03155413 -0.012410246 -0.08231676 -0.073478065
0002d0 49 19 8f bd 27 02 e5 bc d1 81 92 3b bb 51 e4 3c
       -0.06987245 -0.027955128 0.0044710417 0.027871003
0002e0 1f c9 9c 3d 99 42 42 bd 46 02 4d bd 56 75 1d 3d
       0.07655548 -0.047426794 -0.050050996 0.03844198
0002f0 fe 44 80 3d 8b 8d e8 3d ba 40 65 bd ac 1a a6 bd
       0.06263159 0.11355122 -0.05596993 -0.08110556
000300 39 5d 12 3d 15 56 a8 3d f3 39 b2 3d a5 4c 1d ba
       0.035733435 0.08219544 0.08702459 -0.00060004956
000310 9e 39 95 3c 09 75 16 3e 44 94 36 3e a7 e5 dc 3c
       0.01821595 0.14693083 0.17829996 0.026964976
000320 54 7c cf bd 25 df 00 3b 57 5d 20 bd 06 c9 1b 3e
       -0.101311356 0.0019664255 -0.039151516 0.15213403
000330 40 2f d2 bd 0b 10 20 bd 0b 3a 35 3d 63 75 c5 bd
       -0.102629185 -0.0390778 0.044244807 -0.0964153
000340 d4 25 9a 3c 43 20 0a bd 36 e0 1d 3d f3 05 26 3d
       0.018816866 -0.033722173 0.038543902 0.040533017
000350 aa d4 f1 bc 39 cc 1b be 50 f4 8f bd 27 19 db bc
       -0.029520351 -0.15214624 -0.07029021 -0.026745392
000360 bc e4 7f bd 4a 99 a3 bd 52 6d 51 bd 3c 83 e1 bd
       -0.062473997 -0.07988222 -0.051129647 -0.11011359
000370 b8 58 53 bc e9 cd 00 3d 64 9a 7e 3d 3b cf 0a 3e
       -0.01289957 0.03144637 0.062158957 0.13555615
000380 6f 1a 0f 3d bb 0c 65 3d 88 0a cb 3d cb 7b 07 3e
       0.03493732 0.055920344 0.09914118 0.13230817
000390 f3 58 a3 3d 4d 77 73 3d ce 8b 6b 3d 19 2a 62 bd
       0.0797595 0.059439946 0.057506375 -0.05521593
0003a0 72 12 1d be fc 04 f7 3d 8c d7 fc bd 13 7c 92 bd
       -0.15339068 0.120614976 -0.123458 -0.071525715
0003b0 4e e7 6f bd b6 94 c3 3d 14 9e 94 3d f9 5c ce bd
       -0.0585702 0.09549849 0.072567135 -0.10076327
0003c0 eb 12 0c be c8 db bd bb a5 51 dc bd 46 63 50 be
       -0.13679092 -0.005794022 -0.1075776 -0.2035037
0003d0 8c 9e 1c bd fd ad e8 3d bc 00 d2 3c d7 1d f3 bc
       -0.03823714 0.11361311 0.025635116 -0.029677315
0003e0 a2 fb 9d bd 38 46 00 3d 60 79 56 3d 0b 2c 6a bd
       -0.07714011 0.031316966 0.052361846 -0.05717091
0003f0 a4 e9 d6 3d 83 5a d5 bc c4 93 a2 3d c2 51 31 3d
       0.10493782 -0.026044136 0.0793834 0.04329086

lstm.weight_hh_l1 f4 [256, 64]
000000 27 95 8d bc 45 84 c8 bc 31 bd e5 3c a6 f4 1a bd
       -0.017283035 -0.024477134 0.028044315 -0.03783097
000010 3d 27 05 be 29 46 c4 bd ca 07 da bd 71 9e 18 bd
       -0.1300325 -0.095836945 -0.10646017 -0.037260476
000020 a2 cd cc bd 6e e3 d2 bd f4 c9 d7 3d 2b 85 96 3c
       -0.10000159 -0.10297285 0.105365664 0.018374046
000030 8a a8 de 3d b3 72 de 3c 22 38 b9 bc f7 ed bf 3d
       0.1087199 0.027154302 -0.022609774 0.0937156
000040 16 1b 18 3d 6c 23 a8 3d f1 9d a5 3d 53 c6 81 3d
       0.037135206 0.08209881 0.080867656 0.063366555
000050 c5 86 26 3d 8a fa 85 3d 83 34 e0 3c eb 87 a2 bd
       0.04065587 0.06541927 0.02736879 -0.079360805
000060 86 bc c0 bd 39 a2 7a 3c f5 98 23 bb d9 f3 f6 bd
       -0.09410958 0.015297466 -0.0024962996 -0.12058229
000070 e5 1a 92 3d ef 2e b9 3d 03 8b 71 bd f4 c7 f5 bd
       0.07134036 0.09042155 -0.058970463 -0.12001029
000080 62 81 25 3d ef 68 bd bd eb d8 86 bd 9f 31 ee bd
       0.040406592 -0.0924853 -0.065843426 -0.11630558
000090 e0 1d a3 3c 30 1b 03 be a9 87 35 bb 66 90 0f 3d
       0.019911706 -0.1280334 -0.0027699268 0.03504982
0000a0 2a 15 ee bd 97 79 b0 bd 65 74 66 bd 70 d8 cc bc
       -0.116251305 -0.086169414 -0.056263346 -0.02500555
0000b0 f6 5a b9 3d 8a 32 f5 3d 81 6f 5d bd 8f 4e 96 bd
       0.090505525 0.1197253 -0.054061417 -0.073392026
0000c0 e2 c4 db bd 77 e6 03 3c 7a eb 32 bd 22 42 8b bb
       -0.10730912 0.008050553 -0.0436816 -0.004249827
0000d0 d1 a1 b1 bd b9 46 d9 bd bf 6d bc bd cf 6f 2b bd
       -0.08673442 -0.106091924 -0.0920062 -0.041854676
0000e0 2e 4b f1 bd f9 27 3b bc 15 2a d5 3d 38 87 e8 3d
       -0.117819175 -0.011423104 0.10408417 0.11353916
0000f0 ce 12 02 be d9 af eb bd 78 d4 8a bd 3e 2e 79 bd
       -0.12702486 -0.1150815 -0.067788064 -0.060835116
000100 10 7f b7 3d 11 dc ef bd e4 7b b1 bd 69 8a c0 bd
       0.08959782 -0.11711896 -0.086662084 -0.094014
000110 b3 7d c7 3d c6 a2 b6 bc 05 d1 8f bd 59 9d d9 3c
       0.09740772 -0.022294413 -0.07022289 0.026564287
000120 5c 7a cd bd 45 78 da bd 67 66 e5 bc 51 6f 3c bd
       -0.10033104 -0.10667471 -0.02800293 -0.046004597
000130 2e bb c9 bc 83 89 03 3e 9a 7c ab 3d b9 3b 83 3c
       -0.024625387 0.12845425 0.08373375 0.016019689
000140 e9 a1 ae 3d e5 60 40 3d b0 a6 3a bd d8 26 f8 bc
       0.08526976 0.046967406 -0.04556912 -0.03029196
000150 1b 71 c0 3d 2e aa be 3c a8 61 62 3d 2f 80 e6 ba
       0.09396573 0.023274507 0.055268914 -0.0017585809
000160 72 ca bd bd 8b 52 9a 3d 19 59 35 3c c2 5c 4d 3c
       -0.09267129 0.07535275 0.011068606 0.012534322
000170 65 4d e4 bd d0 6c 91 3d b1 3a aa 3d 09 ba 83 3d
       -0.11147574 0.071008325 0.08311976 0.06431968
000180 63 cc 06 3e 39 a9 01 be 8f 72 09 be 7f 72 94 bb
       0.13163905 -0.1266221 -0.13422607 -0.0045302506
000190 97 8b a1 3c 68 11 a1 3d c4 27 74 bc aa 4c 31 3d
       0.019719882 0.07864648 -0.014902059 0.043286003
0001a0 f6 3b 97 3d b7 9e 4e 3d 15 98 11 be 71 37 31 bd
       0.073844835 0.05044433 -0.14218171 -0.043265764
0001b0 4e 04 ba 3c 9c b7 e4 bd ff d3 ff 3d 73 02 0d bc
       0.02270713 -0.11167833 0.12491607 -0.008606541
0001c0 0f c4 d0 bd b5 b9 a3 3c 81 58 9f 3a 85 d9 b0 3d
       -0.10193645 0.019986013 0.0012157114 0.086352386
0001d0 ae 91 ec 3d 0d 64 c6 bc 3d d7 b3 3c 7e aa 31 bd
       0.11551224 -0.02421763 0.02195322 -0.043375485
0001e0 e1 8c 9b 3d 03 55 b4 bd bc aa c8 bc bc 9f 5f 3a
       0.0759523 -0.08805277 -0.024495475 0.0008530577
0001f0 e5 b5 65 bc 86 4f fb 3d b8 62 a5 bc 16 59 ed bd
       -0.014020418 0.12271027 -0.020188674 -0.115892574
000200 13 87 a6 bd bc a2 09 bd 25 72 95 3d 1b 1d 17 3d
       -0.08131232 -0.03360246 0.07297162 0.03689299
000210 f7 ff 3b 3d 61 57 48 bd 3f af a4 3b 0a 6d c7 bc
       0.045898404 -0.048911456 0.005025774 -0.024343986
000220 9a 0f b9 3d 9e 5f 2a bd 6b bf e6 3c a5 d5 d0 3d
       0.09036179 -0.041595094 0.028167447 0.101969995
000230 94 d6 3a bd a5 87 b4 3d 96 e0 0c be 90 44 fd bd
       -0.045614794 0.08814935 -0.13757548 -0.12366593
000240 ce 43 bf bc 13 13 b9 3d db 57 e3 ba 4a 1a c7 bd
       -0.023347761 0.09036841 -0.0017344909 -0.09721811
000250 17 20 fa 3c 22 2a 66 bd 5c 41 60 bb 26 c3 68 3c
       0.03053288 -0.056192525 -0.0034218645 0.014206683
000260 67 03 cb bd 7d 9c 06 bd f1 f3 c1 bc 38 c2 05 3e
       -0.09912758 -0.032864083 -0.02367589 0.1306237
000270 8e 64 01 3c 8a 79 a6 3d f1 cf dc bc 61 77 a8 3c
       0.007897509 0.081286505 -0.026954623 0.020564737
000280 6f a3 8c bd b0 b6 83 bd 98 aa 81 3d de fe 8d 3c
       -0.0686711 -0.06431329 0.06331366 0.017333444
000290 60 b8 e6 bd b8 4e cc bd f6 7a 27 bc d3 69 62 bc
       -0.112656355 -0.09975952 -0.010222187 -0.013819176
0002a0 43 a6 8d bd 0a 69 ff bd 8c 13 b6 bd 0c 47 15 bd
       -0.069164775 -0.124712065 -0.08890447 -0.03644471
0002b0 24 49 c1 bd 08 d8 a3 3b ae 6a 30 3d f5 59 b7 bc
       -0.094377786 0.005000118 0.043070488 -0.022381762
0002c0 7e 9e a3 bc 26 ca aa bd 35 0a 00 3e de e9 06 bd
       -0.019973036 -0.08339338 0.12503894 -0.032937877
0002d0 9d fd 1c bd 39 f1 f4 3d e9 a8 b0 3d 89 d4 02 be
       -0.038327802 0.11960072 0.08625967 -0.12776388
0002e0 28 d4 a5 bc 9e 28 2c bd c7 18 c8 3b db 56 b8 bd
       -0.020242766 -0.042030923 0.0061064693 -0.09000941
0002f0 14 d1 ca 3d 60 00 8a 3d 09 30 a5 3d 30 1b ea 3d
       0.0990316 0.06738353 0.080658026 0.11430967
000300 c2 de 31 bc d0 b4 0a 3c 4a 61 a6 bd a2 6a c2 3c
       -0.010856332 0.008465961 -0.08124025 0.023732487
000310 e1 ba 45 bd 2c 51 93 bd 92 4e 4a 3d 88 bc 97 bb
       -0.048273925 -0.07193217 0.049391337 -0.004630629
000320 32 62 07 3c 17 fc 79 3d e6 18 c1 bd 6b 18 a2 bd
       0.008263158 0.061031427 -0.09428577 -0.079148136
000330 87 63 8d 3d 98 7b c4 bd 3e 92 ea 3d d0 a4 3e bd
       0.06903749 -0.09593886 0.11453675 -0.046543896
000340 8a 11 0e 3d 91 14 1b 3d 20 d8 84 bd 7e bf 3b 3d
       0.034684695 0.03786141 -0.06486535 0.045836918
000350 89 26 18 3d ef 2b 40 3d 23 00 a4 bd 8b 9d b2 bd
       0.037146125 0.0469169 -0.080078386 -0.08721455
000360 12 9a a5 bd 53 c7 d5 bc e9 97 55 bb 6c 54 e9 bb
       -0.08086027 -0.026096022 -0.0032591766 -0.0071206596
000370 6d b4 cc 3d e3 57 90 bd cb 1e f2 bd e2 21 23 3d
       0.09995351 -0.07048013 -0.118222795 0.039827235
000380 a5 11 89 3d fd ea ce bc 4d 9b 93 bd 08 57 97 3d
       0.066928186 -0.025258536 -0.07207356 0.07389647
000390 dd 33 3c 3d 2c 98 0d bd 51 aa 60 bd 31 35 fb 3d
       0.0459479 -0.03456895 -0.054849926 0.12266005
0003a0 3a 03 28 bd 7f a1 9f bb 6d 7a 02 3e eb c4 3f 3d
       -0.041018702 -0.0048715468 0.12742014 0.046818655
0003b0 9a 25 a6 bd a1 5e 59 3c 4f 4c 8d 3c 5d 8e f6 bd
       -0.08112641 0.01326719 0.0172483 -0.120388724
0003c0 42 fa 89 bd 5d 24 88 ba 61 66 1b 3d 37 4b e6 bd
       -0.06737186 -0.0010386814 0.037939433 -0.11244815
0003d0 ef f2 c8 bd ec 7d cf bc 6f ee e9 3d 4b 8b a0 3d
       -0.09811961 -0.025328599 0.11422431 0.07839068
0003e0 3e 71 0e bd cb 13 eb 3d bb 3e 07 3d d9 39 b0 3d
       -0.034775965 0.114783846 0.03301881 0.086047836
0003f0 1c 9b b7 bd ec bd bf 3d 8b 43 a4 3d be 09 63 bc
       -0.08965132 0.093623966 0.08020695 -0.013857303

lstm.bias_ih_l1 f4 [256]
000000 2a af c2 bd 68 43 e8 bd b7 e6 d7 3d 5c a7 70 3d
       -0.09506066 -0.11340982 0.10542052 0.058753356
000010 34 58 2a 3d 66 36 9a 3d 7c cc 2b bd 8d ad e3 bc
       0.041588023 0.07529907 -0.04194306 -0.027792716
000020 f5 9b a3 3d 29 2e f4 3d 3f e0 a6 bd bd 01 da 3c
       0.07988731 0.11922867 -0.0814824 0.026612157
000030 1d de 98 bd bc fb 65 bc 73 76 e3 3c 59 6c 6f 3d
       -0.0746424 -0.014037069 0.027766442 0.058452938
000040 72 db 85 bd cc 54 33 bd 10 03 b2 3c 8b f2 cb 3d
       -0.065359965 -0.04378204 0.021729976 0.09958371
000050 8b c3 af bc 69 17 c9 3b 6b c8 95 bd 2c b5 a6 3d
       -0.021455547 0.006136824 -0.07313617 0.081400245
000060 24 13 a2 3d c6 03 b5 3d e8 6b dc bd c5 07 cb 3d
       0.07913807 0.0883861 -0.10762769 0.09913591
000070 d7 0b c3 bd 3b a5 ab 3c bf 30 11 bd 3d c6 2d bb
       -0.09523743 0.020952811 -0.03544688 -0.0026515864
000080 63 48 b4 bd cd 9b ec 3c 2f 8d c5 bd 2c d2 c3 bd
       -0.08802869 0.028882885 -0.09646069 -0.095615715
000090 7e 72 b9 bd c7 db bd bd 02 ab c7 bc 47 a8 e1 bd
       -0.09055041 -0.09270435 -0.024373535 -0.110184245
0000a0 18 bf 97 b9 7a 04 7c 3d b3 bb aa 3c 27 88 5b bc
       -0.0002894334 0.061527707 0.020841455 -0.0133991605
0000b0 ad 7b c4 3c 6e 67 0d 3d 1a 7d de 3d e5 16 87 bd
       0.023984754 0.034522466 0.10863705 -0.06596164
0000c0 0b 01 a2 3c 36 df e1 bd 71 72 e9 bc b3 4c cc bd
       0.019775888 -0.11028902 -0.028496953 -0.09975567
0000d0 1f 43 57 3d 81 d0 6e bd c5 cd ed 3b 35 14 52 bd
       0.052554246 -0.058304314 0.0072571957 -0.051288802
0000e0 9a e7 71 3a 3d 2e d3 3d 9a b0 58 3c 14 e8 ab bd
       0.0009227932 0.103115536 0.013225699 -0.08393875
0000f0 68 e0 44 bd 93 cf 86 3d f2 5a 41 3a d8 73 95 3d
       -0.048065573 0.065825604 0.00073759176 0.07297486
000100 e8 2c 2e 3d aa dc d6 bd cd df 87 bd c4 e5 f0 3d
       0.042523295 -0.10491307 -0.066344835 0.11762574
000110 75 86 43 bc 61 d7 ce 3d 6e f4 be 3d 64 02 b1 bd
       -0.0119339125 0.10099674 0.09323965 -0.08643034
000120 01 56 b7 bd ee 61 8d 3d 7f 1b 08 be ca 06 43 3d
       -0.08951951 0.06903444 -0.13291739 0.047613896
000130 86 ef d4 bc 90 c8 a1 bc d0 a1 ab bd 07 52 96 bd
       -0.02599312 -0.019748956 -0.08380473 -0.07339864
000140 fa 5f 00 be e6 73 33 bd e7 eb ce bc 8d fe 98 bd
       -0.12536612 -0.0438117 -0.025258971 -0.07470427
000150 ed cf e1 3d d7 bf 5e bd 4e bc 78 bd c9 2b 58 3c
       0.11025987 -0.05438217 -0.060726456 0.013194033
000160 12 f0 c0 3d 1b ab cf 3d 17 c0 87 3d 83 3b 98 3d
       0.0942079 0.10140058 0.06628435 0.07433226
000170 90 37 b6 bd aa cb ea bc 63 f8 dd bd 5d df 34 bd
       -0.088973165 -0.028661568 -0.10838392 -0.04415833
000180 7c 89 91 3d ed f9 20 3d 35 47 e7 bd 58 f5 bb bb
       0.07106301 0.039300848 -0.112928785 -0.0057360344
000190 1e bb a9 3d b9 dc 6a bc 7d b8 39 3d 29 51 57 bd
       0.08287643 -0.014334851 0.045341957 -0.052567635
0001a0 14 fb d0 bd 29 24 e0 bd b8 96 d1 bd 55 ed 65 3d
       -0.10204139 -0.10944397 -0.102338254 0.05613454
0001b0 89 89 b2 bc 45 6b 3b 3b b8 fd a1 bd e7 b3 b1 bd
       -0.021794097 0.0028597873 -0.07909721 -0.08676892
0001c0 28 3a f9 bd f0 8d e0 3d 27 ab fb 3d 4b 14 1d bd
       -0.121692955 0.109645724 0.12288504 -0.03834943
0001d0 63 de 9e 3d d1 cb 83 bd fb 4e 8b bd 17 93 87 bd
       0.07757261 -0.06435359 -0.06802174 -0.06619852
0001e0 52 d4 b6 3d b5 b8 de bd 31 b7 e6 3d 2e 75 ff 3d
       0.08927216 -0.10875074 0.1126541 0.12473522
0001f0 e2 da b2 bd 01 2f e1 bc 46 64 8f 3d ec ca bf bc
       -0.08733155 -0.027488234 0.070015475 -0.02341219
000200 95 48 4e 3d f0 61 8c 3d d8 e8 90 3d 57 4d 8f 3d
       0.05036219 0.068546176 0.070756614 0.06997173
000210 e6 4b c2 3d 3d 70 90 bd 8e 9b a5 bd d1 9f 8e 3d
       0.09487133 -0.07052658 -0.0808631 0.06964076
000220 52 2b c1 bd 72 07 59 3d c2 61 c7 3d 27 12 cc 3c
       -0.09432091 0.052985616 0.09735443 0.024911
000230 43 60 41 3b 40 82 be 3c 1a 9b 41 3d 12 fb 09 bc
       0.002950684 0.023255467 0.047267057 -0.008421676
000240 02 86 83 bc c0 6e 28 3d 03 7c df bd 8a e5 25 bc
       -0.01605511 0.041121244 -0.10912325 -0.010125527
000250 b3 f6 56 bd a6 18 e9 3d 6c 2a eb bd e0 27 09 3d
       -0.052481364 0.113816544 -0.11482701 0.033485293
000260 5d c2 f3 bd fa 47 f9 bd f1 c6 aa 3d 5d 03 53 bd
       -0.11902306 -0.121719316 0.08338726 -0.05151688
000270 36 70 f9 3d 8b 84 c7 3c 1f fb c6 bd f9 90 b6 3d
       0.12179606 0.024355194 -0.09715866 0.0891437
000280 91 d0 97 bd 9a 55 bb 3c e0 32 fe 3d 3f d1 77 bb
       -0.07412828 0.022867966 0.124120474 -0.003781393
000290 67 db c9 3c ea 79 86 3c 2f 4c fc bc 0c 6e 85 3d
       0.024640752 0.016415555 -0.030798046 0.065151304
0002a0 c5 d9 68 bd a6 13 4e bd 4a 47 1f bd 10 cc c0 bd
       -0.056848306 -0.050311707 -0.038886346 -0.09413922
0002b0 f8 03 9d bc e5 77 d7 bd 53 b1 9d 3d 46 5e 4a 3c
       -0.019166932 -0.10520915 0.076998375 0.012351578
0002c0 6d e9 c8 bd 8a a1 16 bb 88 da 05 be cd f2 8b 3c
       -0.098101474 -0.0022984468 -0.13071644 0.01708355
0002d0 01 14 9a bb 74 cc 07 3e 63 9a 90 bd 5e 8b 20 3b
       -0.0047020917 0.13261586 -0.07060697 0.0024497132
0002e0 2f f6 a7 3d 78 3a d0 3b df 33 b8 3d 65 60 80 bc
       0.08201253 0.0063546263 0.089942686 -0.015670964
0002f0 50 5c 6d bd b8 ad f0 bd a9 29 b6 3c 92 94 9a 3c
       -0.057949364 -0.11751884 0.022236662 0.018869672
000300 53 cb e1 3d bf 24 2d bd d2 49 d8 bd f8 66 d9 3d
       0.11025109 -0.042271372 -0.10560955 0.10615343
000310 9d 7f b7 bc 59 82 f9 bd a1 a9 cc bd 72 5d db bd
       -0.022399718 -0.12183065 -0.09993292 -0.10711183
000320 01 49 15 3d f4 89 26 3b 74 8f 22 3d cd c7 d4 3d
       0.036446575 0.0025411816 0.03968759 0.103896715
000330 32 ba a1 bd dd 78 95 3c 6e 5d ab 3d 3d d5 fb 3d
       -0.07896842 0.018246109 0.0836743 0.12296531
000340 22 14 a3 bd 74 02 1b bd ec 19 19 bd 44 71 7a 3d
       -0.079628244 -0.037844136 -0.037378237 0.061143175
000350 ce 82 4a 3d b5 49 c4 bd 04 8b ac 3d a3 f3 e1 3d
       0.04944115 -0.09584371 0.084249526 0.11032798
000360 d4 fc fa 3d 33 78 3d bd 1a 54 10 bd 81 bd 8a bb
       0.122552544 -0.04625721 -0.035236456 -0.0042340164
000370 ba b4 fa 3d a2 43 cf 3d 84 4e 81 3d 6f 43 a3 ba
       0.12241502 0.10120322 0.06313804 -0.001245601
000380 a9 c2 b9 bd a0 ca 1e bd e0 4e c4 bc ce c6 83 bc
       -0.090703316 -0.038767457 -0.023963392 -0.016086008
000390 d8 3a 9f bc 3c 95 04 be f1 68 e2 3c 38 94 ed 3d
       -0.019437239 -0.12947553 0.02763793 0.11600536
0003a0 23 a8 c6 bd aa 3d de 3c 8d 45 31 bd 36 c5 af 3d
       -0.09700038 0.027129013 -0.04327922 0.08582537
0003b0 29 a4 16 3e 97 10 c3 bd 42 19 02 3d 42 06 00 3e
       0.1471106 -0.09524649 0.03176237 0.12502387
0003c0 92 ec e8 bd 18 34 8c 3d 04 0c 01 3e e4 ac 3c bd
       -0.11373247 0.068458736 0.1260224 -0.04606332
0003d0 28 5c b5 3c f3 f8 83 bd 35 a4 c7 bd 58 58 1b bd
       0.02213867 -0.06443968 -0.09748117 -0.037926048
0003e0 83 12 93 3d a1 a1 9c 3c 2d d6 73 3d ff 04 c1 3d
       0.07181265 0.01912004 0.059530426 0.09424781
0003f0 37 ef 6a bd 2f 4f aa 3d 60 de 5e bd b3 e9 97 3d
       -0.05735704 0.08315884 -0.054411292 0.074176215
