backend/models/lstm_NVDA.pth (torch, 206420 bytes, 9 tensors)

lstm.weight_ih_l0 f4 [256, 1]
-0.04665235 -0.019287637 -0.033582993 -0.048949912 0.035445042 -0.08448774 -0.073481224 0.14441693
0.15790628 -0.02856158 -0.02880316 0.055143222 0.059836686 0.021740422 0.13471386 0.13916643
0.11471285 -0.064411566 -0.08818514 0.15495576 -0.07882443 0.009430394 0.015105918 0.100867435
0.04580492 0.044602204 0.06472949 -0.06663371 0.06207394 0.16481973 0.058861353 0.06789496
0.0050108857 -0.057826184 0.05785002 0.008579452 0.040420663 -0.0795707 -0.02311017 -0.12057803
0.038397033 0.034697805 0.034213472 -0.052020803 -0.06733982 0.077170834 -0.04415975 0.019241834
-0.029454788 0.1597366 0.10701447 -0.015016363 0.008780137 -0.022389306 -0.054089416 -0.050318066
-0.017272692 0.025882514 0.12050624 0.018005894 0.0071523287 0.13067792 0.0016324063 -0.06574537
-0.07844955 0.059229266 0.06314714 0.13576752 0.04271007 -0.054757997 -0.0813322 0.06198447
-0.084025934 0.02700172 0.051793125 0.038977023 0.088519596 -0.074832454 0.13746965 0.036976106
0.10401328 -0.08765241 -0.06517455 0.10912016 0.009840081 0.06349468 -0.011549898 -0.08991385
-0.1553077 0.017437935 0.06475231 0.00420888 0.12971184 0.12126499 0.13153437 0.093680285
-0.10096778 -0.024928654 -0.06463214 -0.015888667 0.13320489 0.14661083 -0.013160572 -0.06883694
0.09663822 -0.04707815 0.12223729 0.11735467 0.015768101 0.10615937 0.12494513 0.01565929
0.1267415 -0.014341944 -0.024056677 0.064084046 0.014922067 -0.007143688 -0.033975005 0.083587036
0.0657036 0.10273971 0.0010416829 -0.03182287 0.09209214 0.0016719638 0.04548029 0.102663234
-0.03395526 -0.1020696 0.07852515 -0.075463444 -0.14772022 0.0196944 -0.15862268 0.1304247
0.15799187 0.08857747 0.071093135 0.06897177 0.06367052 0.10529876 -0.027340677 -0.018053234
0.12408003 0.015388103 0.077217855 -0.010950499 -0.125411 0.11743017 0.10056868 0.08533755
0.043353952 0.07197396 -0.13058037 0.16708213 -0.08344591 -0.13708982 -0.10561401 -0.09980158
0.12436818 -0.056434587 0.12286324 -0.0788356 -0.10299338 0.08595214 -0.1217671 0.049423195
0.12273909 -0.07171485 0.1376797 0.031226182 0.10447498 0.1675692 0.09620839 -0.09449795
-0.124800235 -0.1519493 0.042484593 0.10275499 -0.1590755 -0.1273877 -0.09556487 0.10809322
0.0037220886 -0.080542736 -0.12479127 0.10793503 -0.08282635 -0.09483654 0.11684022 -0.13696325
-0.08024163 -0.026894998 0.043655597 0.062659554 0.006511189 0.1473761 -0.063553035 0.14840998
-0.08165517 0.10429828 0.15657085 -0.005666808 -0.05310344 0.036478207 0.087044105 0.05711634
0.06923653 0.08793309 0.049714025 -0.06723269 -0.08556552 0.0058843545 0.06540367 0.13350971
-0.028794907 0.08216308 -0.02006785 0.14438786 0.10358372 0.026709968 -0.06946169 0.1085245
-0.013115294 -0.026211355 -0.06750376 0.049201038 0.06902425 0.034765482 0.10481879 0.06268005
0.045329627 0.107999295 -0.023260618 -0.018176256 -0.055288736 0.028071804 0.0036502897 -0.07190871
0.036264725 0.11587278 0.06088985 0.036614005 -0.041488197 -0.11608921 0.042863224 0.057226572
-0.060787506 0.046697907 -0.014072023 -0.056970824 0.094728716 0.006966026 -0.08421844 0.077820905
00000000: 8916 3fbd 1b01 9ebc 528e 09bd b47f 48bd
00000010: d22e 113d e907 adbd 537d 96bd 08e2 133e
00000020: 2fb2 213e faf9 e9bc 9bf4 ebbc dcdd 613d
00000030: 5017 753d f818 b23c 6ef2 093e a581 0e3e
00000040: 92ee ea3d 36ea 83bd 699a b4bd b9ac 1e3e
00000050: b46e a1bd f081 1a3c d07e 773c 9693 ce3d
00000060: f19d 3b3d cdb0 363d e590 843d 4177 88bd
00000070: 3e41 7e3d 81c6 283e 9a18 713d 830c 8b3d
00000080: 5b32 a43b 26db 6cbd 24f4 6c3d d490 0c3c
00000090: 2390 253d f7f5 a2bd 8a51 bdbc 9df1 f6bd
000000a0: 3546 1d3d 491f 0e3d 6d23 0c3d c413 55bd
000000b0: 76e9 89bd be0b 9e3d dbe0 34bd 0da1 9d3c
000000c0: 2b4b f1bc fe91 233e 672a db3d 3107 76bc
000000d0: 90da 0f3c c769 b7bc dd8c 5dbd 511a 4ebd
000000e0: 767f 8dbc 9107 d43c facb f63d 1981 933c
000000f0: 155e ea3b 6fd0 053e 77f6 d53a 82a5 86bd
00000100: 28aa a0bd 639a 723d 4a53 813d a406 0b3e
00000110: c1f0 2e3d ec49 60bd 7f91 a6bd 6de3 7d3d
00000120: ca15 acbd b632 dd3c 0725 543d 5fa6 1f3d
00000130: c349 b53d c241 99bd d8c4 0c3e 4274 173d
00000140: ea04 d53d 1b83 b3bd 3c7a 85bd 647a df3d
00000150: 4b38 213c 8009 823d c93b 3dbc c124 b8bd
00000160: fb08 1fbe 00da 8e3c dc9c 843d a5ea 893b
00000170: 2ed3 043e c759 f83d f2b0 063e 73db bf3d
00000180: 32c8 cebd 2d37 ccbc db5d 84bd f328 82bc
00000190: dd66 083e 2621 163e 719f 57bc 62fa 8cbd
000001a0: 42ea c53d 05d5 40bd 8b57 fa3d a557 f03d
000001b0: 1b2c 813c 156a d93d 3be3 ff3d e947 803c
000001c0: 86c8 013e 79fa 6abc 8212 c5bc 7f3e 833d
000001d0: af7b 743c 9915 eabb 6029 0bbd ae2f ab3d
000001e0: 9c8f 863d 3269 d23d 1489 883a b358 02bd
000001f0: ce9a bc3d cc25 db3a 8a49 3a3d 1a41 d23d
00000200: ac14 0bbd de09 d1bd cbd1 a03d 948c 9abd
00000210: f843 17be 2656 a13c fc6d 22be 0d8e 053e
00000220: 9fc8 213e 1b68 b53d 4799 913d 1241 8d3d
00000230: b165 823d e0a6 d73d 8ef9 dfbc 60e4 93bc
00000240: ac1d fe3d 621e 7c3c 6524 9e3d b969 33bc
00000250: be6b 00be 3b7f f03d f4f6 cd3d 74c5 ae3d
00000260: ea93 313d 1567 933d dcb6 05be 9417 2b3e
00000270: b0e5 aabd 4661 0cbe 284c d8bd c564 ccbd
00000280: bfb4 fe3d f427 67bd b99f fb3d 8f74 a1bd
00000290: 31ee d2bd ad07 b03d 0861 f9bd fa6f 4a3d
000002a0: a25e fb3d 3cdf 92bd e8fb 0c3e 0dce ff3c
000002b0: faf6 d53d 4397 2b3e e808 c53d 2488 c1bd
000002c0: 4497 ffbd 9998 1bbe 5304 2e3d 3571 d23d
000002d0: b0e4 22be ec71 02be 84b7 c3bd fa5f dd3d
000002e0: 49ee 733b 97f3 a4bd 9192 ffbd 0a0d dd3d
000002f0: dda0 a9bd a939 c2bd ed49 ef3d 1840 0cbe
00000300: b955 a4bd e652 dcbc 36d0 323d a753 803d
00000310: d05b d53b c3e9 163e 1828 82bd c9f8 173e
00000320: d33a a7bd 569a d53d 1c54 203e a2b0 b9bb
00000330: fe82 59bd 2c6a 153d 2e44 b23d d3f2 693d
00000340: e2cb 8d3d 4416 b43d efa0 4b3d 4bb1 89bd
00000350: fa3c afbd 8bd1 c03b 5cf2 853d c5b6 083e
00000360: 4ce3 ebbc 1e45 a83d 5565 a4bc 69da 133e
00000370: b423 d43d ddce da3c ee41 8ebd 1842 de3d
00000380: 88e1 56bc 32b9 d6bc 693f 8abd 0787 493d
00000390: 965c 8d3d 4066 0e3d 3cab d63d 665e 803d
000003a0: 8fab 393d bc2e dd3d 0d8d bebc 5fe6 94bc
000003b0: 7176 62bd d7f6 e53c b339 6f3b e044 93bd
000003c0: 528a 143d b54e ed3d a367 793d 91f8 153d
000003d0: 87ef 29bd 2ec0 edbd 5991 2f3d 6966 6a3d
000003e0: 52fc 78bd 4e46 3f3d 588e 66bc 3d5a 69bd
000003f0: 2101 c23d 4343 e43b b87a acbd 9160 9f3d

lstm.weight_hh_l0 f4 [256, 64]
-0.009835174 -0.008183601 0.09848175 0.04942751 0.018719077 -0.010950439 0.0073288707 0.05722042
0.040887523 -0.049821828 -0.067985475 -0.039681207 -0.028373059 -0.001765516 -0.06326733 0.052913126
-0.074581616 -0.08324708 -0.09315206 -0.07370368 0.042631574 -0.008169385 0.12783755 0.12263136
0.010611424 -0.07423687 -0.12100951 -0.102756225 0.024143837 0.05381765 -0.050126042 0.078912616
0.09618636 0.00869137 -0.012411529 0.0697047 -0.041960645 0.0064541907 0.007961968 -0.018235473
0.09959877 -0.019260675 -0.05072276 0.03127175 0.1077095 0.00085027504 0.036821984 -0.06350389
-0.030159062 -0.04794424 0.04428071 0.11488362 -0.1158632 -0.05768378 -0.09313525 0.054300264
-0.061224557 -0.010288213 -0.034397382 0.09152323 0.10128413 0.021944046 -0.07604225 -0.13694674
0.021433562 -0.0008099578 0.065935194 -0.0022712152 -0.08702156 0.0495938 -0.03751798 0.056240097
0.056085486 0.051601388 0.045399226 0.015066758 -0.06918639 -0.020597162 0.031734634 -0.016977876
0.057780523 -0.013737888 0.11451021 -0.08697426 -0.113639146 0.012221435 -0.031427 -0.017234568
-0.12346185 -0.068537675 -0.033689298 0.09775555 0.019514915 -0.026472729 -0.006537244 -0.04869474
0.103951894 0.068861224 -0.08580607 -0.059795074 -0.092962265 0.0060623987 -0.09071353 -0.03712464
0.13705608 -0.121564545 -0.031169781 0.12951845 0.056198236 0.004263886 -0.07974527 -0.06587417
-0.14534618 0.035934582 -0.019588178 0.0027490414 0.01754485 -0.017317254 0.09970564 0.039077938
-0.06475356 0.104541734 -0.03056656 -0.005487179 -0.059388757 -0.077520125 -0.04245034 -0.14255843
-0.10448694 -0.118087925 0.093229845 0.03264139 -0.068843976 0.113089696 -0.07676779 0.122258626
0.09705113 0.06882349 0.071029715 -0.13439374 -0.07283341 0.0019255849 -0.064942695 -0.01093165
0.041711144 -0.004590895 -0.10044514 0.03277701 0.08219885 0.082241446 0.062121656 -0.03640201
-0.09334889 0.011485565 -0.050812285 -0.031290054 0.020543765 0.061510585 -0.06752668 0.032039545
0.10013596 0.07044305 -0.027384875 0.07375179 -0.015019161 -0.07967418 -0.07352608 -0.059491843
-0.027736686 -0.13242848 -0.07650488 0.08596771 -0.037698932 -0.05988709 0.037492022 -0.0278961
0.06742409 -0.014970488 0.07548015 -0.074914455 0.002044395 -0.11829606 -0.1406006 0.09765506
-0.037610605 -0.057246726 -0.14827302 0.15025605 -0.024789037 -0.015358596 -0.04468997 0.048494175
-0.0034248058 0.010584846 0.09253669 0.09955347 0.08862599 0.12196187 -0.077719934 0.14025338
-0.05818438 0.03729255 -0.09144658 0.03242888 -0.007626848 0.0972172 0.07649559 0.07653771
0.13281804 0.07705583 0.10838242 0.06603097 0.030095527 -0.08120104 0.031359952 0.07797313
0.05279549 0.07324482 -0.019211002 -0.046142213 0.052469477 0.052486997 -0.039818436 -0.11211728
0.007987145 -0.091462374 -0.046449196 0.0277951 -0.04436636 -0.057388864 -0.05128366 -0.006429655
0.122103214 0.10508677 0.006826457 0.02938579 0.13674463 -0.025512243 -0.047417667 -0.004953699
0.03286448 -0.011789716 0.05595209 0.12144843 0.08791172 0.006565253 -0.07807068 -0.0016961272
-0.056600034 0.06242605 -0.00417346 0.12039418 -0.05733284 -0.014476943 -0.023477323 -0.008445035
00000000: b623 21bc 8314 06bc cdb0 c93d 8074 4a3d
00000010: c058 993c 7869 33bc 0627 f03b f65f 6a3d
00000020: ad79 273d f911 4cbd f83b 8bbd c388 22bd
00000030: 9e6e e8bc e368 e7ba 4d92 81bd 6fbb 583d
00000040: 3fbe 98bd 727d aabd 82c6 bebd f4f1 96bd
00000050: 729e 2e3d e2d8 05bc d9e7 023e 2726 fb3d
00000060: 8adb 2d3c 8009 98bd d5d3 f7bd db71 d2bd
00000070: 4cc9 c53c e56f 5c3d f750 4dbd f09c a13d
00000080: 5bfd c43d 3f66 0e3c ba59 4bbc 56c1 8e3d
00000090: edde 2bbd ad7d d33b ea72 023c 8f62 95bc
000000a0: 71fa cb3d 90c8 9dbc abc2 4fbd ce16 003d
000000b0: cc96 dc3d fee4 5e3a a6d2 163d 540e 82bd
000000c0: 2310 f7bc 2e61 44bd b15f 353d 1a48 eb3d
000000d0: af49 edbd d445 6cbd b2bd bebd f469 5e3d
000000e0: 9ac6 7abd e58f 28bc 45e4 0cbd 8870 bb3d
000000f0: 0e6e cf3d 00c4 b33c 0abc 9bbd c43b 0cbe
00000100: 7095 af3c 5953 54ba 0809 873d abd8 14bb
00000110: 5c38 b2bd de22 4b3d 74ac 19bd 045c 663d
00000120: e5b9 653d fa5b 533d 8af4 393d 90da 763c
00000130: 98b1 8dbd 61bb a8bc 2dfc 013d 3015 8bbc
00000140: 45ab 6c3d e114 61bc 5484 ea3d 901f b2bd
00000150: a4bb e8bd 6a3c 483c 99b9 00bd 822f 8dbc
00000160: 91d9 fcbd 7b5d 8cbd cafd 09bd 1034 c83d
00000170: bedd 9f3c 56dd d8bc 6136 d6bb 2374 47bd
00000180: bbe4 d43d 1d07 8d3d 18bb afbd aeeb 74bd
00000190: 0063 bebd 16a7 c63b 04c8 b9bd 0210 18bd
000001a0: 6e58 0c3e d5f6 f8bd c557 ffbc 7ca0 043e
000001b0: 1f30 663d 11b8 8b3b 7d51 a3bd 09e9 86bd
000001c0: a1d5 14be 2430 133d 6377 a0bc 4329 343b
000001d0: 38ba 8f3c eadc 8dbc 7832 cc3d 3010 203d
000001e0: 849d 84bd fa19 d63d b966 fabc cbcd b3bb
000001f0: a041 73bd dfc2 9ebd 68e0 2dbd d6fa 11be
00000200: 40fd d5bd 15d8 f1bd 4aef be3d fab2 053d
00000210: 12fe 8cbd 929b e73d 6e38 9dbd bb62 fa3d
00000220: bec2 c63d 54f3 8c3d 0778 913d 839e 09be
00000230: af29 95bd e863 fc3a ad00 85bd aa1a 33bc
00000240: 4ed9 2a3d 386f 96bb 2eb6 cdbd 3041 063d
00000250: df57 a83d 346e a83d 4773 7e3d 461a 15bd
00000260: b42d bfbd f42d 3c3c 8b20 50bd 002a 00bd
00000270: 664b a83c 86f2 7b3d 6e4b 8abd e63b 033d
00000280: 1514 cd3d 7244 903d 3f56 e0bc 2e0b 973d
00000290: ed12 76bc 372c a3bd d794 96bd b8ad 73bd
000002a0: 0c38 e3bc 559b 07be 97ae 9cbd d70f b03d
000002b0: 326a 1abd 2a4c 75bd 3c91 193d 5d86 e4bc
000002c0: a415 8a3d c746 75bc 5695 9a3d c06c 99bd
000002d0: 42fb 053b 3445 f2bd 9bf9 0fbe 60ff c73d
000002e0: 940d 1abd 8b7b 6abd e2d4 17be b9dc 193e
000002f0: 6112 cbbc 9fa2 7bbc d40c 37bd d4a1 463d
00000300: b572 60bb 106c 2d3c e083 bd3d b1e2 cb3d
00000310: 8b81 b53d 25c7 f93d a12b 9fbd 959e 0f3e
00000320: bf52 6ebd 13c0 183d 5848 bbbd 25d4 043d
00000330: a3ea f9bb d019 c73d b8a9 9c3d cebf 9c3d
00000340: 7401 083e 72cf 9d3d 9af7 dd3d 3f3b 873d
00000350: e58a f63c bb4c a6bd 4b73 003d 60b0 9f3d
00000360: 1540 583d 6101 963d 6460 9dbc 9eff 3cbd
00000370: 3cea 563d 9bfc 563d a818 23bd bf9d e5bd
00000380: 84dc 023c a050 bbbd 8341 3ebd 8db2 e33c
00000390: 80b9 35bd 9610 6bbd d10e 52bd dbaf d2bb
000003a0: 4011 fa3d bc37 d73d 79b0 df3b 78ba f03c
000003b0: c906 0c3e 0dff d0bc 0739 42bd a452 a2bb
000003c0: e89c 063d a729 41bc 052e 653d f4b9 f83d
000003d0: 0f0b b43d 5521 d73b 85e3 9fbd 9650 deba
000003e0: 70d5 67bd 75b2 7f3d 85c1 88bb 3991 f63d
000003f0: d7d5 6abd b330 6dbc 8453 c0bc 0b5d 0abc

lstm.bias_ih_l0 f4 [256]
-0.083345644 -0.007568283 -0.009035418 0.12723024 -0.010319802 0.027640354 0.023605201 -0.0717072
-0.034913924 0.042489193 0.11442546 -0.058335025 -0.03870808 -0.0090062795 -0.03715325 -0.103154965
0.07587774 -0.01917081 0.081593 -0.117547646 0.11855579 -0.032550726 -0.01247474 0.047741715
-0.04873527 -0.039972857 -0.017662732 -0.055385385 -0.0034147573 -0.022821372 -0.09812069 -0.112844095
0.07596915 -0.10550143 0.059441093 -0.08587814 0.09801432 -0.09731987 -0.04819074 -0.09758732
0.16029496 -0.09393046 0.06904435 0.027014272 0.014920944 0.010160276 0.038794477 0.061870717
0.06708828 0.14832588 -0.040378693 -0.106178865 0.10764633 -0.112239204 -0.10231139 -0.0886642
-0.0148766 0.06470974 0.024964357 0.038042862 0.0798403 -0.0067375624 -0.03816159 0.1325394
0.03475101 -0.05362631 0.07794524 0.022216996 -0.051740333 -0.026211506 -0.06218901 0.09170327
-0.071154475 -0.044910155 0.12057682 0.011094829 -0.056044683 -0.06101495 0.07626058 -0.058762904
0.15076093 0.027874002 -0.1024662 0.022821486 -0.031156743 0.12371486 -0.11981187 -0.05721525
-0.09828173 -0.013436473 0.094734296 0.089708164 -0.008110496 -0.11011505 0.12963134 -0.06335841
0.08573055 -0.07459009 -0.0770477 -0.05087969 -0.041751597 0.020050067 0.0623603 0.065582156
0.00045228342 -0.0653415 0.14425392 0.037271056 -0.033564292 0.077495 -0.01434324 0.10737209
0.08651433 -0.08014221 -0.10617928 -0.05724875 0.1347017 0.103751175 -0.07392928 -0.028310899
0.008144652 -0.10874467 -0.08108451 0.11519056 -0.09961129 -0.08522649 -0.10228723 -0.07851199
-0.066440515 0.04366188 0.07527127 0.061625134 -0.03680066 0.068348795 0.10875578 -0.07632433
0.05658101 -0.05313951 0.029683448 -0.1005096 -0.11796898 -0.012881596 0.025665598 0.027898313
0.018542735 0.049038667 -0.08109918 0.016405767 0.023896903 0.10794061 0.07851909 0.058055572
-0.019722624 0.059704058 -0.060954954 0.06703724 -0.09586297 -0.08395394 -0.020821167 -0.06625452
0.0894082 0.028277377 -0.080195285 -0.09670152 -0.08855115 0.016222145 -0.11615303 -0.046433583
-0.11417135 -0.01897053 -0.06988824 0.0679219 0.04566657 0.10586427 0.09316864 -0.09684219
0.076891586 0.029932443 -0.0029406534 -0.014289212 0.020208118 -0.036394816 0.032938723 -0.07607104
-0.057765216 0.014415143 -0.026916672 0.09560551 -0.0008459495 0.09353869 0.052603215 -0.024126986
0.020344216 0.029533813 0.004779639 0.0058487263 -0.06226449 0.07200366 -0.0042730602 -0.08323358
0.045381583 -0.01562969 -0.027823774 0.05601598 0.033587337 0.100084476 -0.1109276 0.0048466832
0.113802105 -0.06662032 -0.034980156 -0.11759645 -0.053581912 -0.01914904 0.06460193 -0.07964601
0.054978874 -0.11584168 0.0032657215 0.017925173 -0.044706076 0.11849424 -0.08260338 0.06402949
-0.07441153 0.097685546 0.09293969 0.12449506 -0.0256635 -0.039924525 -0.037907694 0.110535316
0.013986944 0.063788295 -0.022004131 -0.036590267 0.112206794 -0.018207723 -0.035865307 0.028882686
-0.09654149 0.031877976 0.024881216 -0.10663846 0.0777966 -0.06869008 -0.058188785 0.11635791
-0.11396493 -0.057166252 0.027265528 0.117092654 -0.10875608 -0.05379679 -0.034726672 0.115925975
00000000: 1fb1 aabd 5cff f7bb 4a09 14bc a548 023e
00000010: 6314 29bc 066e e23c b25f c13c 39db 92bd
00000020: e701 0fbd 2609 2e3d e557 ea3d b5f0 6ebd
00000030: 5d8c 1ebd 138f 13bc 022e 18bd e942 d3bd
00000040: ca65 9b3d 1a0c 9dbc 3b1a a73d d2bc f0bd
00000050: 61cd f23d e953 05bd da62 4cbc d18c 433d
00000060: a29e 47bd 94ba 23bd 6fb1 90bc c9db 62bd
00000070: 1fca 5fbb e3f3 babc 80f3 c8bd ce1a e7bd
00000080: b795 9b3d 2211 d8bd 8178 733d e1e0 afbd
00000090: bbbb c83d a44f c7bd a763 45bd dcdb c7bd
000000a0: 5d24 243e 9d5e c0bd 2067 8d3d 094d dd3c
000000b0: fa76 743c 4977 263c f5e6 1e3d 266c 7d3d
000000c0: 9565 893d bde2 173e 2164 25bd 4e74 d9bd
000000d0: ae75 dc3d abdd e5bd a288 d1bd 9395 b5bd
000000e0: fcbc 73bc 8a86 843d 0d82 cc3c d5d2 1b3d
000000f0: 5083 a33d c5c6 dcbb 544f 1cbd 69b8 073e
00000100: 1357 0e3d 43a7 5bbd c1a1 9f3d 6b00 b63c
00000110: aced 53bd 83b9 d6bc e7b9 7ebd edce bb3d
00000120: 70b9 91bd b6f3 37bd fbf0 f63d 16c7 353c
00000130: 1c8f 65bd d0ea 79bd 822e 9c3d 5fb1 70bd
00000140: 1361 1a3e 0558 e43c cdd9 d1bd 20f4 ba3c
00000150: 6d3c ffbc 375e fd3d ed5f f5bd 8a5a 6abd
00000160: ef47 c9bd a724 5cbc 0e04 c23d eab8 b73d
00000170: e3e1 04bc 0084 e1bd 14be 043e 0ec2 81bd
00000180: 8093 af3d b0c2 98bd 2fcb 9dbd 3967 50bd
00000190: b903 2bbd 0a40 a43c 846d 7f3d f04f 863d
000001a0: 7420 ed39 c4d1 85bd 4db7 133e 89a9 183d
000001b0: b67a 09bd b3b5 9e3d e9ff 6abc e6e5 db3d
000001c0: 6d2e b13d 9921 a4bd 8674 d9bd aa7d 6abd
000001d0: 3eef 093e 7f7b d43d 3c68 97bd 42ec e7bc
000001e0: 2571 053c 87b5 debd a30f a6bd 07e9 eb3d
000001f0: 0101 ccbd 3a8b aebd f87b d1bd e5ca a0bd
00000200: f711 88bd cdd6 323d d327 9a3d a36a 7c3d
00000210: 4abc 16bd 74fa 8b3d 5abb de3d ee4f 9cbd
00000220: 7dc1 673d d1a8 59bd b42a f33c fad7 cdbd
00000230: b899 f1bd 540d 53bc a940 d23c 018b e43c
00000240: efe6 973c c5dc 483d 5417 a6bd 6365 863c
00000250: 70c3 c33c f70f dd3d 9ece a03d aecb 6d3d
00000260: 5791 a1bc 3e8c 743d e7ab 79bd d24a 893d
00000270: ce53 c4bd 0bf0 abbd 2791 aabc 73b0 87bd
00000280: a51b b73d f5a5 e73c 6d3d a4bd 720b c6bd
00000290: 4e5a b5bd 4ee4 843c a4e1 edbd 2431 3ebd
000002a0: abd2 e9bd 1668 9bbc 9121 8fbd a31a 8b3d
000002b0: df0c 3b3d 5ecf d83d 33cf be3d 3355 c6bd
000002c0: 5679 9d3d e234 f53c fab7 40bb 4d1d 6abc
000002d0: 7f8b a53c bb12 15bd c1ea 063d 22cb 9bbd
000002e0: 389b 6cbd 7e2d 6c3c 5a80 dcbc d2cc c33d
000002f0: b6c2 5dba 3691 bf3d 7876 573d f5a5 c5bc
00000300: eaa8 a63c e5f0 f13c 859e 9c3b aca6 bf3b
00000310: 0d09 7fbd a876 933d 0705 8cbb 5e76 aabd
00000320: 0ae2 393d d609 80bc afee e3bc 0371 653d
00000330: e092 093d 17f9 cc3d 022e e3bd edd0 9e3b
00000340: 1411 e93d 3c70 88bd 5a47 0fbd 68d6 f0bd
00000350: b578 5bbd 73de 9cbc 044e 843d 731d a3bd
00000360: 8731 613d 673e edbd b705 563b d0d7 923c
00000370: b81d 37bd 1cad f23d f62b a9bd e521 833d
00000380: 1265 98bd 5c0f c83d 2a57 be3d 44f7 fe3d
00000390: 433c d2bc e687 23bd 1945 1bbd 5760 e23d
000003a0: 7f29 653c 70a3 823d 0242 b4bc addf 15bd
000003b0: adcc e53d 5d28 95bc 80e7 12bd 629b ec3c
000003c0: 8bb7 c5bd 7b92 023d b1d3 cb3c 4465 dabd
000003d0: d353 9f3d 62ad 8cbd 5d57 6ebd 0e4d ee3d
000003e0: 7266 e9bd 2927 6abd f55b df3c 46ce ef3d
000003f0: 82bb debd 065a 5cbd 8e3d 0ebd 996a ed3d

lstm.bias_hh_l0 f4 [256]
-0.0146587575 0.07618471 0.11138917 0.062112108 0.009596297 0.07235056 0.103586875 0.13213551
-0.01678331 -0.1031861 -0.026987644 -0.09980648 0.012253289 0.041136615 0.047992762 -0.058411475
0.073826134 -0.11349434 0.11939458 -0.08039121 0.124424174 0.050389543 0.09172021 -0.01460525
0.13416624 0.050100688 0.092430346 0.13981849 0.08919768 0.010303997 0.120412864 0.0072478503
-0.05358574 -0.035462175 0.11175725 -0.038292505 -0.0694787 -0.032905344 -0.090041466 -0.08795992
-0.07295622 0.12270533 0.10537852 -0.11707639 -0.11332304 0.055639498 -0.114055194 0.12783082
-0.078618735 -0.014575476 0.002492539 -0.06520556 0.10127574 0.020838307 0.103855446 -0.06604308
-0.052563008 -0.054816257 -0.057037387 -0.021744626 0.06439151 0.05722313 0.08503307 0.11076418
-0.100917816 -0.041845597 -0.097405024 -0.07898265 0.05894243 -0.0121178385 -0.0029994468 0.13993497
0.028082442 -0.064469814 0.09304408 0.051095612 0.01507954 -0.07214116 -0.05659767 0.0053055137
-0.0139926495 -0.08679258 -0.047033045 0.1055628 0.11425831 -0.09106838 -0.013704618 0.15151623
0.036188558 0.036927138 -0.04175274 0.092285104 -0.056028634 -0.0064208643 -0.034335043 0.087888785
-0.008986223 -0.0002721597 -0.025665937 -0.022990268 0.044217806 -0.011346713 -0.0019125233 0.048744213
-0.022510946 0.0016767512 -0.0051936163 0.12521675 0.12678376 0.1080144 -0.043126535 0.12540618
-0.008440925 -0.046595722 0.0098199025 0.020405456 -0.09682157 0.0648568 0.11923026 0.111440554
0.0036452052 0.072963975 0.01836525 0.09343777 -0.014184167 0.011937374 -0.053921297 0.13177603
-0.029991036 -0.1127131 -0.0039175665 -0.06201987 0.014448002 -0.07697544 -0.007931818 0.10560645
-0.013205746 -0.072966635 -0.0089107435 -0.077713385 0.028666835 0.024609853 0.12906137 -0.10092912
-0.03386834 -0.0646412 0.01661726 0.047363643 -0.062752955 0.053310487 -0.021849548 -0.08361957
-0.06793057 -0.11039627 0.06768926 0.0076617985 0.05711273 -0.06851166 -0.100966625 -0.013790676
0.09366244 0.040751047 -0.06502154 0.11281553 0.06748826 0.069818825 0.022946225 -0.103222325
0.10254784 -0.08583396 -0.06339739 -0.06770427 0.07726007 -0.016422894 0.030255876 0.02034105
-0.09012587 -0.05265409 -0.11011649 0.0044594547 -0.08260918 0.04513103 0.04742712 0.03750635
-0.031115929 -0.029860029 0.076555595 -0.09303315 0.053223863 -0.09738623 -0.057340674 -0.10246547
0.03341652 0.01820072 -0.0014269493 -0.03281348 0.1325375 0.09868011 -0.016245808 -0.045201145
-0.012324981 0.051663216 0.0827131 0.083590865 0.02757222 0.017595038 0.0689743 -0.0262865
0.00029090664 -0.080171004 -0.08907712 -0.07090525 -0.07423129 0.10632217 -0.12514594 0.1399356
0.07153169 -0.088473015 -0.052069135 0.01712872 -0.060839407 -0.02872509 -0.085002996 0.024309717
-0.08414895 0.036751438 0.09903994 -0.019043617 0.0347048 -0.047606446 0.003740619 0.12331322
0.07910678 0.043273713 0.10571974 -0.07283497 -0.01789955 -0.10296459 -0.07628474 -0.016822107
0.022975674 0.15213712 -0.07411363 0.044163894 0.115158476 0.027921155 -0.05200598 0.04737155
0.05030201 0.07313624 -0.000691989 0.051185735 -0.11663539 0.023543214 -0.021007748 -0.036767013
00000000: 492b 70bc bb06 9c3d 0120 e43d 4469 7e3d
00000010: c939 1d3c 882c 943d 5b25 d43d 884e 073e
00000020: 277d 89bc 3c53 d3bd 3115 ddbc 5767 ccbd
00000030: 05c2 483c de7e 283d 0f94 443d df40 6fbd
00000040: 2832 973d b86f e8bd 2585 f43d 26a4 a4bd
00000050: 1ad2 fe3d 4465 4e3d ced7 bb3d dc4a 6fbc
00000060: e062 093e 6136 4d3d 1f4c bd3d 942c 0f3e
00000070: 46ad b63d 19d2 283c 059b f63d 607f ed3b
00000080: b97c 5bbd c940 11bd fce0 e43d 9ad8 1cbd
00000090: d94a 8ebd c1c7 06bd a967 b8bd 5524 b4bd
000000a0: 126a 95bd ef4c fb3d b2d0 d73d bfc5 efbd
000000b0: e915 e8bd 3ee6 633d c595 e9bd 15e6 023e
000000c0: dc02 a1bd facd 6ebc dd59 233b 7e8a 85bd
000000d0: a869 cf3d 19b5 aa3c 2ab2 d43d 9841 87bd
000000e0: 4f4c 57bd 0387 60bd 09a0 69bd c921 b2bc
000000f0: b2df 833d cd62 6a3d d125 ae3d 55d8 e23d
00000100: 00ae cebd 4a66 2bbd 497c c7bd a8c1 a1bd
00000110: 9e6d 713d e689 46bc 5e92 44bb 1d4b 0f3e
00000120: 260d e63c c008 84bd e58d be3d a249 513d
00000130: 2d10 773c bfbe 93bd f5d2 67bd e0d9 ad3b
00000140: 6d41 65bc 4fc0 b1bd b9a5 40bd 4f31 d83d
00000150: 4300 ea3d 0f82 babd 5689 60bc 1227 1b3e
00000160: 743a 143d e940 173d ec04 2bbd f9ff bc3d
00000170: 487e 65bd 1d66 d2bb e7a2 0cbd 09ff b33d
00000180: f33a 13bc a8b0 8eb9 5f41 d2bc 1656 bcbc
00000190: bb1d 353d 90e7 39bc a2ad faba 03a8 473d
000001a0: e068 b8bc 6fc6 db3a 362f aabb d238 003e
000001b0: 9ad3 013e a736 dd3d 73a5 30bd 7a6a 003e
000001c0: ce4b 0abc 28db 3ebd a8e3 203c 5829 a73c
000001d0: 634a c6bd a4d3 843d ff2e f43d f23a e43d
000001e0: 65e4 6e3b 236e 953d b972 963c 4d5c bf3d
000001f0: b564 68bc fa94 433c 94dc 5cbd 4cf0 063e
00000200: c3af f5bc 20d6 e6bd ee5e 80bb 8c08 7ebd
00000210: 50b7 6c3c 4da5 9dbd 75f4 01bc 3248 d83d
00000220: ea5c 58bc 886f 95bd 5efe 11bc 3228 9fbd
00000230: b6d6 ea3c 9a9a c93c aa28 043e edb3 cebd
00000240: 87b9 0abd 9b62 84bd ec20 883c 6100 423d
00000250: 9f84 80bd 195c 5a3d d3fd b2bc bd40 abbd
00000260: 2f1f 8bbd 7117 e2bd aba0 8a3d d30f fb3b
00000270: 0aef 693d d74f 8cbd 97c7 cebd 4af2 61bc
00000280: 18d2 bf3d 92ea 263d 032a 85bd d40b e73d
00000290: 4937 8a3d 2cfd 8e3d b9f9 bb3c 3a66 d3bd
000002a0: 9a04 d23d b7c9 afbd 7ed6 81bd 89a8 8abd
000002b0: 873a 9e3d 4e89 86bc 2cdb f73c 46a2 a63c
000002c0: ea93 b8bd d1ab 57bd c184 e1bd 9e20 923b
000002d0: 002f a9bd 51db 383d f142 423d 42a0 193d
000002e0: d5e6 febc 059d f4bc 2ec9 9c3d 2a88 bebd
000002f0: 4401 5a3d 6f72 c7bd 0ede 6abd 6bd9 d1bd
00000300: c3df 083d ad19 953c 7908 bbba 6d67 06bd
00000310: e9b7 073e cc18 ca3d ee15 85bc d624 39bd
00000320: b8ee 49bc cf9c 533d 7c65 a93d b031 ab3d
00000330: 23df e13c 7823 903c 6642 8d3d c956 d7bc
00000340: d484 9839 b230 a4bd 116e b6bd c636 91bd
00000350: 9306 98bd 70bf d93d 4226 00be 474b 0f3e
00000360: 357f 923d 5731 b5bd 7246 55bd 8851 8c3c
00000370: be32 79bd e150 ebbc 0d16 aebd 2c25 c73c
00000380: 4956 acbd ad88 163d 74d5 ca3d 5c01 9cbc
00000390: 9f26 0e3d fafe 42bd 2c25 753b a48b fc3d
000003a0: bc02 a23d c73f 313d 9783 d83d 802a 95bd
000003b0: 14a2 92bc 19df d2bd 2c3b 9cbd 84ce 89bc
000003c0: 7b37 bc3c d5c9 1b3e e3c8 97bd 33e5 343d
000003d0: 35d8 eb3d e8ba e43c 3904 55bd ac08 423d
000003e0: 7b09 4e3d 74c8 953d 9866 35ba 22a8 513d
000003f0: 89de eebd b3dd c03c 7118 acbc 0299 16bd

lstm.weight_ih_l1 f4 [256, 64]
0.0761371 -0.10021149 0.012700913 0.11072973 0.032076836 0.059440378 -0.0817157 0.12931852
-0.012275314 0.027883472 0.07018487 0.046888463 -0.038061686 -0.019817596 -0.002904206 0.018839773
-0.08203609 -0.0025324177 -0.02192587 0.03240656 -0.13147947 -0.027789518 0.11978627 0.13285978
-0.097942814 0.12020061 0.02582041 -0.093310244 -0.10387121 0.02769074 -0.0070565203 -0.13815017
0.0825707 0.012493943 -0.044215072 -0.09426219 -0.010168369 0.02767156 -0.031691473 -0.019065166
0.043391917 0.0054754233 -0.034189664 0.06503167 0.09299159 0.08073507 0.09452374 0.10618603
-0.08230355 -0.14167677 -0.042630516 -0.05553815 -0.09772626 -0.045177948 -0.08230406 -0.07851915
-0.120329596 -0.10217795 -0.0008584972 0.05003336 -0.026978882 -0.019836329 -0.091956325 -0.11145136
-0.017746983 -0.01891151 0.082002364 0.027733145 0.03535806 0.1246822 -0.08580574 0.07193858
0.0973776 0.011850143 0.13028997 -0.12176727 0.1484243 0.14084615 -0.046526734 -0.00700319
0.10935929 -0.004731623 -0.06616437 0.005486504 0.01132272 0.08659531 0.007116976 -0.06336162
0.06028554 -0.1213327 0.0031194352 0.08443142 -0.14673755 -0.062413275 -0.049907565 -0.041050866
0.07058106 0.08944551 -0.07746495 -0.073589414 0.021668602 0.12866975 0.0010283734 0.056340657
0.060860988 -0.1032293 0.100412965 0.14918731 0.04199801 0.016686898 -0.04503291 -0.12822255
-0.14029342 -0.18290882 -0.0512852 0.10740696 -0.10741005 0.034649506 -0.0107764285 0.020821044
-0.03667145 0.033799518 -0.17370237 -0.023672 -0.11301802 -0.0890237 0.03088109 0.05376349
0.075265355 -0.01279543 -0.09285802 -0.10036476 -0.11610814 0.09007942 0.064244315 -0.06210325
-0.011939182 -0.022375584 0.09385003 -0.088248 0.15459423 0.15544161 0.11391128 -0.038528606
0.030127557 -0.0009247689 0.06047451 -0.02503413 0.07722982 -0.0054933326 -0.07484466 0.13431661
0.03411342 -0.030324414 0.073639624 0.0585233 -0.0060039693 -0.010467792 0.036033865 -0.0260154
0.018024016 0.07243684 -0.06095109 -0.13595963 -0.12668462 0.122247554 -0.109397076 0.03558622
-0.008243906 0.02266144 0.017781356 -0.07856761 -0.093727194 0.039061997 -0.06575572 -0.06436217
-0.09386686 0.00349527 -0.06336326 0.015546557 -0.13146594 -0.04834521 -0.066252775 -0.018930238
-0.017562281 -0.024659084 -0.09071785 0.10203148 -0.046057783 -0.112243935 0.0712614 -0.1011426
-0.01110494 -0.13322777 0.0044284826 0.033382505 -0.05471707 -0.02596325 0.021541415 0.017067563
0.086170994 -0.0792458 0.0002237297 -0.026788827 -0.04616176 0.10521964 0.038354937 0.0681989
0.06593836 -0.04662353 0.032945734 0.009935772 -0.062887415 -0.0066033727 0.063873336 -0.042109903
0.02735126 0.049121775 -0.08357793 -0.056893915 0.0143390335 -0.11221261 -0.14458008 -0.038467333
0.04684205 0.018954743 -0.065851524 -0.13568357 0.09216206 0.029479558 0.019800685 -0.06486607
0.094922066 0.02840276 -0.009954187 -0.04161516 -0.061946914 -0.048250392 0.030023517 0.033032052
-0.16162527 -0.15376864 0.036943566 -0.014019773 0.060281236 0.004686784 -0.13805017 -0.032760713
0.09360482 0.035453774 0.085443154 0.02641503 -0.13227335 0.03621987 0.1571834 -0.03893049
00000000: c5ed 9b3d af3b cdbd 7d17 503c 45c6 e23d
00000010: 0063 033d c177 733d 905a a7bd 136c 043e
00000020: 661e 49bc e16b e43c 16bd 8f3d 1e0e 403d
00000030: 92e6 1bbd 8358 a2bc 7e54 3ebb de55 9a3c
00000040: 8a02 a8bd ebf6 25bb e29d b3bc bebc 043d
00000050: 8ea2 06be d8a6 e3bc 8152 f53d 650c 083e
00000060: 3e96 c8bd bd2b f63d 5385 d33c 7119 bfbd
00000070: 6eba d4bd b1d7 e23c 623a e7bb 3d77 0dbe
00000080: d41a a93d 65b3 4c3c dd1a 35bd 890c c1bd
00000090: 3b99 26bc 78af e23c ebce 01bd 8d2e 9cbc
000000a0: b9bb 313d 2e6b b33b 760a 0cbd 532f 853d
000000b0: 6072 be3d 6e58 a53d aa95 c13d 1078 d93d
000000c0: c38e a8bd b713 11be 569d 2ebd f97b 63bd
000000d0: b524 c8bd 830c 39bd 088f a8bd a6ce a0bd
000000e0: 5d6f f6bd ac42 d1bd c60c 61ba c8ef 4c3d
000000f0: d102 ddbc cc7f a2bc 9953 bcbd 9c40 e4bd
00000100: 1f62 91bc 50ec 9abc dbf0 a73d 9f30 e33c
00000110: 9dd3 103d 6259 ff3d ebba afbd 8954 933d
00000120: e86d c73d 1a27 423c bc6a 053e 1e61 f9bd
00000130: 8afc 173e f939 103e d192 3ebd 047b e5bb
00000140: c3f7 df3d bb0b 9bbb 2f81 87bd 22c8 b33b
00000150: ee82 393c e258 b13d 8635 e93b bdc3 81bd
00000160: f8ed 763d 477d f8bd 706f 4c3b 61ea ac3d
00000170: 5e42 16be 10a5 7fbd e06b 4cbd f424 28bd
00000180: ce8c 903d 352f b73d f2a5 9ebd 0cb6 96bd
00000190: 5a82 b13c 01c2 033e 7cca 863a 76c5 663d
000001a0: 5f49 793d e269 d3bd 50a5 cd3d 8fc4 183e
000001b0: 1b06 2c3d f6b2 883c 6e74 38bd c64c 03be
000001c0: 14a9 0fbe 734c 3bbe 6e10 52bd 2ef8 db3d
000001d0: cdf9 dbbd a4ec 0d3d 9e8f 30bc e590 aa3c
000001e0: cd34 16bd 5d71 0a3d 09df 31be c8eb c1bc
000001f0: fe75 e7bd 0f52 b6bd 57fa fc3c 1b37 5c3d
00000200: b924 9a3d eca3 51bc 582c bebd 0a8c cdbd
00000210: 1bca edbd 8f7b b83d 8692 833d fa5f 7ebd
00000220: 8f9c 43bc 004d b7bc 7234 c03d 5ebb b4bd
00000230: f34d 1e3e 162c 1f3e 514a e93d 2cd0 1dbd
00000240: 11ce f63c 316c 72ba 1fb4 773d 6014 cdbc
00000250: ab2a 9e3d 6a01 b4bb 2848 99bd 4b8a 093e
00000260: 83ba 0b3d e86a f8bc 5fd0 963d 21b6 6f3d
00000270: f2bc c4bb 1a81 2bbc 3f98 133d 401e d5bc
00000280: 1aa7 933c c459 943d daa7 79bd 0039 0bbe
00000290: 9db9 01be ed5c fa3d 930b e0bd dbc2 113d
000002a0: 7311 07bc 7ca4 b93c 35aa 913c 0ee8 a0bd
000002b0: 0bf4 bfbd 79ff 1f3d efaa 86bd 50d0 83bd
000002c0: 453d c0bd e610 653b 99c4 81bd fcb6 7e3c
000002d0: 029f 06be a005 46bd 89af 87bd 9613 9bbc
000002e0: c6de 8fbc d901 cabc 48ca b9bd e1f5 d03d
000002f0: 16a7 3cbd 26e0 e5bd 7ff1 913d da23 cfbd
00000300: 7ff1 35bc dc6c 08be ce1c 913b 18bc 083d
00000310: 021f 60bd e2b0 d4bc 9f77 b03c 46d1 8b3c
00000320: 6b7a b03d 9f4b a2bd fc98 6a39 3e74 dbbc
00000330: 1d14 3dbd 657d d73d 111a 1d3d ddab 8b3d
00000340: b10a 873d 51f8 3ebd 1bf2 063d a6c9 223c
00000350: 1ecb 80bd 1b61 d8bb 06d0 823d 6f7b 2cbd
00000360: c00f e03c ea33 493d e82a abbd 9809 69bd
00000370: 44ee 6a3c bacf e5bd cd0c 14be ec8f 1dbd
00000380: 73dd 3f3d fa46 9b3c 2add 86bd a2f0 0abe
00000390: 76bf bc3d 1d7f f13c 0c35 a23c 81d8 84bd
000003a0: 8066 c23d e8ac e83c e316 23bc a874 2abd
000003b0: 0cbc 7dbd 34a2 45bd e1f3 f53c 9e4c 073d
000003c0: 1881 25be 8775 1dbe 2352 173d 31b3 65bc
000003d0: 75e9 763d 9893 993b 065d 0dbe 1930 06bd
000003e0: e2b3 bf3d fa37 113d d2fc ae3d 5564 d83c
000003f0: aa72 07be 495b 143d aff4 203e 9475 1fbd

lstm.weight_hh_l1 f4 [256, 64]
0.051895767 0.12850098 0.09028866 0.06963061 0.10071543 -0.11706005 -0.08690546 0.10107271
0.044098858 -0.07744848 -0.101743326 -0.10358377 -0.10953362 -0.06846883 -0.049634114 0.02462803
-0.06347935 0.09544551 -0.032395363 -0.09446843 0.03638075 -0.030339343 0.04800176 0.08020822
-0.03271986 0.12344209 -0.016382897 0.05932161 0.14686704 -0.037675835 -0.014886485 0.124037355
-0.089159444 0.028233886 0.15072714 -0.051216874 -0.09657631 0.102431946 -0.047073845 0.0312901
0.07613558 0.04903158 0.031217156 0.013498706 -0.09995832 -0.0283868 -0.022429893 0.03111696
0.07087389 0.03423473 0.033165887 -0.014760115 -0.05830455 -0.08299493 0.0878002 0.054619383
-0.027417067 -0.05881053 0.07443038 0.05174651 -0.06173192 0.13947605 -0.10787198 0.062198304
-0.12500495 0.123091884 0.07980071 -0.005799296 -0.14018194 0.070298314 -0.11816599 -0.0019111119
-0.10752868 -0.013921261 -0.116412275 -0.09171642 -0.071959585 -0.06637425 0.06558399 -0.0038447406
-0.030114658 -0.07265034 -0.043125782 0.08843215 0.037894614 0.040104404 -0.026763089 -0.13983016
0.030922528 0.020851614 -0.074719094 0.02399631 -0.056017034 0.06618193 0.07338711 0.09662164
-0.076100565 0.061657354 -0.010714446 -0.01833352 0.05882153 0.043057814 0.09406305 -0.1526828
0.11170701 -0.025727216 -0.035981923 0.020893415 -0.11289784 -0.022583231 0.05890504 -0.13582046
0.0022664168 0.09494896 0.0011564954 0.029570265 -0.037285745 -0.086179405 0.03222405 -0.019862454
-0.09900064 -0.053180125 -0.15426345 -0.1081187 -0.14721724 -0.09702794 -0.054402936 -0.0074870526
0.023507172 0.079770654 -0.077128224 -0.10332803 -0.10939676 -0.1083715 0.07467709 0.06058989
0.012616027 -0.041561935 -0.1181024 0.08517027 0.07957022 0.039815307 0.12022047 -0.124572664
0.04498867 -0.12731345 -0.082185365 -0.03703291 -0.048014898 0.0649669 0.047147077 -0.06427284
-0.13232917 -0.07257298 0.094023734 0.0034961181 -0.068157636 0.090303645 0.049362734 0.093266845
-0.082100384 -0.03766636 -0.04579979 0.040691152 -0.100726955 0.077898756 -0.082342856 0.11362325
-0.10657506 -0.037664905 -0.0693817 0.041098665 0.1065869 -0.052010436 -0.121644184 -0.06683673
-0.059906352 -0.004439692 -0.038078636 0.11606703 -0.004405562 0.09267967 0.103515424 -0.12314949
-0.07734287 0.060766283 -0.030610371 -0.09763369 -0.08053295 -0.09895337 0.07480611 -0.017276429
0.033287834 0.13656898 0.017258283 0.13324483 0.055977944 0.07692549 -0.07806388 -0.13035959
-0.093836024 0.032782804 -0.026416408 0.04980541 0.10896622 -0.030829255 -0.025032146 -0.04582673
0.040418435 0.0901324 -0.01250826 0.061664775 -0.050614923 0.05422365 -0.033257443 -0.05561464
0.048212204 0.015286959 0.13098522 -0.097666405 0.03255785 0.027659602 -0.039616637 -0.057300616
-0.07499797 -0.106796764 -0.051876195 -0.07841763 -0.09815858 -0.11790811 0.0703892 -0.032187458
0.027180992 -0.10167148 -0.0022252619 -0.020657683 -0.05773673 -0.09921595 -0.02675218 -0.005412394
0.0072560273 -0.07675015 -0.0827944 0.05460084 0.021883586 -0.1145349 -0.14490588 0.05270683
0.013933284 -0.069199175 -0.005138646 0.08863416 0.108584546 -0.012362428 0.013502736 0.019786675
00000000: a890 543d c395 033e 43e9 b83d 7e9a 8e3d
00000010: e443 ce3d 2ebd efbd 7dfb b1bd 35ff ce3d
00000020: 01a1 343d 4f9d 9ebd ce5e d0bd ba23 d4bd
00000030: 2a53 e0bd 6339 8cbd 244d 4bbd b9c0 c93c
00000040: 7601 82bd f078 c33d 00b1 04bd aa78 c1bd
00000050: fb03 153d 378a f8bc 7e9d 443d 3544 a43d
00000060: 4305 06bd 35cf fc3d 6d35 86bc 37fb 723d
00000070: 5064 163e fa51 1abd 72e6 73bc 4c07 fe3d
00000080: 3a99 b6bd c04a e73c 3758 1a3e c9c8 51bd
00000090: cdc9 c5bd d7c7 d13d 81d0 40bd 0c2a 003d
000000a0: f9ec 9b3d 57d5 483d 1fbb ff3c ad29 5d3c
000000b0: f3b6 ccbd 6f8b e8bc e5be b7bc ffe8 fe3c
000000c0: 5426 913d b739 0c3d f4d8 073d 69d4 71bc
000000d0: c0d0 6ebd 3ff9 a9bd 97d0 b33d 93b8 5f3d
000000e0: c299 e0bc 4fe3 70bd f46e 983d 26f4 533d
000000f0: 9cda 7cbd cfd2 0e3e fceb dcbd a6c3 7e3d
00000100: 4c01 00be 9917 fc3d 8e6e a33d 0508 bebb
00000110: db8b 0fbe 90f8 8f3d 0301 f2bd 467e faba
00000120: ff37 dcbd 0016 64bc 8f69 eebd d2d5 bbbd
00000130: 8c5f 93bd 39ef 87bd e650 863d 0bf8 7bbb
00000140: 04b3 f6bc b4c9 94bd a9a4 30bd ea1b b53d
00000150: 6237 1b3d 8444 243d 443e dbbc a32f 0fbe
00000160: 3e51 fd3c 01d1 aa3c 5306 99bd e993 c43c
00000170: 1e72 65bd 648a 873d fb4b 963d 91e1 c53d
00000180: 9dda 9bbd 6c8c 7c3d a58b 2fbc 2e30 96bc
00000190: d8ee 703d 645d 303d 21a4 c03d e158 1cbe
000001a0: a5c6 e43d e2c1 d2bc c861 13bd ab28 ab3c
000001b0: fc36 e7bd 7800 b9bc 6946 713d 8514 0bbe
000001c0: 2a88 143b 9a74 c23d 8c95 973a 573d f23c
000001d0: f0b8 18bd d47e b0bd 5efd 033d 96b6 a2bc
000001e0: d9c0 cabd 67d3 59bd 3df7 1dbe 566d ddbd
000001f0: 1ec0 16be 96b6 c6bd 9dd5 5ebd f355 f5bb
00000200: 1d92 c03c cc5e a33d 67f5 9dbd a59d d3bd
00000210: 690b e0bd e1f1 ddbd 4df0 983d 1b2d 783d
00000220: 74b3 4e3c d93c 2abd acdf f1bd c06d ae3d
00000230: b6f5 a23d 6015 233d 2636 f63d f41f ffbd
00000240: 0a46 383d 755e 02be cd50 a8bd d2af 17bd
00000250: 45ab 44bd 5e0d 853d 4b1d 413d 7ba1 83bd
00000260: 4c81 07be 24a1 94bd 848f c03d 211f 653b
00000270: 3b96 8bbd 1ef1 b83d 9430 4a3d b002 bf3d
00000280: 3f24 a8bd 0b48 1abd 9098 3bbd c4ab 263d
00000290: ef49 cebd 6289 9f3d 5fa3 a8bd 4eb3 e83d
000002a0: 0644 dabd 8446 1abd fe17 8ebd 1357 283d
000002b0: 3c4a da3d e508 55bd 9620 f9bd b2e1 88bd
000002c0: 5d60 75bd d67a 91bb 58f8 1bbd 8db4 ed3d
000002d0: 885c 90bb d7ce bd3d e5ff d33d cd35 fcbd
000002e0: f065 9ebd 11e6 783d 9ac2 fabc 2cf4 c7bd
000002f0: 76ee a4bd 10a8 cabd f233 993d 4c87 8dbc
00000300: d358 083d bdd8 0b3e 3e61 8d3c 5571 083e
00000310: 2149 653d 1c8b 9d3d f5df 9fbd fc7c 05be
00000320: 1a2d c0bd 4347 063d 3967 d8bc c200 4c3d
00000330: ae29 df3d a28d fcbc 3710 cdbc cfb4 3bbd
00000340: cd8d 253d 5697 b83d 72ef 4cbc 3494 7c3d
00000350: 9851 4fbd 9e19 5e3d f538 08bd 2dcc 63bd
00000360: 297a 453d 2776 7a3c fd20 063e 5305 c8bd
00000370: 615b 053d 6496 e23c 0e45 22bd 0db4 6abd
00000380: 8998 99bd 43b8 dabd 227c 54bd 6c99 a0bd
00000390: 5e07 c9bd cf79 f1bd 3628 903d ffd6 03bd
000003a0: acaa de3c 2339 d0bd b3d5 11bb 4d3a a9bc
000003b0: 597d 6cbd bb31 cbbd 6327 dbbc 745a b1bb
000003c0: f8c3 ed3b 2f2f 9dbd 1c90 a9bd 21a5 5f3d
000003d0: 3545 b33c 4691 eabd 3562 14be 1ee3 573d
000003e0: 6e48 643c 4cb8 8dbd 1662 a8bb d485 b53d
000003f0: 9361 de3d c88b 4abc 943a 5d3c aa17 a23c

lstm.bias_ih_l1 f4 [256]
-0.06548383 0.09514156 -0.022267886 -0.06788527 -0.08525607 -0.014626278 -0.016831532 0.009997136
-0.0009384856 -0.03514569 0.1267617 0.04211298 0.10729055 0.10862796 0.13094704 0.07726384
-0.11287359 0.07276461 -0.021337409 0.07010412 0.12037634 -0.067508385 0.07311239 0.13728887
0.03116931 -0.06117676 -0.09537033 -0.065360636 0.13111095 -0.0076250625 -0.027098875 -0.059623692
0.061880153 -0.016942706 0.05310654 0.07876311 -0.042440485 0.100190155 0.104914546 -0.09916034
0.043595012 -0.106747866 0.09950546 0.10969135 -0.024963306 -0.043402337 -0.10145054 -0.0643282
0.07136931 -0.019099161 -0.036760814 -0.015017687 0.029729875 0.039929714 0.0006294143 0.0074695647
-0.01159962 0.018652763 0.046683513 -0.044403613 0.067455575 0.012242865 -0.08191931 -0.08051923
0.0002974047 -0.038124304 -0.11598926 -0.035577036 0.0067160632 -0.06847179 0.027688855 0.012098608
0.042625025 0.014521822 0.12874687 0.07582644 0.07671647 -0.12132553 0.066856004 -0.108081125
-0.100658484 -0.11860061 0.05325143 0.02944698 -0.04082273 0.1341042 -0.08130102 -0.08381049
0.12285648 0.030442337 0.0362073 0.021675138 0.16263434 0.06868877 0.039647814 0.029359076
0.05658442 -0.06561459 -0.0015781517 -0.0041563264 -0.11116624 -0.039404664 0.11680199 -0.0445874
-0.10573545 0.11345761 -0.13203968 0.08664228 0.11984585 0.0342373 -0.010754569 -0.12909247
0.07928184 -0.059607103 0.073651895 -0.01110846 0.026585704 0.039017107 -0.047971517 -0.06774539
0.086932585 -0.02766724 -0.07931903 0.062184665 0.0036908074 0.08532087 -0.099732175 -0.017589882
-0.0072747744 0.040710192 0.059296083 0.0107456455 0.008350269 -0.085870095 0.010079422 -0.010903433
-0.047494203 0.021289164 0.115306854 -0.013078511 -0.056811806 -0.061321888 -0.09291153 0.103652366
-0.025111858 0.0055467156 0.090238824 -0.09917583 -0.112791315 0.010979555 -0.05500881 0.01259239
0.06108598 0.013141258 0.048532963 0.09496811 -0.055698764 -0.113617055 -0.122614264 0.053702682
0.11305538 0.052182734 -0.09640172 0.03571202 -0.058853593 -0.06818792 0.108481444 -0.026886158
0.10989994 0.011812074 -0.11878133 -0.112073675 0.112284854 -0.10359808 0.11027367 0.01774998
-0.09682602 0.06003072 0.1024484 -0.0815304 0.021714367 -0.11404747 0.06390728 -0.10529758
-0.11321825 -0.028783409 0.07496219 0.07901178 -0.09699709 -0.049486045 0.09433933 0.006745416
0.007515301 0.08695673 -0.105487436 0.08923828 -0.11208689 0.08841206 0.12227 -0.035338722
0.11812708 -0.023121353 -0.02567217 0.097696505 -0.10980844 -0.10105491 0.012158997 0.04323034
0.03965207 -0.10406153 0.14232472 0.010027554 -0.0008737399 -0.05217859 0.09754132 0.105730996
-0.08862813 -0.0802703 0.07531539 0.11347751 0.045349527 0.13947888 0.124135986 0.07678929
0.12143397 0.010601184 0.09447825 0.120087296 -0.08224853 -0.024574328 -0.045540873 0.10363333
0.04568193 0.062410604 -0.069956645 0.015290277 0.09286549 -0.017195785 -0.027198505 0.01606498
-0.13077043 -0.02711037 0.03151276 -0.07548562 -0.07109501 -0.07209279 0.10257969 0.061149877
0.044153854 -0.05105512 0.11078237 -0.086532414 -0.0997851 0.07195547 0.11803162 -0.099193215
00000000: 631c 86bd 94d9 c23d 246b b6bc 6f07 8bbd
00000010: bc9a aebd 0ea3 6fbc 48e2 89bc 07cb 233c
00000020: b404 76ba edf4 0fbd d2cd 013e a97e 2c3d
00000030: 26bb db3d 5678 de3d fb16 063e 813c 9e3d
00000040: 452a e7bd 9d05 953d cacb aebc c092 8f3d
00000050: df87 f63d d641 8abd f3bb 953d 7495 0c3e
00000060: c856 ff3c 7b94 7abd 8551 c3bd ccdb 85bd
00000070: f341 063e a9db f9bb 76fe ddbc f937 74bd
00000080: 0b76 7d3d 6ecb 8abc 3e86 593d 8e4e a13d
00000090: 13d6 2dbd 7f30 cd3d 70dd d63d 9414 cbbd
000000a0: af90 323d a09e dabd 85c9 cb3d dca5 e03d
000000b0: d97f ccbc a6c6 31bd 4dc5 cfbd 81be 83bd
000000c0: 132a 923d d875 9cbc 8292 16bd bf0c 76bc
000000d0: 118c f33c 578d 233d 47ff 243a 40c3 f43b
000000e0: 550c 3ebc aecd 983c 3637 3f3d 90e0 35bd
000000f0: 2626 8a3d 4c96 483c 50c5 a7bd 44e7 a4bd
00000100: fcec 9b39 3b28 1cbd c78b edbd 3ab9 11bd
00000110: 6c12 dc3b f03a 8cbd bdd3 e23c 3d39 463c
00000120: 9497 2e3d f0ec 6d3c 38d6 033e e44a 9b3d
00000130: 861d 9d3d 8579 f8bd cdeb 883d a359 ddbd
00000140: 0926 cebd e0e4 f2bd 2c1e 5a3d cb3a f13c
00000150: bc35 27bd 9d52 093e 2681 a6bd d6a4 abbd
00000160: 2e9c fb3d 3562 f93c 1b4e 143d 0f90 b13c
00000170: 9e89 263e b3ac 8c3d bf65 223d 7282 f03c
00000180: 11c5 673d f160 86bd fcd9 ceba cb31 88bb
00000190: 20ab e3bd c966 21bd e235 ef3d 47a1 36bd
000001a0: d48b d8bd 775c e83d 6935 07be 8271 b13d
000001b0: be71 f53d 693c 0c3d ef33 30bc d130 04be
000001c0: 845e a23d 9426 74bd ced6 963d 4200 36bc
000001d0: 43ca d93c 67d0 1f3d c87d 44bd 18be 8abd
000001e0: b609 b23d 68a6 e2bc 0472 a2bd 59b5 7e3d
000001f0: 79e1 713b b5bc ae3d 6240 ccbd a818 90bc
00000200: 3b61 eebb bbbf 263d 73e0 723d 810e 303c
00000210: 91cf 083c a9dc afbd 2924 253c 50a4 32bc
00000220: 4889 42bd 9d66 ae3c 0026 ec3d 4047 56bc
00000230: 7fb3 68bd a92c 7bbd 6648 bebd b147 d43d
00000240: 62b7 cdbc 39c1 b53b 22cf b83d b31c cbbd
00000250: 22ff e6bd 97e3 333c eb50 61bd 5050 4e3c
00000260: 4b35 7a3d 6e4e 573c 80ca 463d a47e c23d
00000270: 6324 64bd 0fb0 e8bd 301d fbbd 58f7 5b3d
00000280: 9489 e73d 90bd 553d 446e c5bd c446 123d
00000290: 7710 71bd 1ca6 8bbd 852b de3d 5c40 dcbc
000002a0: 3813 e13d 6e87 413c a043 f3bd e286 e5bd
000002b0: 9af5 e53d 3b2b d4bd 29d7 e13d 6868 913c
000002c0: b84c c6bd c6e2 753d 77d0 d13d 69f9 a6bd
000002d0: 54e2 b13c b891 e9bd d2e1 823d 42a6 d7bd
000002e0: f8de e7bd 2fcb ebbc c785 993d eed0 a13d
000002f0: 69a6 c6bd e1b1 4abd fb34 c13d a708 dd3b
00000300: ea42 f63b 5f16 b23d cc09 d8bd 8fc2 b63d
00000310: d08d e5bd 6211 b53d b268 fa3d 56bf 10bd
00000320: 9cec f13d fe68 bdbc 714e d2bc 1b15 c83d
00000330: 3fe3 e0bd e0f5 cebd 8836 473c 4c12 313d
00000340: 356a 223d 361e d5bd 92bd 113e 9c4a 243c
00000350: b10b 65ba 38b9 55bd bec3 c73d 7e89 d83d
00000360: aa82 b5bd c164 a4bd f53e 9a3d e666 e83d
00000370: 6dc0 393d 8dd3 0e3e 023b fe3d b443 9d3d
00000380: 60b2 f83d 97b0 2d3c d07d c13d 54f0 f53d
00000390: eb71 a8bd 1a50 c9bc 1189 3abd b63d d43d
000003a0: fa1c 3b3d 43a2 7f3d 6e45 8fbd 1284 7a3c
000003b0: 4330 be3d 2dde 8cbc 66cf debc b49a 833c
000003c0: afe8 05be 9116 debc 8613 013d 3498 9abd
000003d0: 439a 91bd 62a5 93bd 4d15 d23d 4b78 7a3d
000003e0: acda 343d 2c1f 51bd dee1 e23d e837 b1bd
000003f0: 215c ccbd 645d 933d 90ba f13d d025 cbbd
