backend/models/lstm_MSFT.pth (torch, 206420 bytes, 9 tensors)

lstm.weight_ih_l0 f4 [256, 1]
00000000: e9f1 403e 15b9 bd3d 733d 5ebd 6751 333d
00000010: 0b82 413d f879 653d 1d21 dd3d d6b6 b1bd
00000020: 3168 893c ae2d e9bd 38ab 8f3d 1d08 043e
00000030: 850d 813d 94d0 abbc 2ad1 c63a b076 0b3e
00000040: 7825 353d 715f 023d b443 1c3d e759 a0bd
00000050: 4c11 ed3d d7ff 5bbd c3e9 81bd 6616 a0bd
00000060: cfb6 b4ba d1cd 223e 227a aebc 15e4 823c
00000070: 0ea3 093e fe6c 073e cd27 e9bc 6c11 5fbd
00000080: 57c5 d73d c1a4 3ebc cfe9 d6bc 7873 a03d
00000090: 42b5 16bc 33a7 653d efa5 bc3d 0fd0 1d3c
000000a0: 0188 fd3a 1498 41bc a47b a93c a12e 60bd
000000b0: ddde 1bbd 94f7 c23b 75e4 ee3d e039 a93d
000000c0: ab65 fc3d c8bc ec3c 821b e83d 9f00 e0bd
000000d0: 738c 213c cb3e ec3d db92 023e 5af1 65bd
000000e0: 6945 283d 71de 57bd 817e b13d 120e 1c3e
000000f0: bd3f 2f3e 541c d9bc 9c3d 6cbd c87f dd3d
00000100: 7fbd 203e b252 3f3d b871 e73d 8a2a 1b3e
00000110: 4e47 083e 490d c8bd 3a85 a53d 8185 54bd
00000120: 26c5 c33d c87c 81bd 5e3c 8bbc fa5b e33c
00000130: 01a2 573d 893c 743d f241 3bbd f08d 1d3d
00000140: f631 253e 4742 c33d c8f2 873d 0847 debd
00000150: db84 6e3c 52e4 1abc df25 613d 27d3 953d
00000160: 7918 1d3e 30c0 89bd acd6 0b3e 8865 31bc
00000170: 8505 943c 2ae9 a3bd 4adb 6ebd d52b fb3d
00000180: 2072 f7bd 6a89 fe3d 2d04 303a 6be3 86bd
00000190: 0ed9 59be 9c2c 64bd 8b14 bc3d ae1f 01bc
000001a0: 8a2a 603c b344 c83c fc5a d73c e317 813c
000001b0: f4cc 85bc 0fda c1b9 2fde 053d e8cf 743d
000001c0: 079e 933d a81d 82bd 5dd0 50bd 5a26 16be
000001d0: 827d 2d3d b123 a2bd 75c6 98bd 2a37 183e
000001e0: fd76 283d 6be9 2dbd 731e 263e 0d25 4c3d
000001f0: 4899 303e 49a9 13be 4215 8c3d 18af e5bc
00000200: bb14 2f3e d8b6 9f3d 9a03 373e 212c c5bd
00000210: 09fe 63bd 3a0b b3ba f859 42bd 3e10 393b
00000220: d5d1 3c3e 615b 2cbe b632 f6bd 7936 d2bb
00000230: 6823 0d3e 1a7b 3b3d 8a2c 98bd 4e7d f4bd
00000240: d3eb 293e 3ca4 27be f80e fbbd dc0a e0bd
00000250: a93f ec3d 9411 c83d 366d 363e df08 04bd
00000260: 3f76 15bc 48ac dd3b fcbf b2bc 11a3 febd
00000270: 4b3d 3bbe 337e 383e 6a27 63bd 8205 f9bc
00000280: a4c7 40be e1c7 2ebe 0ef3 b23c 884e ea3c
00000290: 2356 b8bd 5afc eabd 2ad6 00bd 0734 2f3e
000002a0: f4d6 133d 211a 34bc e612 10be 7fcf 3cbd
000002b0: f231 e9bd 6f58 04be 2e0e f43d 052f 803c
000002c0: a245 1e3e 5f40 28be 514a 083e 1d40 e63d
000002d0: 5fac 28be 1547 ba3d d809 1c3d 70fa 9ebc
000002e0: cb6f 8c3d 4869 83bd b8fd 9e3c 573b f8bb
000002f0: 7737 9abd fb5b cc3d 6e9a 273e 7809 793b
00000300: f120 e73d 724f e63d f9e3 a3bc 0106 2fbd
00000310: e9fb 143d 01c3 01be cf76 48bd 9bbc 763d
00000320: 9004 6d3d c0b2 27be f242 df3c d294 94bd
00000330: 20a4 283d 7ac6 213e 57d3 363e fb7e cc3c
00000340: e1f2 063e 220c e13d c8f9 883d fe81 bfbd
00000350: 2d1b 9cbd f744 92bd 9c95 a4bc 9764 253e
00000360: 0a44 e23d ba7b dd3c e5bb 193d 9ad5 ebbc
00000370: 31ad 3b3e adca d2bb a661 4cbd d380 733d
00000380: 9ae2 83bd e74a 063e b9d4 2c3e d4ba cb3d
00000390: 8b0c 18be de8f 293c 7ed4 df3d ec27 8bbb
000003a0: 4257 233e 0c96 303e 6ec2 69bd e6ff 9dbd
000003b0: 661f 883d 1214 e6bd 2bef 213d d929 77bc
000003c0: 44e1 afbd 8ff9 753d 2a8e 943d dc80 afbd
000003d0: cf5b ae3d 3a95 ed3c 44fc a0bb 08b2 9fbd
000003e0: cbf3 ca3d f200 aabc 03f8 3f3d cba2 8cbd
000003f0: aff3 57bd 225c 0dbe b9be 25bd 8d83 0cbd
0.18842281 0.09263817 -0.05425782 0.043778803 0.04724316 0.05602452 0.107973315 -0.08677451
0.016773315 -0.11385666 0.07015079 0.1289372 0.06301407 -0.020973481 0.0015168537 0.13619494
0.044225186 0.0318293 0.038150504 -0.078296475 0.11575565 -0.053710785 -0.06343415 -0.07816772
-0.0013787391 0.15898825 -0.021298472 0.015977899 0.13441107 0.13225171 -0.028461361 -0.054459974
0.105356865 -0.01163596 -0.026234536 0.07834524 -0.009198489 0.056067657 0.09211337 0.009632125
0.00193429 -0.011816043 0.02068884 -0.05473197 -0.038054336 0.005949924 0.116646685 0.08262992
0.12324079 0.028898612 0.11333372 -0.109376185 0.009860146 0.11535414 0.12751333 -0.056138374
0.04108182 -0.05270237 0.08666707 0.15239742 0.17114158 -0.026502766 -0.057675943 0.10815388
0.15697287 0.046709724 0.11300987 0.15152946 0.1330845 -0.09768159 0.080820516 -0.05188513
0.095590875 -0.06322628 -0.016996559 0.027753819 0.052644733 0.059628043 -0.045717187 0.03846544
0.1613234 0.09534126 0.06638104 -0.10853392 0.014558042 -0.00945385 0.054967757 0.07315665
0.15341367 -0.0672611 0.1365611 -0.01082743 0.018069038 -0.08003457 -0.0583146 0.1226422
-0.120823145 0.124285534 0.00067144894 -0.06586345 -0.21274206 -0.055706605 0.09183606 -0.007881088
0.013682017 0.02444682 0.026288502 0.01575846 -0.01633308 -0.00036974295 0.032682594 0.059768587
0.07207876 -0.06353313 -0.05097996 -0.14663067 0.04235602 -0.07916964 -0.07459728 0.14864793
0.0411291 -0.042458933 0.16222553 0.049840022 0.17245972 -0.14420046 0.06839992 -0.028037593
0.17097752 0.077985466 0.17872468 -0.096275575 -0.05566219 -0.0013659962 -0.047449082 0.002823844
0.1843942 -0.16831733 -0.12021391 -0.006415185 0.13783038 0.045771696 -0.0743037 -0.119379625
0.16593866 -0.16371244 -0.122587144 -0.10939571 0.1153558 0.09768978 0.17815098 -0.032235023
-0.00912243 0.0067649223 -0.02182006 -0.12433446 -0.182851 0.18016891 -0.05545751 -0.030398134
-0.18826157 -0.17068435 0.021844413 0.0286019 -0.09000804 -0.114739135 -0.031454243 0.1710969
0.036093667 -0.010992558 -0.14069709 -0.04609632 -0.113864794 -0.1292436 0.11916767 0.01564742
0.1545625 -0.16430806 0.133096 0.112426974 -0.16472004 0.09095589 0.038095325 -0.019406527
0.0685726 -0.06416565 0.019408092 -0.0075754332 -0.0753011 0.099784814 0.16367504 0.0038000029
0.1128558 0.11245622 -0.020006167 -0.042730335 0.036373053 -0.12672044 -0.04894143 0.060238462
0.05786568 -0.16376781 0.027253602 -0.07254948 0.041172147 0.15798369 0.17854057 0.024962893
0.13178588 0.10988642 0.06688267 -0.09350966 -0.07622371 -0.0714206 -0.02009087 0.16151653
0.11048134 0.027036536 0.037532706 -0.028788377 0.18327786 -0.0064328522 -0.049897812 0.05944903
-0.06439705 0.1311451 0.16878022 0.09947744 -0.14848535 0.010349242 0.109292015 -0.0042467024
0.15951255 0.17244738 -0.05707019 -0.077148244 0.06646614 -0.11234297 0.03953473 -0.015085661
-0.08587888 0.06005245 0.07253678 -0.085695 0.08513605 0.02900182 -0.004912885 -0.07797629
0.09909781 -0.020752404 0.04686738 -0.06866988 -0.05272263 -0.13804677 -0.04046509 -0.034305144

lstm.weight_hh_l0 f4 [256, 64]
00000000: b86b ec3c 878f 093b 863f 143d fdd3 ef3b
00000010: 4549 a9bd 1f1b ecbb f5fd 82bd 0c5b 09be
00000020: 33d7 fabc 45f6 013e 7cf3 04be 5079 913d
00000030: 0f2e 813d 1c11 2c3d 340c 7bbc 1572 3e3b
00000040: d548 19bd 79fb 24bd e27e 803d e3ca c4bd
00000050: d34a 8e3a 94e5 8a3c 7b4c aebd 215e 823d
00000060: 2f5d 23bd 5999 9d3d 79d3 07be 04f8 ddbd
00000070: ec8e 83bb 09b6 8e3d 6824 83bd 0025 86bc
00000080: 9bf6 c63c 5c96 59bd c546 aabd 008c 3a3d
00000090: e550 ef3d fccd 2b3d fe72 16be 7538 1a3e
000000a0: 8fd8 fabd 1069 5fbc 60ca 1cbe 9add d3bb
000000b0: b4bf cebd 3aea bc3d 9ada 3e3d 99b1 c13d
000000c0: d375 aabd 914e a4bd 9faa e03d 3f50 b73a
000000d0: bd18 553c 1483 a63d f9f1 503c c106 07be
000000e0: e13a f73d 387e ca3d 1a4e 97bd 90c7 813d
000000f0: 7f9c 07be e05a 59bd ff70 96bd 0c46 06be
00000100: d800 ac3c 43b4 723d 6318 51bd 21b5 433d
00000110: a943 e23d c9b8 b73d 8cfa a0bd a4a5 853d
00000120: e9cd de3d 61d2 833c 1fb2 e7bc d90e 8cbd
00000130: 0bd2 913d 3025 36bd 8061 debd 690d 2c3d
00000140: ef7d 8fbd 5110 013e 19f3 82bd 9100 0b3d
00000150: 5efe 193d d341 703d 8a1c 10bd b5c4 a2bd
00000160: 5c69 913c eb0c 543d 1093 95bd 7cc4 9bbd
00000170: acd1 5a3d c703 cdbb 490c 6fbc db64 e93d
00000180: ae70 d7bd 4fc8 853d 0838 a1bd 605b 0e3e
00000190: 2d33 d73d 9964 fd3d d4f1 823d 9d00 05be
000001a0: 7ba1 df3c 2f67 38bd 32fa 013e befc 06bc
000001b0: 630f e23c f481 0fbd ed1f 383d 6907 1d3d
000001c0: d8f6 943d 9ae0 883d 5b06 06be e5cd f3bd
000001d0: d9ea 303d 08d9 bfbd 616f b1bc 4941 67bd
000001e0: 24fe d13d 5335 b9bd 59cf fcbc 96d6 a43c
000001f0: 5144 c83d 5d52 9ebd 1fa5 9f3b 95d8 e73d
00000200: 390b 183e f5df 133d c6ac ccbc 8944 a83d
00000210: e126 a7bd be8a 903d 8a03 85bd aa5d 473b
00000220: e512 963d f4f4 d2bd 7052 2abd fa6f c7bc
00000230: b05e 8ebd 2562 173e 143a 57bc f2f8 bd3b
00000240: 488d 0bbc 54a3 803d cfd6 173d 8944 823d
00000250: a9f3 0e3d d578 debd 153e b43d 1fa4 81bd
00000260: 28f4 b63d 131c ab3d 655b 953c 1e61 94bb
00000270: 7c64 733d 8745 0d3e 90cd 443d 23eb 04be
00000280: 916e ebbc e0c0 aebc b455 023d 2c3a 043e
00000290: d23e 2c3d 0a36 a6bd edd9 0a3d 2ab1 0c3e
000002a0: 5ed9 d7bd d09d 8fbd e498 1ebd 2d4a 6ebc
000002b0: 1347 80bd 2e51 8f3c 5a36 1cbd dc3c 043d
000002c0: 38d6 e0bd 58d5 4c3d 2436 7ebd 4a9d 42bd
000002d0: e2a4 e7bc 353d 4d3c de2f 1abe 390d 2c3d
000002e0: 1b14 54bd 1201 7bbd f1fb b83d 5360 0c3e
000002f0: 9404 92bd 27c7 19bd d350 bebc 9d9b 713d
00000300: d165 823c 076d f53d 4ca1 b73b 870f bf3d
00000310: 17f0 67bd eeb0 943d 89d1 4a3d d1a4 053d
00000320: 0d45 2e3e 3772 bdbd cbf7 8e3d d77a d33d
00000330: d040 ba3d e4ec 083e 8bcc a13c da5d 07be
00000340: 921d 7c3d 9970 8a3d 6de8 e8bd 0b4b 06be
00000350: 36bf bfbd b6d6 69bd 1155 433d d49a ecbc
00000360: e425 9f3d 2085 cfbd 2c9a 503c f126 eebd
00000370: 1e80 d7bd bea8 a1bd ca24 753d 5fd4 1fbc
00000380: 51bb b43c fbfc 70bd cd8f 35bd 8f58 473d
00000390: 56fb 243d f217 d8bd 7bb2 1d3c d66e e23c
000003a0: cb53 a0bd b647 ad3d dcdb 8abd 392d 0d3d
000003b0: 8b0e be3c a1d4 99bd 384c bebd 2b86 a83d
000003c0: 4c65 03bd 6dca 403d cfe5 f43d 3169 65bd
000003d0: f3bd a43d 9865 c9bd 2ab3 b1bd ed95 783d
000003e0: d845 e0bd bc70 d63b 7f7a f5bd b4a4 b53d
000003f0: d3d1 a8bd a6db b63c dc85 383d 66e6 94bc
0.028859958 0.002099009 0.036193393 0.007318972 -0.08265928 -0.0072053815 -0.06396095 -0.13413638
-0.030620193 0.126916 -0.12983507 0.07103217 0.06307613 0.042008504 -0.015322734 0.0029059697
-0.037422974 -0.040278886 0.06274201 -0.0960901 0.001085604 0.016955175 -0.08510681 0.0636561
-0.03988379 0.07695264 -0.13264264 -0.10838321 -0.0040148403 0.06968314 -0.06403428 -0.016375065
0.024287513 -0.05312191 -0.083142795 0.04554367 0.11685351 0.04194449 -0.14692304 0.15060599
-0.122483365 -0.013635889 -0.15311575 -0.006465626 -0.10095158 0.09224363 0.046595193 0.09457702
-0.083232544 -0.08022798 0.109700434 0.0013985707 0.013006386 0.0813047 0.012753003 -0.1318617
0.12071777 0.098873556 -0.073879436 0.06336892 -0.13243292 -0.05306518 -0.07345771 -0.13112658
0.020996496 0.059253942 -0.051048648 0.04778016 0.110480614 0.08970792 -0.07860288 0.06525734
0.10879118 0.016091527 -0.028283177 -0.068387695 0.07120141 -0.04446906 -0.108584404 0.042004976
-0.07006442 0.1260388 -0.063940234 0.033936087 0.0375961 0.058656525 -0.035183467 -0.07947675
0.017750435 0.051770132 -0.073034406 -0.07605836 0.053422615 -0.006256554 -0.014590331 0.1139619
-0.10519539 0.065323465 -0.07872015 0.13902044 0.10507808 0.12372703 0.06393781 -0.12988515
0.02729868 -0.04502028 0.12693098 -0.008238969 0.027595228 -0.035036042 0.04495232 0.038337145
0.07273644 0.06683464 -0.13088362 -0.11904506 0.04319272 -0.09367567 -0.021659555 -0.056458745
0.102535516 -0.09043374 -0.03086059 0.020121854 0.09778655 -0.07730553 0.004871979 0.113206066
0.14848031 0.036102254 -0.024984729 0.08216197 -0.081617124 0.07057713 -0.06494816 0.0030420818
0.073278226 -0.10300627 -0.041582525 -0.024345387 -0.06951654 0.14783533 -0.0131364055 0.005797499
-0.008517571 0.06281152 0.03707009 0.06360728 0.03490034 -0.10862891 0.08800904 -0.06330132
0.08933288 0.08354964 0.018232057 -0.004528179 0.059422 0.13796054 0.048047602 -0.12980323
-0.028739246 -0.021332204 0.031820014 0.12912816 0.042052098 -0.08115776 0.033899236 0.13739458
-0.105395064 -0.07012522 -0.038720027 -0.014544052 -0.06263556 0.017494764 -0.03813777 0.032284603
-0.10978359 0.050008148 -0.06206335 -0.047513284 -0.028276864 0.0125268 -0.15057322 0.042004798
-0.051776987 -0.061280318 0.09032429 0.1370862 -0.071297795 -0.037543442 -0.0232319 0.058986295
0.01591769 0.11983686 0.005603945 0.093291335 -0.056625452 0.07260309 0.049516235 0.032627884
0.17018528 -0.092503004 0.069808565 0.10326164 0.09094393 0.13371617 0.019750854 -0.13219395
0.061551638 0.067597575 -0.11372457 -0.13114564 -0.093626425 -0.05708953 0.047688548 -0.028882422
0.07770899 -0.101328135 0.01273207 -0.11628521 -0.10522483 -0.07893513 0.059849538 -0.009755223
0.022061976 -0.05883501 -0.044326592 0.04866844 0.040278755 -0.10551442 0.009625073 0.027640741
-0.07828482 0.084609434 -0.06780216 0.034466956 0.023200294 -0.07511259 -0.09291881 0.082287155
-0.032079026 0.04706805 0.11957895 -0.05600852 0.080440424 -0.098338306 -0.08676751 0.060689855
-0.10950822 0.0065442007 -0.11986255 0.08869305 -0.08243146 0.022321533 0.045049533 -0.018176269

lstm.bias_ih_l0 f4 [256]
00000000: 73e1 df3d 2ce7 d23d 8584 4d3d 3d73 8f3c
00000010: 38b6 8bbd a01e f9bd 680c 70bd f357 aabd
00000020: 3d84 21bc cf92 d03d c6f7 f63d d0ad e43b
00000030: 394c df3d 7742 413d c59e d33d 891f 063e
00000040: c656 75bd 6fc0 6e3d 4b21 aabc d1b0 053e
00000050: 21ae d63d b8cf 003e 83b7 913d 722e cbbb
00000060: d985 19bd 7428 8d3c 54e9 01bd ce40 98bc
00000070: 8005 34bc 7301 d3bc 2ea0 82bd fe99 023e
00000080: 074d 223e 1882 b73c 893b f8bb 1896 6ebd
00000090: 9d66 d2bc aab8 833b 38d5 9d3c 13d5 b4bd
000000a0: 8195 323d 4ec6 703d cbdc 40bd a9df 81bd
000000b0: d545 42bd 0265 453c abc2 c1bd f1c7 ca3d
000000c0: 96f1 01bd ff26 853d e567 993d 540c 88bd
000000d0: b4af af3c 4ad4 0ebd 1778 b83c 8f4f 9cbc
000000e0: 98c3 663d 844d a53d 12d6 b2bd d222 f03d
000000f0: f88e 88bc ef16 49bd 28ee 12bc 759b b7bd
00000100: ae08 8ebd 387e 5cbd c279 c6bd ca07 c93d
00000110: c207 8dbd 6032 80bb 6ef9 da3c d328 6f3b
00000120: 5c2a 113e 17f2 cc3d ac25 e53d 79b7 bb3d
00000130: 1dd0 8a3d 5d16 9bbd 1cb4 97bd cf35 8fbc
00000140: 9166 493d 4499 47bc 4921 28bd 3e28 9d3d
00000150: 4ee8 e83c 2875 31bc 2281 61ba 7ba1 c83d
00000160: db2c b1bd b5a7 a03d 966e babd 0c18 033e
00000170: 2627 0b3d 06ee 8abd 7ec3 b93d c975 c4bd
00000180: c09d 9e3d 44b7 bc3d de3c 8dbd c636 d0b6
00000190: d9da cc3d 113a f43c aae8 ea3b 7d47 a9bc
000001a0: 0069 5d3c ef35 773d d802 d5bd 1e86 3dbd
000001b0: 3610 cdbd 6fec 003e 1faa 63bd 8f9f a7bd
000001c0: 892c d8bd 6b9d 1a3c 0ef5 8abd e863 d2bd
000001d0: 9a85 c53c 4e4b cfbd 192b d13d 5c17 ecbd
000001e0: 7ace c83d cf0d 10bd ea42 9cba 85d6 913d
000001f0: 0941 cf3d fa99 aabd d7cd 8e3d ddf9 a5bc
00000200: 38c6 fd3d 4979 123d a803 973c 3281 993d
00000210: ac63 d3bc 59b1 bc3c cea6 a33d cb87 91bd
00000220: 725e c2bd 8524 bebb 9263 9dbd a15b f8bd
00000230: 51fe a23d f430 a23c 4543 2b3a 26fb 42bd
00000240: 4cd3 283d 2e85 b03d d1f5 97bd 934d 27bd
00000250: 004a ab3d ceb5 a73c 4b41 bf3d 1cac 993d
00000260: eee4 c13d d8c0 a33d cc64 80bd 9c97 e9bd
00000270: e3c7 a2bc 34bf 9a3d 256a e9bd a9fb 54bd
00000280: 639e 483d 9a88 b9bc 20ea fa3d 6edd 853d
00000290: b76a b3bd e113 a13d 1a88 09be 353b 923d
000002a0: b8e8 bbbd 7f3c f2bc 39eb 9abd affe ab3d
000002b0: 302f 1dbd 9364 0d3c 1012 923d 6a92 c6bd
000002c0: 5fda 19bd 4988 f03d 7c11 883d 2cc6 c9bd
000002d0: 71c0 3a3c c512 a53d ad5c d3bd 4c15 6b3d
000002e0: a6fe 893d 9c12 2b3d 281e b23d 60ea de3b
000002f0: 0177 dfbd 3921 38bd 3dad f1bd 15f8 a3bc
00000300: 5fb8 c73c 9b60 c5bd 4a40 073e 877d 91bd
00000310: 099b f13d 837f 01be 8142 d03d 6c91 0ebd
00000320: 471c 233e 3f81 d03d 2d33 64bd 3ef4 dabd
00000330: ef5a e3bb dcaa 40bd 9129 b73d f4f9 aabc
00000340: 5fe2 cd3d 9fa6 073e 0e2f a03d c8e4 e93d
00000350: 8034 09bd fefd 013e da93 5f3d 96f7 b33b
00000360: f2df d5bd a2b2 dfbd 5019 06be b55a 863d
00000370: 0f55 a13c f801 e23d 0427 cb3d 0229 873d
00000380: 62a7 353e 3a6b dabb fe0d c9bd 3f9c f3bb
00000390: dc16 9f3d 4b9f e7bd aff9 043e a5d9 913d
000003a0: 6625 6e3d c4bb c9bc 047b a53d 109a 85bd
000003b0: 2d10 e4bb 99ce ffbc 2b07 be3c dc8f babd
000003c0: f2f6 9d3c 3e3e 793d f351 92bd db37 45bd
000003d0: a957 033d 5d3d be3b 0dd9 993c 33d3 c2bd
000003e0: d6e2 0fbd 1964 b53d f48b 43bd c043 7b3d
000003f0: 376e 70bd 6401 663d 8101 3d3b a131 3c3d
0.10931673 0.10297999 0.05017521 0.017511005 -0.06821865 -0.121640444 -0.05860558 -0.08317556
-0.009858188 0.101842515 0.12058978 0.006978728 0.1090321 0.047182526 0.10333017 0.13097967
-0.059897207 0.058288988 -0.020767828 0.13055731 0.10482431 0.12579238 0.0711508 -0.006200605
-0.037481163 0.017231204 -0.03171666 -0.018585589 -0.010987639 -0.025757527 -0.06378208 0.12754056
0.15849696 0.0224009 -0.0075754565 -0.05824861 -0.025683695 0.0040198164 0.01926671 -0.08829703
0.04359961 0.058782868 -0.047085565 -0.06341488 -0.04742988 0.012048008 -0.09460958 0.09901417
-0.031724535 0.065015785 0.074905194 -0.066429764 0.021446086 -0.034870423 0.0225182 -0.019080905
0.056338876 0.080714256 -0.08732237 0.117253914 -0.016669735 -0.049094137 -0.008967914 -0.08965198
-0.06935249 -0.05383131 -0.09691192 0.09815939 -0.06886245 -0.003912255 0.026730265 0.003649284
0.14176315 0.100071125 0.11188826 0.09165854 0.06777976 -0.07572625 -0.074074 -0.017481713
0.04917008 -0.0121825375 -0.04104737 0.07673691 0.028431084 -0.010831155 -0.0008602311 0.09796425
-0.086511336 0.078444876 -0.09103124 0.12802142 0.03397288 -0.067836806 0.0907049 -0.09592778
0.07744932 0.09214643 -0.06896375 -6.2052595e-06 0.100026794 0.029812844 0.007168849 -0.020663971
0.0135138035 0.06035417 -0.10400933 -0.046270482 -0.100128576 0.12590192 -0.055582162 -0.0818473
-0.105553694 0.009436945 -0.06785022 -0.10272962 0.024111558 -0.10121785 0.10213298 -0.11527893
0.09805007 -0.03516942 -0.0011921797 0.071209945 0.10119826 -0.0833015 0.069728546 -0.020260746
0.12391323 0.035760198 0.01843436 0.07495345 -0.025804363 0.023033785 0.079908 -0.071059786
-0.0949067 -0.0058026933 -0.07685007 -0.12126852 0.07958663 0.019798733 0.0006533156 -0.047602795
0.041217133 0.08619152 -0.07419933 -0.040845465 0.08363724 0.020472433 0.093386255 0.075035304
0.09467493 0.079957664 -0.062692255 -0.1140587 -0.019870704 0.07556 -0.113971986 -0.051997814
0.048979174 -0.022648145 0.12251687 0.06536375 -0.087605886 0.0786512 -0.13430825 0.07140199
-0.09175247 -0.029569862 -0.075643964 0.083981864 -0.03837508 0.008629936 0.071323514 -0.09695895
-0.03756177 0.11744744 0.0664396 -0.098522514 0.011398421 0.08060221 -0.10320411 0.057393357
0.067380235 0.041765794 0.08697158 0.006802842 -0.1091137 -0.04495356 -0.11800621 -0.020015756
0.024379907 -0.09637567 0.13208118 -0.071040206 0.11797149 -0.12646298 0.101689346 -0.034806654
0.15928756 0.10180902 -0.055712868 -0.10691117 -0.0069383304 -0.047037944 0.08943475 -0.02087114
0.100529425 0.13247155 0.07821475 0.1142059 -0.033497334 0.12694547 0.05458436 0.005492161
-0.10443105 -0.109227434 -0.13095593 0.0656027 0.01969388 0.11035532 0.09919551 0.065996185
0.17739633 -0.0066656144 -0.09817122 -0.0074343975 0.07768032 -0.113096796 0.12985872 0.071215905
0.058141135 -0.024625666 0.08080104 -0.06523526 -0.006959936 -0.031226443 0.023196777 -0.0910947
0.019282792 0.060850374 -0.07144537 -0.04814897 0.03206602 0.005805655 0.018780256 -0.09512939
-0.035128437 0.08856983 -0.04774089 0.06134391 -0.05869886 0.05615367 0.0028840008 0.045945767

lstm.bias_hh_l0 f4 [256]
00000000: 61df 463d 67e8 b53c f6ff 1b3d f227 643d
00000010: 0ad8 abbc 7183 6dbb d4e0 95bd 74ad ca3d
00000020: 47eb 243e 9573 d339 88fd bd3c 88e9 7bbd
00000030: 79a8 623d 1517 02bd ebda bc3c d6ea acbb
00000040: 5c13 52bd d669 403d 703f 413d 5cd5 8fbd
00000050: 4c4c 77bd 6b61 cebd 0d9c 633c 72fc 9ebd
00000060: 2300 fc3c 5df8 4ebd be8d d53d 7497 95bd
00000070: 765c 103e 7998 a43b 92bc d5bd 31c9 453d
00000080: 918f 543e aee3 30bd 1c17 573d 6b2d 64bc
00000090: d90f 9ebd 481a da3d 027f 063e 4298 71bd
000000a0: 854c bbbd 83c4 b5bd 53f8 9b3c 5360 1fbd
000000b0: 9d32 8f3c 5669 913c b9fb e33c c8d0 0cbd
000000c0: cf5a c33d c253 b3bc 78fc ab3c e88a bcbd
000000d0: b291 b5bd 4415 8e3d 7fd2 96bd e86d d7bd
000000e0: 3ca7 01be 86c4 68bc f68a 413d 1e00 2cbd
000000f0: b201 f13c 7c0a b6bd c404 043e 55e0 3cbc
00000100: d9dc b2bd 38bc e9bd 0e33 ca3d 1b65 473d
00000110: 1eee 973d 369d 98bc 8cd6 81bc 72a4 f5bd
00000120: 88a7 70bd ecff 4bbd 95da 063e 5f47 ba3d
00000130: 3d2f bcbd 31d6 b93b d970 5abd 1452 ab3d
00000140: ccb1 dbbb c097 46bd 5043 613d 8272 b53d
00000150: dd0a de3d 39fa e1bd 69c4 96bd cdf4 9d3d
00000160: 0ff0 863c 7c6c 6bbd 1aa6 c3bd 32b8 01bd
00000170: 0964 c73d cbe6 a2bd 2173 47bd 27d7 ecbd
00000180: 9df8 d23d a973 c93a b0f2 b9bd ec60 fbbd
00000190: 32d1 b8bc 33d6 c13d 860e 7a3d 8a9b 4e3d
000001a0: f74a 30bc eef7 353d 1e65 9ebd eed0 793d
000001b0: 28fa bc3d 96f1 933d adf6 083b ef05 66bd
000001c0: 7257 7d3c 691f b53d 9879 6f3d 765c 763c
000001d0: e8c7 c1bd 9547 863d 5fdb ca3d a021 aa3d
000001e0: e386 99bd 7974 09be 197c cdbc a039 44bb
000001f0: 16b0 05bb 3c81 d03d e99a f7bb a117 923d
00000200: 5521 a1bd 745f 96bd 103d ddbb 6f5a 483c
00000210: 40ae c8bd 1cd8 31bd e68b 3b3d 4a9f 56bd
00000220: 39c5 7b3c d6f3 be3d 24f0 9ebd b390 ddbb
00000230: 41c9 ecbd 9f42 9c3d 46ea 293d d7c4 8b3d
00000240: cd5f 093d 68f5 78bd 993e 323d 77c6 f43b
00000250: 9b25 03be fed3 c4bd 8cd0 abbd 9099 c73d
00000260: 242b cc3d d403 e1bb 4be2 493d d0c7 e13d
00000270: a792 cebd 5db2 cdbd b5f0 e4bd 49e5 debd
00000280: 6bbe f03a eeab c13c ca56 07bd 100c 9c3d
00000290: 963e b73d e3b7 8d3d 1167 28bd e707 e03d
000002a0: d56d 843c 6737 93bd a3b3 0b3d 6cfe 953d
000002b0: 9b08 7abd 502f 783d aa55 663d a7d1 33bd
000002c0: 067a 8abd 84d9 cebd 6daa 85bc 4553 813b
000002d0: 49c0 b5bd 9d06 98bd e011 edbd 530a f1bd
000002e0: 7f76 02bd 5ba3 9a3d 45db b23d bc2c f43d
000002f0: 3920 30bd 38f0 d3bd 4dad ec3d 6ca4 dd3b
00000300: 3de5 0e3e a9b5 973d 3623 df3d a334 d8bd
00000310: 5447 d03d 2181 50bc 54f9 993d 030f 5e3d
00000320: 9f67 43bd f58a b43c b5ee ef3d fbb8 c8bb
00000330: 4428 20bd 3711 afbc 3e68 63bd f040 b8bc
00000340: 969b 0c3e 2c9b 7c3d d7e7 8dbc 0200 633d
00000350: d64b d73d 1a0c 7dbd 2f20 7cbc 4920 e63d
00000360: 833d d53c 4f6f d23d c9b6 553d cc0a a33b
00000370: 0c9d c6bd 81e5 073e ebfb 073d a845 b2bd
00000380: 31f0 d53d 8719 e53d bf21 e23d 3bdf c0bc
00000390: c517 123d 731b c03c 1ae3 91bd 86d8 b43d
000003a0: 47e1 023c 4ff8 09bd 3ec4 a8b9 2065 713c
000003b0: b48f cf3d 0da9 db3d d127 04bb edce e23c
000003c0: ba72 2f3d f559 3b3e 36c4 143d 8741 1abc
000003d0: 60ff d7bc b519 b7bc 96dc cbbd c584 c4bd
000003e0: c102 09be e97a 3bbc 7431 6e3d 774c 9f3d
000003f0: a3ec cabd 4af4 ce3d 8de9 053e 8ae9 013c
0.048552874 0.022205545 0.0380859 0.055702157 -0.020977039 -0.0036241675 -0.07318273 0.09896365
0.16105376 0.00040331171 0.023192182 -0.06150201 0.05533645 -0.031760294 0.023053607 -0.005277018
-0.051287994 0.046975933 0.04717964 -0.07023117 -0.060375497 -0.10077175 0.013892186 -0.07762994
0.030761784 -0.050529826 0.10427426 -0.07304278 0.14097771 0.005023059 -0.104363576 0.048287574
0.20757891 -0.043185882 0.052512273 -0.013926844 -0.077178665 0.10649544 0.13134387 -0.058983095
-0.09145454 -0.08875372 0.019039309 -0.03891022 0.017480189 0.017750423 0.027829992 -0.034378797
0.09538805 -0.021890525 0.02099441 -0.09206182 -0.0886568 0.0693765 -0.07364368 -0.1051901
-0.12661451 -0.014207011 0.047251664 -0.0419923 0.029419754 -0.088887185 0.12892443 -0.011528094
-0.087335296 -0.11412853 0.09873019 0.048680406 0.07418464 -0.018629652 -0.015849374 -0.11994256
-0.05875352 -0.049804613 0.1316932 0.09095644 -0.091886975 0.0056712856 -0.053330276 0.083652645
-0.0067045446 -0.048484564 0.054995835 0.08859731 0.10841916 -0.11034054 -0.07361681 0.07712708
0.01647189 -0.057476506 -0.09553166 -0.031669803 0.09735877 -0.079541765 -0.04869378 -0.115644746
0.103013255 0.0015369552 -0.09079492 -0.12274346 -0.02256069 0.094646834 0.061049007 0.050441302
-0.0107600605 0.044425897 -0.0773413 0.060990267 0.09227401 0.07223813 0.0020898983 -0.056158002
0.015462743 0.08843882 0.05846557 0.015036693 -0.09461957 0.06556622 0.09905123 0.08307195
-0.07496431 -0.13423337 -0.025083588 -0.0029941574 -0.0020399145 0.101808995 -0.0075563085 0.07133413
-0.07867686 -0.07342425 -0.006751664 0.012228592 -0.097988605 -0.04341899 0.045787714 -0.052398004
0.015366846 0.09323852 -0.07760647 -0.0067616343 -0.11561824 0.076298945 0.041483186 0.068246536
0.03353863 -0.060780913 0.04351673 0.007469948 -0.12807314 -0.09610747 -0.083893865 0.097460866
0.09969166 -0.0068669114 0.049288075 0.11024439 -0.100865655 -0.10043786 -0.11178724 -0.108835764
0.0018367296 0.023641553 -0.033041753 0.07619488 0.08947484 0.06919839 -0.041113917 0.10939007
0.016165653 -0.071883015 0.03410686 0.07323918 -0.061043363 0.060591996 0.05623404 -0.043901112
-0.067615554 -0.101000816 -0.016316617 0.003946694 -0.08874566 -0.074231364 -0.11575675 -0.11769547
-0.031851288 0.07550689 0.087332286 0.11922595 -0.04299948 -0.103485525 0.11556492 0.0067639854
0.13954635 0.07407696 0.10895388 -0.10556915 0.10169855 -0.012726099 0.07518259 0.054213535
-0.047706243 0.022038916 0.11715452 -0.006125567 -0.0391009 -0.021370513 -0.055519335 -0.022491902
0.13731226 0.06167142 -0.017322464 0.05541993 0.105125114 -0.06177912 -0.015388533 0.11236627
0.026030308 0.10275137 0.05217627 0.0049756523 -0.09697923 0.13271143 0.033199232 -0.08704692
0.104462035 0.111865096 0.11041593 -0.023543945 0.0356672 0.023450589 -0.07123394 0.08830361
0.007988281 -0.03368407 -0.0003218967 0.014733583 0.10134831 0.10725603 -0.0020165334 0.02768656
0.04283402 0.18296035 0.036319934 -0.009415037 -0.02636689 -0.022351125 -0.09954183 -0.09595636
-0.13379957 -0.011442878 0.05815263 0.077782564 -0.09908416 0.10105188 0.13077374 0.007929215

lstm.weight_ih_l1 f4 [256, 64]
00000000: ef3c 62bd 1d8f 0ebd 26e7 093e ddc4 2c3d
00000010: 3bc2 d6bd cecf fabd e382 b43c 9b4f 05bb
00000020: 404e 30bd ff87 00bd cad0 393d ec42 673c
00000030: bbec cd3d bdf8 b63d 275e f8bd 32ae a43c
00000040: 6d97 33bc 181d d8bd ad0c 573d fbd9 883d
00000050: 4259 163e 0341 48bd 01cb e3bc bbc6 f9bc
00000060: e09e 3c3d ee3f 88bc d3de b9bd c272 663c
00000070: 3bd3 08be 9f07 203e ec86 2ebd 0200 e73d
00000080: 7834 733d d115 2abd 20fd c4bd 85d6 973b
00000090: 36b7 f33b 15a8 b0bb 70f8 9b3c 0903 67bd
000000a0: c761 b2bc b3c5 f23c 261e 87bd 221a bdbc
000000b0: 9038 02be 77f8 5c3c 6d77 b7bd 110d 76bb
000000c0: 85ff 023e acbb 19be 3689 1a3d 2715 76bc
000000d0: e4e6 16be fa93 45bd 8b60 f13d 4750 cc3d
000000e0: 161b 90bd d8a3 ecbd 9dd4 d73c 34b5 b5bd
000000f0: 26f7 06be d45f 8cbd 025f 743c 99e4 b7bb
00000100: c125 b23d 5c4b c6bc a7e8 623d 7530 a63b
00000110: cb25 9cbd 58ef ac3d 076b 563c b1a8 1cbd
00000120: 7711 2e3e 62c1 27be 6f79 c03d 623a 283d
00000130: 1013 c93d 8723 c3bd c177 95bd e339 4c3c
00000140: cb30 febc a9a3 5ebd 0db2 1b3d 5ef2 bcbd
00000150: b273 afbd 104e 32bd 4a5f a53d 4804 933d
00000160: bfc3 d63d d748 e43d a1bd b5bd 65c1 14be
00000170: 6b37 09be 3651 8f3d 4b82 06be b98d ce3b
00000180: dea0 92bd 728a 84bd c744 02bd c95a b83d
00000190: cedc cabd 4b46 fdbd d561 3c3d 7b3a 2bbd
000001a0: 5b80 02be f55c 673d 3d6d bfbd e8cc 82bd
000001b0: e412 03bd e866 84bd 1e61 8bbd 701b ef3c
000001c0: 4282 0bbd 02d0 6dbc 3bca 0a3e 1899 42bb
000001d0: de15 c1bc c6aa 803d 951c 343d aad9 1fbd
000001e0: 5080 d23d e458 acbd 6813 82bd 1775 c53d
000001f0: 6b09 183d 79b7 c9bc 66c1 08bd 00f4 be3d
00000200: d3a0 31bd 2092 d83d b659 9c3d 0c14 673d
00000210: 4e72 b0bd deb2 ad3c c45d 6ebd 3a56 bcbd
00000220: bc91 623d 5264 1ebd d8a6 04be 9aa0 ab3d
00000230: 0aeb 103b aca1 d23b 234b 0fbe 7eea 733c
00000240: 86eb d73b 0837 f8bd d846 e93b 6ec9 713c
00000250: 589d 093e 2a9b 873d 0744 bebd 89ab efbc
00000260: 6355 e1bd 8ea1 8a3d 780e e9bc 1cd8 8a3d
00000270: 5eb0 6b3d 3ae4 7bbd db72 c43a 7cf6 d03d
00000280: c4ec b6bd 1e7a 78bd 2475 a0bd f8be 03be
00000290: 9e68 d8bc ad24 a7bc e1f1 f3bd cca7 e7bd
000002a0: ab37 74bc f333 ca3d 2f92 6b3d 8b67 be3c
000002b0: d0cc 823d ce49 00be f7a1 36bd 7165 5f3d
000002c0: 307a ff3d 54ce 8cbd 89cc c43d 18d4 993d
000002d0: 77cd 09bc 59eb 263a cfe6 313d ae28 633d
000002e0: 2c90 713d 433e 81bc 831b eebb 0944 913d
000002f0: 123e dcbd f443 2b3c ff76 9a3d ca35 d1bd
00000300: 5d1e e23c 8a75 543d 2f76 0f3e a383 533d
00000310: 3bcd 8f3d 3318 ec3d f6e8 f0bd 0df1 0b3c
00000320: f874 c13d adbe ebbc 82a1 b5bd f3c0 e2bd
00000330: 7e94 9f3d 0cc3 323c 4ab4 393d bb7f a73d
00000340: e9dc c6bd 7d3a 92bd 0dcd dc3c e16c a7bd
00000350: cfa4 92bc 4d2a 10bc 63dd a73d d7b6 e23d
00000360: 24d8 803d 387a c7b9 a876 703c b2cf 763d
00000370: 5921 14be 941c 1f3e 95e1 a2bd 4d23 d83d
00000380: 9815 c7bd 04ca 08be 0b49 28bc 04ae 76bd
00000390: f65f 1ebe 12b9 aa3b 85c5 fdbd c42b 0a3d
000003a0: d34d 35bd 77b9 f7bc a6aa 9bbb 31fe ddbd
000003b0: cea7 b8bd 48c1 0fbe aa57 3b3d b293 77bd
000003c0: bbfa c23b 1105 3bbe ecdd 353d 235d fc3d
000003d0: 08db c13d 0a04 cabd 36e4 59bd c968 913d
000003e0: 4fe7 6fbd 6f25 173d 1d93 c0bd 39fd d33d
000003f0: 3d5e c63d da6c fc3d dd99 1abd ba42 793d
-0.055233892 -0.034804452 0.13467082 0.04217993 -0.10486265 -0.12246667 0.022035068 -0.0020341638
-0.043043375 -0.031379696 0.045365132 0.0141150765 0.100549184 0.08934162 -0.12127333 0.020102594
-0.010961396 -0.10552424 0.052502323 0.066822015 0.14682487 -0.048890125 -0.02780676 -0.03049027
0.046049953 -0.016632047 -0.090757035 0.014065446 -0.13361828 0.15627907 -0.04260914 0.11279298
0.05937621 -0.041524712 -0.09618592 0.004633727 0.007437612 -0.0053911307 0.019039363 -0.05639938
-0.02177514 0.029635286 -0.06597547 -0.02308375 -0.1271689 0.013486973 -0.089583255 -0.003754441
0.12792785 -0.15012997 0.03772851 -0.015019692 -0.14736515 -0.048236825 0.11785992 0.09976249
-0.07036416 -0.11554688 0.0263465 -0.088724524 -0.13180217 -0.06854215 0.01491523 -0.0056119678
0.08698607 -0.024205856 0.055397656 0.0050716945 -0.07624396 0.08444089 0.013087041 -0.038246814
0.1699885 -0.16382363 0.093981616 0.041071303 0.09818089 -0.09528261 -0.07298232 0.012464973
-0.031029126 -0.054355297 0.0380116 -0.09225915 -0.08566989 -0.043531477 0.080748156 0.07178551
0.10486554 0.111467056 -0.088740595 -0.14526899 -0.13400047 0.06997912 -0.1313564 0.0063035158
-0.07159589 -0.06471719 -0.031803872 0.09001691 -0.099053964 -0.12366923 0.045991737 -0.04180382
-0.12744276 0.056485135 -0.093470074 -0.06386739 -0.032000437 -0.0646494 -0.06805633 0.029187888
-0.03405977 -0.014514925 0.13553707 -0.0029693302 -0.023569997 0.062825724 0.04397257 -0.03902594
0.1027838 -0.08415392 -0.06351358 0.09641474 0.037118357 -0.02462362 -0.033387564 0.09323883
-0.043366265 0.10574746 0.076342985 0.056415603 -0.08615552 0.021203455 -0.05819489 -0.09196134
0.055314764 -0.03866989 -0.12954271 0.08380242 0.002211275 0.006427964 -0.13993506 0.01488745
0.006589356 -0.121198714 0.007119041 0.014757497 0.13438928 0.06621392 -0.09290319 -0.029256599
-0.11002614 0.06769095 -0.028449282 0.06779501 0.057541244 -0.06149695 0.0014987843 0.10203263
-0.08931878 -0.060663335 -0.07834843 -0.12865818 -0.026417073 -0.02040323 -0.11911369 -0.113113016
-0.01490585 0.0987319 0.05751246 0.023242733 0.06386721 -0.12528154 -0.044588055 0.0545401
0.12474477 -0.068752915 0.096093245 0.07511157 -0.008410803 0.0006367467 0.043433007 0.055458717
0.058975384 -0.015776759 -0.0072664632 0.07093055 -0.107540265 0.010453213 0.07542228 -0.102153376
0.027602369 0.051869906 0.14009927 0.05163921 0.070215665 0.11528053 -0.11763184 0.008541358
0.09446138 -0.028777445 -0.08868696 -0.110719584 0.077919945 0.010910761 0.045337953 0.081786595
-0.09710104 -0.07140062 0.026953245 -0.08175064 -0.017900852 -0.008799148 0.08196523 0.1107003
0.062912256 -0.00038047298 0.014676727 0.060256667 -0.14465846 0.15538245 -0.079531826 0.10553608
-0.097209156 -0.13358313 -0.010271321 -0.060224548 -0.15466294 0.0052100504 -0.123911895 0.033733144
-0.044263672 -0.030239804 -0.0047505675 -0.10839499 -0.09016381 -0.14038575 0.0457379 -0.060443588
0.0059502996 -0.18263651 0.044401094 0.12322452 0.09465605 -0.09864052 -0.053196155 0.07100064
-0.058570202 0.036900934 -0.0940306 0.10351033 0.09685943 0.12325449 -0.03774439 0.06085465

lstm.weight_hh_l1 f4 [256, 64]
00000000: 4184 7abd 012c 183d 60d6 cabc d0ff a03c
00000010: 1c17 a93d 91e3 9b3c 963b a73d 6ddb c7bd
00000020: ed30 dbbd 04c7 ed3d c01e 883d 51f8 b3bd
00000030: 6234 e8bd d014 b1bb 427e 023e 8193 86bc
00000040: fce3 cf3c aa82 adbd b02d 91bd de18 6e3d
00000050: 9ede bf3d 6054 b4bc 3b0c 903d 1d3b 133d
00000060: 403e 503d bcbb 55bd fa7b c2bd f1b2 f83c
00000070: 0897 e93d d822 7a3d e793 bf3d 925f e3bd
00000080: 1197 813d 1831 063d 5fd2 85bd b87c 2a3d
00000090: 6f94 a93c 13fd b83d 7d62 8e3d 3de1 f73d
000000a0: 4455 42bd 74cf b8bd b9de de3d 7d2e 9c3d
000000b0: 49df 433c da22 673d caec 5cbd 4243 823d
000000c0: 12e8 ebbd 2893 f6bd e2dd a03d 4768 d6bd
000000d0: cbaa 003e 9784 913d 672b 6d3c 2e4e d0bb
000000e0: 121e 433d 362d 1a3d cc9b 67bd 8775 e3bd
000000f0: 344d 803c 5c59 14be 5ccd 8ebd 2679 4ebd
00000100: ce14 183e 9497 183e 5a5a 0bbc 5291 54bd
00000110: 9311 e13d e546 cbbd 29da 583d 204d ad3b
00000120: c599 283d c42f 923d e81a a7bd be56 10be
00000130: a360 c7bc a0b5 2fbc 8a6b 833c 5cce dcbd
00000140: 6654 c63c 8768 923d 4d54 143d 1589 163c
00000150: 8a3a ff3d 5f06 5abc adb2 6f3d 6e4f 6d3d
00000160: cf04 f3bd e634 a93d 3c40 6ebd 5723 a1bc
00000170: bed2 4d3d 4f15 6dbc 4231 123c 2500 113d
00000180: f077 cfbd c2de acbc ad72 a13b f6c8 cabc
00000190: 7794 be3d 55e4 453d 365f 103d 0d3c 60bd
000001a0: cb68 e93d f1bf 22bd f454 313d 7fb9 16be
000001b0: b3a9 d0bd bc62 46bd 66cf 06bd 1706 333d
000001c0: 380e bbbd b636 c83c 6082 263d 8efa 103e
000001d0: abb5 c7bd a507 57bd 6817 b53d de09 a53d
000001e0: 1366 9e3d d5aa d4bd fcbd 2a3e 2902 23bd
000001f0: 35e9 eb3d d9d4 423d a4ef c13d 9eb9 bfbc
00000200: 21ba 953d fdc7 223e 0b67 e83c 7004 6bbd
00000210: 23b9 103e 97d4 013e cf25 433d 2878 61bd
00000220: 12a5 2b3d 46cb a0bd ddc3 ba3d 3652 a1bd
00000230: 4093 1d3d d178 05be 39e2 b73d dcbb 9dbd
00000240: 6e45 2bbe 341d ba3d 476b ffbd bd60 c0bd
00000250: 99ab 15bd 698e 8dbd 0b6f fcb9 9f24 babd
00000260: b35c c9bc 0f29 89ba 1ae5 d53d a8ca 113e
00000270: 585d 8cbd 2a0c 2a3c dcce b93d 4f79 39bd
00000280: c15b 993d 5533 793d e32f 963d 4c80 263d
00000290: 9898 573d 0674 013d 14a9 e93d fb2a 4abd
000002a0: 9049 243e f7e4 09be 1be1 a93c 5208 f2bd
000002b0: cc04 c2bd a3c5 f93d aa86 743d 16da b6bd
000002c0: f927 983d 3c56 6f3d fc8e 153d 9e60 963b
000002d0: 3100 943d 2627 9d3d 927c f2bc c1b4 193d
000002e0: f765 50bd 7fe7 f6bd 1e92 e1bc fe8d a73d
000002f0: dedb b2bd c47b 953d 7178 c5bc 00f8 3ebd
00000300: 04a2 30bd daca a63d 83e5 56bc eb46 163d
00000310: 96ca 8d3d 893d f03d 851f a3bd 7cd5 c4bd
00000320: c653 72bc 67fb 75bd 54fb e3bd d250 603d
00000330: 6ffe a53d ce43 063e 14f1 2ebc 89d4 c7bd
00000340: 67e4 463d b645 b8bd 1216 adbd ef2e ac3d
00000350: 2551 463b 4268 f3bc 90d3 d43d fafb b93d
00000360: 8a16 8e3c 4944 56bd 3cbd f13d ba43 b53c
00000370: a65b 153d edd7 9cbd 42ed 01be 1202 a8bd
00000380: 7608 cdbc e062 833d 7a6b c2bd e738 ea3c
00000390: a969 003e 6952 d53d ded7 13bd 57cb f438
000003a0: 2280 d7bd b237 923d e279 57bc e5df 7a3d
000003b0: b549 dcbd d88e 003e b4cb 97bd 42cd e83c
000003c0: d783 803c f049 b03d 9713 09bd 7138 363c
000003d0: ceb4 493d b0ce b3bc c1a1 f43d d799 20bb
000003e0: c754 b43d a1b1 ec3d f398 c3bd 4056 91bd
000003f0: 2a06 a2bc ad3a cabd 2c88 be3d 1dff a43d
-0.061161283 0.03715134 -0.024760425 0.01965323 0.08256361 0.01902941 0.08165662 -0.09758649
-0.10702691 0.11610225 0.0664649 -0.08787597 -0.11338116 -0.0054040924 0.12743476 -0.016427757
0.025377266 -0.08472188 -0.07088792 0.058129184 0.09368633 -0.02201289 0.07033583 0.035945047
0.050840616 -0.05218099 -0.09496303 0.030358763 0.1140576 0.061068386 0.09354382 -0.11102213
0.06327642 0.032761663 -0.06534266 0.041622847 0.020700661 0.09032645 0.06952379 0.12103508
-0.047444597 -0.090239435 0.10882325 0.076260544 0.011955091 0.05642972 -0.053936757 0.06360485
-0.11518873 -0.120397866 0.07854821 -0.10469108 0.12565152 0.07105368 0.01447568 -0.006356976
0.0476361 0.037640773 -0.056545064 -0.11106401 0.015661813 -0.14487213 -0.06972763 -0.050408505
0.14851686 0.14901572 -0.008505428 -0.0518964 0.1098968 -0.099256314 0.05294243 0.005288735
0.04116227 0.07138017 -0.08159429 -0.1409559 -0.024338072 -0.010724455 0.01604249 -0.107815474
0.024210166 0.07148843 0.036213208 0.009187956 0.12462337 -0.013307183 0.058520008 0.05793708
-0.118661515 0.08262043 -0.058166727 -0.019670172 0.050249808 -0.014470412 0.008922877 0.03540053
-0.10130298 -0.021102313 0.0049270005 -0.024754029 0.09305661 0.048313458 0.03524705 -0.05474477
0.11396941 -0.03973383 0.04329391 -0.14719199 -0.101886176 -0.048434004 -0.032912634 0.04370698
-0.091335714 0.02444015 0.04065168 0.14158079 -0.09751447 -0.052497525 0.08842355 0.08058523
0.07734313 -0.10384146 0.16674036 -0.039796982 0.1151909 0.04756627 0.09469536 -0.023403939
0.07310892 0.15896602 0.028369447 -0.05737728 0.14133124 0.12678753 0.04764348 -0.05504623
0.04190547 -0.07851271 0.09119389 -0.078770086 0.038470507 -0.13034369 0.089786954 -0.07701847
-0.16725704 0.09087601 -0.124716334 -0.09393451 -0.0365406 -0.06911928 -0.0004814792 -0.09089016
-0.024580335 -0.0010464507 0.10444088 0.14237463 -0.068537414 0.010378877 0.090726584 -0.045281705
0.07488204 0.06083997 0.073333524 0.040649697 0.05263576 0.03160479 0.11409202 -0.049357396
0.16043687 -0.1346625 0.020737221 -0.11817993 -0.09473571 0.12195899 0.05969874 -0.08928315
0.07429499 0.05843185 0.036513314 0.0045891544 0.07226599 0.076734826 -0.029600415 0.037525896
-0.05087849 -0.12055873 -0.027535494 0.0818138 -0.087333426 0.07298997 -0.024105283 -0.04662323
-0.04312326 0.081441596 -0.013116243 0.036688726 0.06923406 0.11730487 -0.07964996 -0.096110314
-0.014790481 -0.06005421 -0.111319214 0.054764576 0.0810517 0.13111803 -0.010677595 -0.09757335
0.048557665 -0.08997671 -0.08451475 0.084073894 0.0030260768 -0.0297128 0.10391915 0.09081264
0.017344732 -0.052311216 0.11803672 0.022127021 0.036464356 -0.07658372 -0.12688163 -0.0820352
-0.025028449 0.06415343 -0.09493156 0.028591586 0.12540306 0.10416109 -0.03609454 0.00011672702
-0.10522486 0.07139529 -0.013151618 0.06124868 -0.10756246 0.1255449 -0.074119 0.028418187
0.015687866 0.086078525 -0.033465948 0.011121855 0.049244694 -0.021949142 0.119449146 -0.0024505758
0.088052325 0.115573175 -0.09550657 -0.07096529 -0.01977833 -0.09874473 0.093033165 0.080564715

lstm.bias_ih_l1 f4 [256]
00000000: 4788 c0bd 7d85 203d e92c c6bd 8169 bbbd
00000010: 0a4c 973d 2c0c 9fbd 4f8f e13d 220d bfbd
00000020: 1950 3ebd f96d dfbc 3496 d83d a9e6 5dbd
00000030: 697d d53d 53c9 10bc 4bd0 ba3c f385 afbd
00000040: 2bcc 893d 38fa 9d3a 5caa 2ebd a39c cebc
00000050: 8724 d43d a635 133c ff6b cb3c 1bd6 a83d
00000060: 8291 183c 91b8 a63d 5b54 c73d 785a fc3d
00000070: 7fa3 aebd 25fa 0abd 11ce 023d 4ea1 d7bd
00000080: 94ed 15bc 9e30 c83c 12d8 48bd d0e4 333d
00000090: 675c 9fbd 39ed bf3b 0506 b03d a570 d83d
000000a0: 62be 66bd 3989 493d 8d13 d8bd 6e73 f53c
000000b0: 46e3 bc3d 0ded 84bd 664e c6bc 7ee1 18bd
000000c0: 508e fb3d be3d ed3c 36a8 e8bd c7c8 763d
000000d0: 31ca 5fbd f4cd f33d edd7 0f3e 63f2 de3b
000000e0: da55 01bd 857a 823d b430 e13c 344c df3c
000000f0: 175c 9ebb 6627 813d 988a d53d e370 ee3d
00000100: 8de3 013e 34e1 7dbd 7224 a4bd adf0 41bd
00000110: 3d73 9c3d 66db f23d 9760 b2bd 91c0 353d
00000120: debf 813d b3ce 24bb d11c 0dbd 82cd cf3d
00000130: 3600 cd3d af72 cf3d 272b 94bd 5501 233d
00000140: 56fb a7bd 5e90 ad3c 4c15 b13c fda5 4e3d
00000150: 96f9 66bd 6d56 a03d 2193 c83b 5905 ad3c
00000160: fd25 d63d 53a0 b63d d3f6 01be f645 1cbd
00000170: 0f00 b53d 9814 03bd e52e be3d 7fb1 95bd
00000180: dd02 a63d 9fad 8dbd 60b3 b93d 7ecc 70bd
00000190: b11f abbd c304 c73c 2349 d53d f8fc a33d
000001a0: f485 a93d 70d3 b03c 7215 c83c f799 cabd
000001b0: baf9 813d b952 6f3c 7aea 0a3d 7344 d0bc
000001c0: f599 1bbd 3359 3abd f59d a3bd 621a d7bd
000001d0: 1c83 0a3d 420d ec3d a1ce 9dbd fa1b 3f3c
000001e0: 7757 7dbd e2b1 123d afd5 bc3d ccdc 85bd
000001f0: 59fd cc3b ae2d f3bd 2cef 5a3d 1d36 2ebc
00000200: 09f4 b03b 1692 2bbc dfd7 4c3d 160d cfbd
00000210: 04ea 8c3b fe7d 6d3c b74d 1cbd 4df5 e23d
00000220: 878f 64ba f789 08be 19dd b1bd fdfc 453d
00000230: e63a 603d a6f2 593c f430 7d3c 74a3 9f3d
00000240: 19d3 cfbd 4c2a 903d 2b0b 31bd 18dd e2bd
00000250: 4322 e63d 79c7 9f3d 1ddb 88bd 2834 423c
00000260: 8d75 a7bd 6b60 f73c 82f6 34bd 0b4d ed3d
00000270: 3bbb 773d 576a 8dbd 0656 d0bc f150 f5bd
00000280: d171 eb3d 4527 ab3d c6d0 3bbd c769 193c
00000290: 280a e3bc d267 bbbd 7069 5ebd 5a5a 2abd
000002a0: ae90 a33d 43f2 b6bd 2be1 063d 0c11 b43d
000002b0: 50fc 8abd 0fdc 773b 90aa 2abd aaeb e13d
000002c0: c88a 403d dea7 a8bc 9944 8b3c fcf6 1abd
000002d0: d5bf 033e 667f 303c d83a 7a3c f265 c83d
000002e0: 5fd5 b33d e9b0 133d b435 efbc d038 f2ba
000002f0: cea2 5fbd 0b7a cfbd 6058 a03d 375d 1d3d
00000300: d822 0f3d 1dba 10ba 6fc1 f6bd e9c0 8dbd
00000310: d1ed 2c3c b758 be3d 2b0a 4abd f5cc 9e3c
00000320: c019 b63d cff9 ef3d 48b2 ba3c 6abe debd
00000330: fb9a f83b 0900 6b3c de8e 8dbd 77a3 083e
00000340: 56e6 c83d 4a06 9c3d 306e 62bd 76fa b9bd
00000350: 70a1 9dbd d13f 803d 46bf fb3c 02c1 8e3d
00000360: ed3c 8abd a68b 28bd 7181 95bd f104 c4bb
00000370: e956 ea3c d72a 6fbd 9ca0 adbd 483e b63d
00000380: 4c5f 373d 5520 053c 7516 743d e683 00be
00000390: 5c3f 75bd 966b 64bd 9b9b 6f3d f497 fe3d
000003a0: 1160 e0bd 26bf 12bd a921 2c3d 4587 9bbd
000003b0: 657b 89bc 6db3 2cbd f815 273d 4e60 853b
000003c0: 70f8 c63d ee93 b43d 8368 4e3d 5ced 6fbd
000003d0: bf55 a33d dec9 f13d a6b9 363d 2f11 29bd
000003e0: 4f03 793d 510e 22bd 56b4 88ba f4fc b43b
000003f0: 18e5 893d ae29 543d 247f 8f3d ea68 983d
-0.09400993 0.039189804 -0.09676535 -0.09150983 0.0738755 -0.077659935 0.11013662 -0.09328677
-0.046463106 -0.027274119 0.10575524 -0.054175053 0.10424311 -0.008837062 0.0228044 -0.08570471
0.06728395 0.001205272 -0.042642936 -0.025221175 0.103585295 0.008984959 0.02483177 0.082439624
0.0093120355 0.08140672 0.097328864 0.12321943 -0.08527278 -0.033929963 0.0319348 -0.10528813
-0.009150881 0.024437245 -0.049034186 0.043919384 -0.07781296 0.0058571366 0.08594898 0.1056836
-0.056333907 0.04920313 -0.10550604 0.029962268 0.092230365 -0.06490526 -0.024207305 -0.03732442
0.12283003 0.028960105 -0.11360209 0.06025007 -0.054636184 0.11904517 0.14047213 0.006803797
-0.031576015 0.06371025 0.027489044 0.027258016 -0.0048327553 0.06306343 0.10426825 0.11642625
0.1268446 -0.06198235 -0.08014764 -0.047348667 0.076391675 0.11858253 -0.08709829 0.0443731
0.06335424 -0.0025147616 -0.03445131 0.101466194 0.10009806 0.10129296 -0.07234793 0.039796192
-0.082022354 0.021187004 0.0216166 0.050451268 -0.056390367 0.078289844 0.0061210548 0.021120714
0.104564644 0.08917298 -0.12691812 -0.038152657 0.08837902 -0.03200206 0.09286288 -0.07309245
0.08106015 -0.06917881 0.09067416 -0.05878877 -0.08355654 0.024294263 0.1041434 0.08007234
0.08277503 0.021585196 0.024424288 -0.09892648 0.0634646 0.014607125 0.03391502 -0.025423264
-0.03798862 -0.045495223 -0.07989112 -0.10503079 0.033816442 0.11525966 -0.07705427 0.011664385
-0.06185099 0.035814174 0.092204444 -0.06536254 0.0062557873 -0.11873947 0.05345075 -0.010633019
0.005400185 -0.010471841 0.05001056 -0.10109918 0.004300358 0.014495371 -0.038160052 0.11081944
-0.0008718897 -0.1333388 -0.08684749 0.04833697 0.05474367 0.013302481 0.015453566 0.07794848
-0.101476856 0.070393175 -0.04322354 -0.110773265 0.11237004 0.07801718 -0.066824175 0.011853255
-0.08176718 0.030197343 -0.0441804 0.115869604 0.06048129 -0.06905048 -0.025431644 -0.11978329
0.11496318 0.083570994 -0.0458534 0.009363598 -0.027714804 -0.091506615 -0.05429977 -0.041590072
0.0798658 -0.089329265 0.03292958 0.08792314 -0.06786406 0.0037820374 -0.041666567 0.110312775
0.047007352 -0.020587858 0.017000483 -0.0378332 0.12866147 0.010772562 0.0152728185 0.097850695
0.08780932 0.036057387 -0.029200412 -0.0018480066 -0.054598622 -0.101307 0.07829356 0.038418975
0.03494534 -0.0005520897 -0.12048613 -0.0692156 0.010554747 0.09294265 -0.049326103 0.01938484
0.0889163 0.11717569 0.02279009 -0.10876162 0.0075868345 0.01434327 -0.069120154 0.13343607
0.09809558 0.07618387 -0.055280864 -0.09080975 -0.076968074 0.06262172 0.030730855 0.06970407
-0.06749902 -0.041148804 -0.073000796 -0.0059820344 0.028605895 -0.058390465 -0.084778994 0.08898598
0.044768617 0.008125384 0.05959173 -0.12550315 -0.059874877 -0.055766664 0.058498006 0.124313265
-0.10955823 -0.035826825 0.04202429 -0.0759416 -0.016782472 -0.0421633 0.040792435 0.0040703183
0.097153544 0.08817278 0.05039264 -0.058575973 0.07975339 0.11806081 0.044610642 -0.041276153
0.06079417 -0.039564434 -0.0010429721 0.0055233184 0.06733149 0.05179756 0.07006672 0.07441886
